p1_navigation/checkpoint.pth (torch_old, 62657 bytes, 8 tensors)

fc1.weight f4 [128, 37]
0.16021152 0.07082454 0.054330178 -0.20366941 -0.11068772 0.045793712 0.03588585 -0.0264526
-0.035435576 0.25671163 -0.0937862 -0.10537115 -0.108375706 -0.0067957058 0.010443774 -0.08778344
-0.10224592 -0.13793811 -0.061676364 -0.010862339 0.14509091 -0.2978793 -0.108747296 -0.5168094
-0.9196074 0.05337963 -0.10595859 -0.02712273 0.0518715 0.18540226 -0.11660744 0.014736062
-0.09690485 0.07638263 0.48799762 -0.011960133 0.03833109 0.014355326 -0.13576278 0.07043404
-0.01722797 0.11402409 0.048844643 0.11640177 -0.16500296 0.38805497 0.3866396 -0.083216496
-0.14293888 -0.05385664 0.26489845 0.30212024 0.03770946 -0.291104 0.08545895 -0.03705022
0.4097505 -0.07630497 0.08590168 -0.0029193047 -0.067101315 -0.06417118 -0.10446901 -0.109797075
0.24962002 -0.16983043 -0.009602598 -0.06031565 -0.115353115 -0.13876309 0.3189841 0.13838509
-0.050029997 -0.04303525 0.069574505 -0.15910415 0.16461809 -0.28490433 -0.076510616 -0.28404447
-0.102096125 0.22762515 -0.110357784 -0.13759002 0.18564193 -0.178824 0.16362321 0.13540208
-0.22851025 0.023105077 -0.15754108 0.12382419 0.0373704 -0.24282761 0.01611668 -0.24867028
0.05959941 0.010428355 -0.28117254 0.06376577 0.19143085 -0.19961458 -0.17407805 -0.13427661
0.18473685 -0.049128775 0.16657749 0.039113846 -0.085384734 -0.010252961 -0.10343693 -0.39907646
-0.08449786 0.12372763 -0.2761376 -0.2515752 -0.0611575 0.03995439 -0.0084270565 0.14794183
0.022679558 0.056662288 -0.17805094 -0.11791591 0.19584571 0.32584342 -0.29962248 -0.06538211
0.07286644 -0.08464061 -0.40577376 -0.14201777 0.11035644 -0.25059894 0.15960616 0.22938891
-0.23272704 0.11119126 0.09590134 0.067896806 -0.23734346 -0.11703704 0.17488948 0.071471065
-0.15350522 0.21167533 -0.07557812 -0.0065716472 -0.25221166 0.061218303 -0.046268895 0.10210553
0.08175798 -0.32849112 -0.2940201 -0.06213619 0.1901865 -0.884313 -0.02731822 0.008723153
-0.13202211 -0.19836856 -0.02884527 0.20914361 -0.2635841 -0.08096269 -0.21252763 -0.83592874
-0.39847898 -0.08283433 0.15720469 -0.16490632 -0.3393195 -0.07931832 -0.28186116 -0.05927026
-0.34609175 -0.62550896 -0.11652615 -0.0063394425 -0.024850512 -0.21808721 -0.33820826 0.22560985
0.04255608 0.026756719 -0.03336214 -0.11975844 -0.019711684 0.065403156 0.06808643 0.11034109
0.037508752 -0.106622376 -0.18065149 0.17645067 -0.09580952 0.07767405 0.033319626 -0.24653548
0.10809888 -0.11505186 0.049364895 0.07570154 0.03250085 0.0969264 -0.011633146 0.118900664
0.21746281 0.105012625 0.1485528 -0.0065358225 -0.16766796 -0.100422844 -0.84250504 0.13486075
-0.048027717 0.22921863 0.11493409 0.015074698 -0.091759935 0.0060797282 -0.015366839 -0.1873319
-0.17465752 0.092570856 0.0696336 -0.1646943 -0.1439154 0.0033772376 -0.15865962 -0.07852416
-0.071250774 -0.19933343 0.067066155 0.0039796447 -0.18401867 0.14045866 0.005111069 -0.16829859
-0.18404561 -0.24169682 -0.22204772 -0.33073494 -0.014377661 0.13234243 0.36286792 0.16289379
-0.13674885 -0.1639355 -0.08123346 0.048729107 -0.1456575 -0.31155732 0.1247276 -0.094001554
00000000: 7d0e 243e 750c 913d 5289 5e3d b78e 50be
00000010: 3eb0 e2bd 3092 3b3d 0bfd 123d 1fb3 d8bc
00000020: e524 11bd b56f 833e fb12 c0bd d4cc d7bd
00000030: 15f4 ddbd 83ae debb 5d1c 2b3c cec7 b3bd
00000040: 4f66 d1bd a63f 0dbe 5ba0 7cbd f4f7 31bc
00000050: b692 143e a383 98be e7b6 debd 9f4d 04bf
00000060: 646b 6bbf 99a4 5a3d d100 d9bd 7d30 debc
00000070: 3677 543d 17da 3d3e e2cf eebd 866f 713c
00000080: 0d76 c6bd 7f6e 9c3d d3da f93e 6ff4 43bc
00000090: 1001 1d3d 9a32 6b3c 6605 0bbe b93f 903d
000000a0: ac21 8dbc 7685 e93d 5211 483d 0d64 ee3d
000000b0: 89f6 28be 24af c63e a0f5 c53e 696d aabd
000000c0: 925e 12be c898 5cbd c5a0 873e 81af 9a3e
000000d0: 3c75 1a3d 950b 95be 1a05 af3d f9c1 17bd
000000e0: d1ca d13e c845 9cbd 38ed af3d ce51 3fbb
000000f0: 6a6c 89bd 2e6c 83bd d9f3 d5bd 4add e0bd
00000100: 649c 7f3e 07e8 2dbe 3754 1dbc 8b0d 77bd
00000110: 413e ecbd e917 0ebe e251 a33e d2b4 0d3e
00000120: 41ec 4cbd bb45 30bd 147d 8e3d 33ec 22be
00000130: a591 283e fbde 91be 99b1 9cbd 476e 91be
00000140: c617 d1bd 9116 693e 4303 e2bd 66e4 0cbe
00000150: eb18 3e3e a31d 37be d88c 273e d8a6 0a3e
00000160: 97fe 69be dc46 bd3c 7352 21be 8997 fd3d
00000170: b411 193d cda7 78be 2107 843c 6ca3 7ebe
00000180: 831e 743d b1db 2a3c d9f5 8fbe a197 823d
00000190: 7306 443e c467 4cbe 8441 32be cf7f 09be
000001a0: a82b 3d3e 413b 49bd 4a93 2a3e d735 203d
000001b0: 31de aebd 09fc 27bc bed6 d3bd c053 ccbe
000001c0: 370d adbd e964 fd3d e861 8dbe 77ce 80be
000001d0: 4980 7abd 37a7 233d a311 0abc 107e 173e
000001e0: 7bca b93c b716 683d fc52 36be e67d f1bd
000001f0: c78b 483e f3d4 a63e 1e68 99be 0ee7 85bd
00000200: 003b 953d 0e58 adbd 94c1 cfbe 1b6d 11be
00000210: 8f02 e23d 814e 80be cc6f 233e ede4 6a3e
00000220: ff4f 6ebe 3eb8 e33d ec67 c43d 7b0d 8b3d
00000230: 2a0a 73be 1eb1 efbd 3a16 333e 6c5f 923d
00000240: 7930 1dbe 6bc1 583e b4c8 9abd f956 d7bb
00000250: e321 81be 0bc0 7a3d 7484 3dbd b41c d13d
00000260: ba70 a73d fd2f a8be cd89 96be 8482 7ebd
00000270: 40c0 423e 5662 62bf 76ca dfbc 8eeb 0e3c
00000280: ce30 07be 2121 4bbe ea4c ecbc be29 563e
00000290: 7ff4 86be c4cf a5bd d8a0 59be 6dff 55bf
000002a0: 7005 ccbe 0ca5 a9bd 44fa 203e 34dd 28be
000002b0: 49bb adbe a571 a2bd 1b50 90be 5fc5 72bd
000002c0: f032 b1be 5b21 20bf 43a5 eebd 19bb cfbb
000002d0: 4d93 cbbc 4152 5fbe a229 adbe 4506 673e
000002e0: 494f 2e3d e830 db3c bda6 08bd ea43 f5bd
000002f0: 667a a1bc 17f2 853d e670 8b3d 82fa e13d
00000300: c7a2 193d d55c dabd b4fc 38be 7caf 343e
00000310: c837 c4bd 9313 9f3d 297a 083d cc73 7cbe
00000320: f262 dd3d 4fa0 ebbd d832 4a3d 6909 9b3d
00000330: 9c1f 053d 5981 c63d f398 3ebc 3182 f33d
00000340: 92ae 5e3e dc10 d73d 3a1e 183e 742a d6bb
00000350: 26b1 2bbe 7eaa cdbd 69ae 57bf f018 0a3e
00000360: b6b8 44bd 4ab8 6a3e 9062 eb3d defb 763c
00000370: a2ec bbbd 7538 c73b 32c5 7bbc efd3 3fbe
00000380: 6cd9 32be ca95 bd3d 109c 8e3d 9fa5 28be
00000390: 8f5e 13be a554 5d3b ab77 22be 46d1 a0bd
000003a0: edeb 91bd 101e 4cbe fb59 893d ae67 823b
000003b0: 646f 3cbe 65d4 0f3e c17a a73b 7756 2cbe
000003c0: 7476 3cbe 5f7f 77be 7a60 63be 1756 a9be
000003d0: 4890 6bbc c684 073e d3c9 b93e a1cd 263e
000003e0: e407 0cbe b5de 27be ba5d a6bd 2c98 473d
000003f0: 3d27 15be 7184 9fbe 2f71 ff3d e383 c0bd

fc1.bias f4 [128]
0.14846073 -0.16480218 -0.17454861 0.05026852 -0.11444938 -0.009607625 -0.08266554 -0.1434717
-0.031864237 0.17614745 0.09487246 -0.17007332 0.07483118 0.16555755 -0.14932197 -0.13789673
-0.13038847 -0.19550478 -0.004346069 -0.06030939 -0.21414277 -0.095361404 -0.01950783 0.0051240292
0.015651962 -0.029182408 -0.038917664 0.015581567 -0.14625816 0.15639994 -0.06984541 0.07171312
-0.23813166 -0.06420155 0.0047409153 0.13488173 -0.08609173 0.09007826 0.10252821 0.1104388
0.15153736 -0.016328128 -0.07616002 -0.015690152 -0.12115595 0.115347855 -0.006517229 -0.06983214
-0.17438793 0.0653282 -0.09028716 0.02888238 0.010117575 -0.15020418 0.15716578 0.22795902
-0.02101314 0.009693932 0.026042534 -0.03722031 -0.079551175 -0.10734565 0.106175385 -0.12630215
-0.079033524 -0.11901866 -0.12645897 -0.19053102 -0.09918662 -0.08408393 -0.02823081 -0.07796348
-0.096511915 -0.09043352 0.05750987 -0.092187874 -0.09283132 0.11000467 -0.1409186 0.057338223
-0.1123248 -0.0049657556 0.07524827 -0.102524266 -0.06701865 -0.17364018 0.008658058 0.12391235
-0.1217976 0.10575638 -0.028554736 0.14807788 0.062219784 0.054486316 -0.05815963 -0.006138606
-0.012241487 0.13376835 -0.054055877 0.057175137 0.1535848 0.043808635 0.049020685 -0.190631
0.07594878 -0.031947706 -0.0572264 0.13556807 0.18842366 -0.00020343615 -0.095151596 -0.20536612
0.113428086 0.028885936 -0.1197106 -0.013154189 -0.031387202 0.12028715 0.03053847 -0.09533848
-0.050142724 0.07140057 -0.0044384166 0.10347205 -0.14472452 -0.15899803 -0.14741796 -0.08370003
00000000: 1706 183e e7c1 28be dfbc 32be 5de6 4d3d
00000010: 7064 eabd 4d69 1dbc 8d4c a9bd 3fea 12be
00000020: 1384 02bd ff5f 343e 7e4c c23d b327 2ebe
00000030: 1741 993d eb87 293e dce7 18be cd34 0dbe
00000040: 8e84 05be 6832 48be 7869 8ebb fb06 77bd
00000050: 3e48 5bbe d74c c3bd e2ce 9fbc 79e7 a73b
00000060: 8b38 803c f20f efbc 2168 1fbd d449 7f3c
00000070: b3c4 15be 4e27 203e 1c0b 8fbd 54de 923d
00000080: c9d8 73be 1a7c 83bd ae59 9b3b 701e 0a3e
00000090: dc50 b0bd f37a b83d 4ffa d13d bd2d e23d
000000a0: 9c2c 1b3e 91c2 85bc c9f9 9bbd a288 80bc
000000b0: 9c20 f8bd 7f3b ec3d 7b8e d5bb 2704 8fbd
000000c0: c092 32be cbca 853d 79e8 b8bd be9a ec3c
000000d0: 2fc4 253c 20cf 19be 11f0 203e 176e 693e
000000e0: c023 acbc 4cd3 1e3c 2757 d53c 5374 18bd
000000f0: baeb a2bd 09d8 dbbd 7b72 d93d 5a55 01be
00000100: 54dc a1bd 0ec0 f3bd 767e 01be 901a 43be
00000110: 5b22 cbbd 3234 acbd 4d44 e7bc 51ab 9fbd
00000120: 0aa8 c5bd 3635 b9bd 788f 6b3d ffcc bcbd
00000130: 591e bebd 214a e13d f74c 10be 7cdb 6a3d
00000140: 8b0a e6bd c7b7 a2bb c41b 9a3d 3ef8 d1bd
00000150: 1341 89bd bbce 31be 87da 0d3c c2c5 fd3d
00000160: 0571 f9bd cd96 d83d 9feb e9bc baa1 173e
00000170: 2cda 7e3d 0b2d 5f3d cb38 6ebd 5c26 c9bb
00000180: 8590 48bc 92fa 083e b269 5dbd 7a30 6a3d
00000190: 5545 1d3e af70 333d eac9 483d c634 43be
000001a0: 098b 9b3d 99db 02bd 3b66 6abd 5bd2 0a3e
000001b0: 22f2 403e 7a51 55b9 d7de c2bd 7f4b 52be
000001c0: fc4c e83d 33a2 ec3c d52a f5bd ab84 57bc
000001d0: de8f 00bd 1c59 f63d d02b fa3c d240 c3bd
000001e0: 7562 4dbd 763a 923d 2370 91bb 27e9 d33d
000001f0: aa32 14be 61d0 22be bcf4 16be ec6a abbd

fc2.weight f4 [64, 128]
-0.07762577 0.04184629 -0.06149543 0.08904214 -0.26884475 -0.09559195 -0.094854735 0.008654407
-0.042915884 -0.2230314 -0.06819556 0.10606382 0.07908455 -0.04390719 -0.057802938 -0.07217467
0.02311566 -0.01930054 0.09480121 -0.011025289 -0.09990082 0.18541941 0.08640263 -0.0165828
-0.022101728 0.03360553 0.0023577414 -0.11907146 0.06496449 0.03293024 0.12063231 0.08171194
0.11705715 -0.033466406 0.22784802 -0.15381399 0.06560967 -0.029640537 -0.14723286 0.0026387677
0.08955988 -0.03629549 -0.077814996 -0.026320884 0.104481116 -0.08104006 -0.0072683753 0.08919958
-0.08664399 -0.035819475 0.041668266 0.005605426 0.11638589 0.15807843 -0.01332889 -0.21545453
-0.24689947 -0.043485817 0.07524984 0.29998097 0.009956456 -0.5404298 -0.050661404 0.08628131
-0.2763925 0.0414995 -0.17334193 -0.03896271 -0.0050028497 -0.0140593145 -0.13089305 -0.0040451866
-0.14509617 0.04649161 -0.22554879 0.0096849715 -0.10236341 0.0658081 0.1349537 0.015206041
0.019671736 0.06885854 -0.027990699 0.11715275 0.35423353 0.031496953 0.042827547 0.03280389
0.09996182 -0.07066087 0.075973 -0.09850582 0.38156098 0.05442572 -0.19851202 -0.0983385
0.009031251 -0.12130413 -0.33242354 -0.031965014 -0.18608639 -0.13155694 0.05892913 -0.118096836
0.059375163 0.046480294 -0.019052109 0.021580938 -0.063764356 0.03207177 -0.10323774 0.026757734
0.08953723 0.08445054 -0.13847564 -0.035092853 -0.23096952 0.025842557 -0.041986838 -0.18284808
-0.17311154 0.124748796 -0.045314904 -0.045094404 0.07672376 0.022099756 -0.043412853 -0.015287419
0.041654773 -0.23057447 0.03287312 0.044913873 0.013759422 -0.08191325 -0.24060746 0.15236926
-0.03177534 -0.2650737 -0.10469344 -0.3036951 -0.32016563 -0.5398163 -0.1422023 -0.010908772
0.06613077 -0.18921654 0.06662794 0.015357676 -0.15454037 -0.24572329 0.09589292 0.13588011
-0.141564 0.15321244 -0.18405616 -0.0689272 -0.20586309 -0.072376795 -0.53613126 0.11190301
-0.16403574 -0.13521518 0.2064305 0.12317591 0.031321358 0.13846643 -0.14960915 -0.06016143
0.0037617588 0.03796244 -0.3689831 0.24586408 0.0032647287 0.16427083 -0.31843624 -0.074819416
0.067805745 0.20438507 0.22338085 0.17924659 0.10165696 0.048486166 0.11890125 -0.4763746
-0.07556204 -0.29062748 0.08393759 0.097112335 0.10706053 -0.0885796 -0.087078415 0.22363818
-0.018489527 0.17863189 0.028200436 0.07428608 0.22363609 0.081390746 -0.028789766 -0.53834236
0.16223809 -0.10917779 -0.05466664 0.22553863 -0.3924629 0.13304251 0.27583924 0.12376762
-0.1629828 -0.36096993 0.01769549 -0.30454695 0.14895326 0.04995457 -0.48957604 -0.007635895
-0.3483561 -0.030881597 -0.038992453 0.08878429 0.14221652 0.18921687 -0.116698556 -0.13291366
-0.018888008 -0.06269937 0.0009363792 -0.31193808 -0.16474763 -0.11199631 -0.116994634 -0.06293692
0.0057045636 -0.046948723 -0.31309372 -0.013392373 0.28426182 -0.2066004 0.0013988566 -0.046433426
-0.09275831 0.18032275 -0.55718124 -0.04741337 -0.015212318 -0.26328987 -0.43497196 -0.063255034
-0.17117412 0.13142245 0.027714895 -0.14246702 -0.4812796 0.20969963 0.001441514 0.103634186
00000000: 42fa 9ebd 0467 2b3d a2e2 7bbd ba5b b63d
00000010: 05a6 89be b6c5 c3bd 3343 c2bd 37cb 0d3c
00000020: 91c8 2fbd 5862 64be 1daa 8bbd fd37 d93d
00000030: 15f7 a13d 07d8 33bd c6c2 6cbd 50d0 93bd
00000040: 0d5d bd3c 2b1c 9ebc 2327 c23d 6aa3 34bc
00000050: cd98 ccbd 96de 3d3e ddf3 b03d a7d8 87bc
00000060: af0e b5bc f4a5 093d 5684 1a3b bddb f3bd
00000070: 1a0c 853d dce1 063d 130e f73d 9758 a73d
00000080: a9bb ef3d 1214 09bd fe50 693e 6a81 1dbe
00000090: 5d5e 863d b6d0 f2bc 36c4 16be 2def 2c3b
000000a0: 2c6b b73d 94aa 14bd 785d 9fbd e59e d7bc
000000b0: 32fa d53d 55f8 a5bd 8d2b eebb 45ae b63d
000000c0: 6772 b1bd 71b7 12bd 58ac 2a3d b9ad b73b
000000d0: ba5b ee3d 50df 213e 6b61 5abc 1da0 5cbe
000000e0: 37d3 7cbe 2f1e 32bd 971c 9a3d 1b97 993e
000000f0: 6720 233c 9b59 0abf 5582 4fbd 41b4 b03d
00000100: 5183 8dbe 61fb 293d 8c80 31be 5d97 1fbd
00000110: f2ee a3bb 0a59 66bc d408 06be 7c8d 84bb
00000120: 1794 14be fd6d 3e3d 43f6 66be b7ad 1e3c
00000130: e8a3 d1bd 66c6 863d 4d31 0a3e c222 793c
00000140: 9f26 a13c b505 8d3d c04c e5bc c8ed ef3d
00000150: 195e b53e f302 013d f06b 2f3d 5f5d 063d
00000160: c8b8 cc3d a5b6 90bd bb97 9b3d 6bbd c9bd
00000170: f65b c33e 81ed 5e3d bc46 4bbe b265 c9bd
00000180: d0f7 133c 4d6e f8bd 6b33 aabe bfed 02bd
00000190: 6e8d 3ebe ddb6 06be ac5f 713d c1dc f1bd
000001a0: 5f33 733d 1f62 3e3d 2b13 9cbc 82ca b03c
000001b0: e396 82bd b05d 033d 4f6e d3bd 0933 db3c
000001c0: 4c5f b73d 68f4 ac3d 8fcc 0dbe 86bd 0fbd
000001d0: 4683 6cbe c5b3 d33c 64fa 2bbd 873c 3bbe
000001e0: 2744 31be 4c7c ff3d 1f9c 39bd e9b4 38bd
000001f0: 5921 9d3d 8c0a b53c add1 31bd 1578 7abc
00000200: 329e 2a3d b71b 6cbe f7a5 063d 9cf7 373d
00000210: 336f 613c 22c2 a7bd cd61 76be b006 1c3e
00000220: dc26 02bd bdb7 87be 8469 d6bd ed7d 9bbe
00000230: c0ec a3be 6731 0abf 7b9d 11be b5ba 32bc
00000240: 926f 873d fbc1 41be 3b74 883d c39e 7b3c
00000250: d53f 1ebe e39e 7bbe 8263 c43d 2824 0b3e
00000260: 27f6 10be b9e3 1c3e 3879 3cbe b429 8dbd
00000270: c6cd 52be 493a 94bd e63f 09bf 682d e53d
00000280: fcf8 27be d975 0abe 8462 533e a743 fc3d
00000290: d34a 003d 25ca 0d3e 2433 19be d56b 76bd
000002a0: d787 763b 817e 1b3d 5aeb bcbe cbc3 7b3e
000002b0: 0ff5 553b 9d36 283e 130a a3be ec3a 99bd
000002c0: bddd 8a3d 524a 513e f3bd 643e 6b8c 373e
000002d0: 8631 d03d 6e99 463d 8082 f33d 5fe7 f3be
000002e0: 45c0 9abd 20cd 94be 79e7 ab3d d5e2 c63d
000002f0: 8d42 db3d 3969 b5bd 2b56 b2bd 6801 653e
00000300: 5977 97bc 47eb 363e 9a04 e73c 4d23 983d
00000310: dc00 653e 31b0 a63d 84d8 ebbc ced0 09bf
00000320: be21 263e 9b98 dfbd 20ea 5fbd 99f3 663e
00000330: e6f0 c8be 4c3c 083e cd3a 8d3e e179 fd3d
00000340: f7e4 26be 0dd1 b8be 22f6 903c 94ed 9bbe
00000350: 3487 183e 2a9d 4c3d b6a9 fabe 8836 fabb
00000360: bb5b b2be 67fb fcbc 8db6 1fbd 8ad4 b53d
00000370: 35a1 113e 11c2 413e a7ff eebd 851a 08be
00000380: 06bb 9abc 8768 80bd 5877 753a 59b6 9fbe
00000390: 9ab3 28be 525e e5bd e29a efbd 12e5 80bd
000003a0: 59ed ba3b 4e4d 40bd d24d a0be af6b 5bbc
000003b0: c48a 913e 0e8f 53be d759 b73a fa30 3ebd
000003c0: 12f8 bdbd 87a6 383e 6ea3 0ebf 8634 42bd
000003d0: 163d 79bc eecd 86be a5b4 debe db8b 81bd
000003e0: 4548 2fbe 9b93 063e 590a e33c e0e2 11be
000003f0: 486a f6be 80bb 563e 2ff1 bc3a 293e d43d

fc2.bias f4 [64]
0.12139935 0.084888786 0.06805943 -0.06856914 0.08935272 0.05500148 -0.10257956 -0.11196374
-0.01716482 -0.01734642 -0.062761255 -0.025350058 0.11865878 0.20969786 -0.124161504 0.18834288
-0.048749473 -0.09070341 0.1648925 -0.11898737 0.07635477 0.13900635 -0.12486806 0.0182472
0.042016264 -0.03108391 0.013957184 -0.015882133 0.033012975 -0.033369668 0.064022735 -0.046805322
-0.023840148 -0.077767774 0.06765545 0.12431223 0.13711926 0.06016743 0.14693314 -0.015652986
0.0075847874 -0.011133696 0.052610733 0.029931182 -0.084963635 0.031958498 0.09690899 0.049755298
-0.07968013 0.18897319 -0.024926864 0.075364426 0.17289533 0.06583808 0.02293996 -0.02435534
-0.020000875 0.046619043 0.079324655 -0.046774495 -0.06994549 0.24000663 -0.0050713117 0.064875536
00000000: 39a0 f83d 2cda ad3d be62 8b3d fa6d 8cbd
00000010: 8ffe b63d 3b49 613d 3b15 d2bd 3f4d e5bd
00000020: 3d9d 8cbc 141a 8ebc f988 80bd edaa cfbc
00000030: 6003 f33d 09bb 563e 6348 febd f5dc 403e
00000040: 87ad 47bd b6c2 b9bd 94d9 283e a6af f3bd
00000050: e45f 9c3d ae57 0e3e d3ba ffbd 277b 953c
00000060: 3f19 2c3d afa3 febc acac 643c 3f1b 82bc
00000070: 9d38 073d a2ae 08bd 5a1e 833d f0b6 3fbd
00000080: 6a4c c3bc b644 9fbd f18e 8a3d 6997 fe3d
00000090: fe68 0c3e 2072 763d a475 163e b13a 80bc
000000a0: cf89 f83b 1b6a 36bc 5a7e 573d 3d32 f53c
000000b0: 6a01 aebd eae6 023d 3878 c63d 36cc 4b3d
000000c0: 562f a3bd 3082 413e 6c33 ccbc aa58 9a3d
000000d0: 790b 313e 1ed6 863d 95ec bb3c da84 c7bc
000000e0: e0d8 a3bc 9cf3 3e3d f774 a23d 9d96 3fbd
000000f0: 953f 8fbd 4cc4 753e 3f2d a6bb 77dd 843d

fc3.weight f4 [32, 64]
0.0046271966 0.24967313 -0.024531662 -0.32213014 -0.04008217 0.08991662 -0.06429703 -0.04179913
-0.06970624 0.31199485 0.005510837 -0.11209004 0.09226442 -0.1399682 0.18961003 -0.061721813
-0.07341413 0.07324149 0.0037358901 0.035664514 -0.044939894 0.08482056 -0.042034294 0.17509848
0.100961745 -0.042552516 -0.18909082 -0.16158366 -0.04112078 -0.19977297 0.04575868 -0.09059704
0.31339085 0.10978608 -0.14206734 -0.076363556 -0.4957088 -0.12254231 -0.11297918 -0.13882476
-0.13699594 -0.19328907 0.3827622 -0.40072542 -0.34866223 -0.3657573 -0.12774293 -0.081405595
0.20852679 0.054792352 0.089692496 0.15936112 0.06319714 -0.19397822 -0.10731974 0.10936343
0.040922157 0.025872694 -0.30278188 -0.027831707 0.04173429 0.0329968 -0.0075697275 -0.098372236
-0.051996488 -0.16209978 -0.086618885 -0.2955193 -0.16668685 -0.23673183 -0.03252025 0.0874417
-0.27124298 -0.2267 -0.020282209 0.15026522 0.060098615 0.0064960956 0.09038784 -0.11160564
-0.01137932 -0.016224366 -0.04969274 -0.031050442 -0.23616144 0.08075244 -0.0598052 -0.13400668
-0.005677418 0.090890214 0.07712233 0.06710097 -0.0056713293 0.15001577 0.26026165 -0.31750292
0.02123864 0.030582031 0.30347466 -0.066900365 0.030270876 -0.08092161 0.12618971 0.18178488
0.061310742 -0.18851224 0.13766296 -0.12278791 -0.23445003 0.0074502695 -0.039129566 -0.08407432
0.04161815 -0.034772735 -0.073855095 0.017156655 0.047837224 -0.09125203 -0.056637097 0.09580661
0.08788326 0.3977066 0.058694582 0.09208862 0.060761873 -0.031163314 -0.21247126 -0.18797721
-0.0147717735 -0.21984892 0.15163998 -0.06545425 0.050606664 -0.19623826 -0.15496281 -0.081484176
0.20152494 0.07246053 -0.0655177 0.17389931 0.14552797 0.18467677 0.06111682 0.15595083
0.17648077 -0.02676964 0.010411494 -0.17310582 0.11703715 0.089180514 -0.083626114 0.25661668
0.002188257 -0.12972452 0.20255102 0.43132395 0.15441988 0.18622482 0.20481966 -0.0010370524
-0.2770444 0.23809141 -0.22300485 -0.010377811 0.13385954 0.10917472 0.013191271 0.18212435
0.062473584 0.024062935 -0.41297448 -0.05074318 0.19066684 0.05475305 0.20951197 0.07194745
-0.09859331 0.14909023 0.21790193 -0.062491138 0.20230003 0.105631135 -0.1695572 0.17497969
-0.08523576 0.3274207 0.021623425 -0.080506906 -0.12122557 0.153973 0.2774897 0.14462106
-0.30363965 0.061865173 -0.04046509 -0.06835739 0.039173946 -0.058715373 -0.07626822 -0.033191066
-0.15168993 0.03302384 0.08282775 -0.1249296 -0.04828303 0.06195117 0.022124764 0.00420462
-0.23160766 -0.08418545 -0.23409489 0.1164607 -0.07854411 -0.029536562 0.17927897 -0.3984024
0.1722466 -0.05841735 -0.18935074 -0.3552306 -0.07512243 -0.040063724 0.1495984 0.27689734
7.457847e-05 -0.027032945 0.07370416 0.12357497 0.00315192 -0.027127357 0.063548386 -0.28482294
0.14055608 0.010504254 0.17129537 0.16250283 -0.2976386 -0.0093939705 0.062251527 0.19639088
-0.039593857 0.08230284 -0.03350782 0.1819008 -0.022583144 0.1021234 0.064267986 0.09871114
-0.024148647 -0.2116059 0.09369609 0.21875305 0.15106913 -0.020082874 -0.046519462 -0.23566948
00000000: bd9f 973b 50aa 7f3e a0f6 c8bc 3eee a4be
00000010: 342d 24bd 3426 b83d 29ae 83bd 9135 2bbd
00000020: 25c2 8ebd cabd 9f3e 4094 b43b 778f e5bd
00000030: 21f5 bc3d d353 0fbe 2229 423e 03d0 7cbd
00000040: 265a 96bd a2ff 953d d6d5 743b f414 123d
00000050: e512 38bd 67b6 ad3d 272c 2cbd 044d 333e
00000060: 08c5 ce3d 8c4b 2ebd 06a1 41be 3076 25be
00000070: 436e 28bd 4991 4cbe 746d 3b3d f18a b9bd
00000080: c474 a03e 86d7 e03d 1a7a 11be 7f64 9cbd
00000090: 8bcd fdbe 76f7 fabd a161 e7bd 1428 0ebe
000000a0: aa48 0cbe 92ed 45be 68f9 c33e e22b cdbe
000000b0: db83 b2be 8a44 bbbe 0bcf 02be fab7 a6bd
000000c0: 0c88 553e f26d 603d b3b0 b73d 902f 233e
000000d0: 816d 813d 3aa2 46be 74ca dbbd eff9 df3d
000000e0: fe9d 273d f9f2 d33c 3a06 9bbe 52ff e3bc
000000f0: 93f1 2a3d a727 073d 7a0b f8bb 6277 c9bd
00000100: 45fa 54bd 7cfd 25be 3e65 b1bd 4e4e 97be
00000110: f5af 2abe d469 72be f433 05bd a214 b33d
00000120: 5ce0 8abe 0b24 68be e026 a6bc 20df 193e
00000130: f729 763d 33dd d43b 431d b93d 7f91 e4bd
00000140: 5470 3abc f6e8 84bc 9d8a 4bbd 7f5d febc
00000150: 4ed4 71be 8961 a53d 4cf6 74bd 0c39 09be
00000160: a209 babb a624 ba3d 50f2 9d3d 3c6c 893d
00000170: 8fd6 b9bb bc9d 193e 0441 853e be8f a2be
00000180: a8fc ad3c 2b87 fa3c 0861 9b3e 0f03 89bd
00000190: a1fa f73c 3bba a5bd e037 013e d125 3a3e
000001a0: f920 7b3d 5a09 41be 85f7 0c3e 3a78 fbbd
000001b0: ab13 70be 6421 f43b 5346 20bd 282f acbd
000001c0: cb77 2a3d db6d 0ebd 5741 97bd 1d8c 8c3c
000001d0: f7f0 433d 58e2 babd 4dfc 67bd 4236 c43d
000001e0: 23fc b33d 33a0 cb3e bb69 703d f598 bc3d
000001f0: 71e1 783d 354a ffbc 1192 59be 197d 40be
00000200: 4f05 72bc 1320 61be 8347 1b3e e10c 86bd
00000210: ef48 4f3d aff2 48be 92ae 1ebe 2de1 a6bd
00000220: 8e5c 4e3e 3066 943d 252e 86bd a912 323e
00000230: 4905 153e e81b 3d3e a155 7a3d 93b1 1f3e
00000240: 60b7 343e 014c dbbc f994 2a3c a742 31be
00000250: 2cb1 ef3d 46a4 b63d 2b44 abbd 4363 833e
00000260: dc68 0f3b 81d6 04be 8969 4f3e 7ed6 dc3e
00000270: 3f20 1e3e b8b1 3e3e 3fbc 513e b4ed 87ba
00000280: c3d8 8dbe 3cce 733e 625b 64be b207 2abc
00000290: 7a12 093e ff96 df3d 3320 583c ce7e 3a3e
000002a0: 4de4 7f3d a21f c53c 6471 d3be 15d8 4fbd
000002b0: 2b3e 433e bc44 603d 4e8a 563e 2f59 933d
000002c0: 4aeb c9bd 1cab 183e af21 5f3e b5f6 7fbd
000002d0: bd27 4f3e 2355 d83d 67a0 2dbe e02d 333e
000002e0: 1690 aebd b0a3 a73e 9c23 b13c cee0 a4bd
000002f0: 1d45 f8bd 19ab 1d3e 2113 8e3e 8b17 143e
00000300: a876 9bbe 5666 7d3d b9be 25bd f6fe 8bbd
00000310: dc74 203d 887f 70bd 8332 9cbd 5bf3 07bd
00000320: 9b54 1bbe 0244 073d 98a1 a93d 17db ffbd
00000330: 6dc4 45bd 83c0 7d3d fe3e b53c e9c6 893b
00000340: 8f2a 6dbe 6c69 acbd 92b6 6fbe f382 ee3d
00000350: bcdb a0bd a9f6 f1bc e894 373e 66fb cbbe
00000360: 6a61 303e 0847 6fbd 29e5 41be c9e0 b5be
00000370: cad9 99bd dc19 24bd 5330 193e 7dc5 8d3e
00000380: 0367 9c38 3274 ddbc 35f2 963d e014 fd3d
00000390: 7190 4e3b 313a debc a825 823d 50d4 91be
000003a0: efed 0f3e 091a 2c3c 0e68 2f3e 2467 263e
000003b0: 1664 98be 2be9 19bc 75fb 7e3d b11a 493e
000003c0: 2b2d 22bd 648e a83d 7f3f 09bd 3444 3a3e
000003d0: 4900 b9bc 1326 d13d ef9e 833d 1129 ca3d
000003e0: 62d3 c5bc 38af 58be bce3 bf3d cd00 603e
000003f0: deb1 1a3e d784 a4bc 318b 3ebd 5753 71be

fc3.bias f4 [32]
-0.14300582 0.02346876 0.36106715 -0.014434675 0.046876933 0.116968706 0.016112465 0.25904638
-0.03908688 0.32202032 0.021598231 0.029841417 -0.14919151 0.0056786533 0.06250323 -0.01346045
0.2824623 -0.13765697 0.06257468 0.0992033 -0.12793754 0.13012809 -0.022980718 0.104291774
-0.124111466 0.13251622 0.083435036 -0.018970653 0.13738537 0.20266676 0.25047994 0.061321646
00000000: 1e70 12be 8f41 c03c cbdd b83e 6a7f 6cbc
00000010: 0702 403d 4a8d ef3d 4afe 833c baa1 843e
00000020: 9019 20bd d9df a43e c6ee b03c fd75 f43c
00000030: a9c5 18be ff13 ba3b b201 803d 3889 5cbc
00000040: e69e 903e f3f5 0cbe 2727 803d 1a2b cb3d
00000050: 0f02 03be 4c40 053e 0f42 bcbc ed96 d53d
00000060: 272e febd 55b2 073e fddf aa3d 5868 9bbc
00000070: c0ae 0c3e e087 4f3e e83e 803e 682c 7b3d

fc4.weight f4 [4, 32]
0.020858442 -0.021593897 0.20970793 0.08367762 -0.530153 0.3994874 -0.15539262 0.12749162
-0.1262998 0.19311124 -0.18093419 0.21797554 -0.2778956 0.28887877 0.25517717 -0.043361578
0.11447314 -0.036364943 -0.26734367 -0.37694636 0.018745072 0.087269194 -0.0044735004 0.041104183
-0.008892107 0.06792548 0.167095 -0.19840012 -0.024385234 0.029058129 0.18335174 0.084011495
-0.47407895 0.3391171 0.27303693 0.09460335 -0.14691617 0.17724933 -0.2134783 0.24588332
-0.2988624 -0.035456896 -0.10639167 -0.5495538 -0.18465312 0.15022422 -0.5871857 0.176438
0.057422973 -0.13166896 -0.045163292 0.0018782178 -0.016280483 0.1758411 -0.06326771 0.027646137
-0.0842106 0.256886 -0.0906179 0.08739188 -0.21648312 0.066932894 0.18677525 0.17385484
0.04908614 -0.049756333 0.13548745 -0.2728823 -0.13303874 -0.010325084 0.18941812 0.28285098
-0.14748766 0.07546348 0.22548354 -0.036388204 -0.29784313 0.13144438 0.17609103 0.4088414
0.20199774 0.14839464 -0.3201014 -0.017496265 0.15241215 0.034086198 0.0020114556 0.27053356
0.11549234 -0.10487521 0.012468146 0.008660463 -0.26316565 0.17309742 0.14140418 0.028846296
-0.025598682 -0.011079246 0.19361518 -0.26664525 -0.061400805 0.27304494 0.12911318 -0.05812565
0.13253236 0.27638984 -0.2306439 -0.484696 -0.1401931 -0.02056716 -0.18959773 -0.034196775
0.18587478 -0.120933786 -0.20984331 -0.38244796 -0.030059103 -0.054318056 0.29202554 -0.1864596
0.09392202 0.24974012 -0.48777026 0.04590192 -0.41250268 0.25083807 0.052550368 -0.34287465
00000000: 53df aa3c afe5 b0bc adbd 563e 2c5f ab3d
00000010: 1bb8 07bf 9d89 cc3e 3e1f 1fbe 2a8d 023e
00000020: bc54 01be f4be 453e d046 39be fb34 5f3e
00000030: 5548 8ebe ebe7 933e 95a6 823e e99b 31bd
00000040: e570 ea3d 68f3 14bd 45e1 88be 1dff c0be
00000050: 448f 993c 31ba b23d 7196 92bb dc5c 283d
00000060: 33b0 11bc 841c 8b3d f41a 2b3e 6729 4bbe
00000070: 8bc3 c7bc 500b ee3c 8fc0 3b3e 380e ac3d
00000080: 7aba f2be c2a0 ad3e 7fcb 8b3e 67bf c13d
00000090: 3171 16be d980 353e 0e9a 5abe d6c8 7b3e
000000a0: 7e04 99be 403b 11bd e0e3 d9bd 8faf 0cbf
000000b0: b515 3dbe 61d4 193e cd51 16bf 2aac 343e
000000c0: 5a34 6b3d 3ad4 06be 25fd 38bd 882e f63a
000000d0: a65e 85bc b00f 343e 8092 81bd 277a e23c
000000e0: 9b76 acbd 9086 833e e195 b9bd 84fa b23d
000000f0: c0ad 5dbe 1d14 893d 0342 3f3e 0107 323e
00000100: 8c0e 493d 4ccd 4bbd 39bd 0a3e 3bb7 8bbe
00000110: 4f3b 08be 8b2a 29bc d3f6 413e d8d1 903e
00000120: 0107 17be 998c 9a3d 28e5 663e cc0b 15bd
00000130: e57e 98be 5b99 063e 3551 343e a953 d13e
00000140: 7fd8 4e3e c4f4 173e 55e4 a3be 5454 8fbc
00000150: ee11 1c3e f89d 0b3d a0d2 033b 6083 8a3e
00000160: 3f87 ec3d d0c8 d6bd 3247 4c3c 9de4 0d3c
00000170: a6bd 86be 7340 313e 42cc 103e 114f ec3c
00000180: 54b4 d1bc ba85 35bc 0f43 463e ba85 88be
00000190: 697f 7bbd 8ccc 8b3e 3f36 043e 2915 6ebd
000001a0: 90b6 073e f882 8d3e ea2d 6cbe 132a f8be
000001b0: c88e 0fbe 767c a8bc e825 42be eb11 0cbd
000001c0: f555 3e3e 22ac f7bd 2ae1 56be 38d0 c3be
000001d0: 823e f6bc 9c7c 5ebd 5f84 953e 44ef 3ebe
000001e0: 305a c03d e0bb 7f3e 06bd f9be a703 3c3d
000001f0: 8d33 d3be d96d 803e 0e3f 573d 448d afbe

fc4.bias f4 [4]
0.29036644 0.18488353 0.1883621 0.15761866
00000000: e9aa 943e 1c52 3d3e ffe1 403e c966 213e
