Prioritized Experience Replay ddqn/checkpoint.pth (torch_old, 62657 bytes, 8 tensors)

fc1.weight f4 [128, 37]
-0.13912208 0.08311333 0.21697426 -0.028010655 -0.035638813 0.04423175 0.09761807 0.14837599
-0.12083119 -0.6348405 -0.023773555 -0.033114955 -0.13528104 0.086400814 -0.079116866 -0.095398486
-0.024943491 -0.15775001 0.18365952 0.3129624 0.005074236 -0.20180444 -0.1846404 -0.035827726
-0.1292849 0.32189077 -0.518819 -0.44705328 -0.31676084 -1.4352727 0.058244128 0.080370024
-0.08364896 -0.1478814 0.13741384 0.0077356137 0.0027550654 0.14192846 0.058374323 -0.41680783
-0.41945565 -0.06210223 -0.17655072 -0.034991328 -0.20521516 0.48289123 0.008020985 0.031949963
-0.38548437 -0.10833554 0.2822692 0.112468034 0.10943932 -0.12599449 -0.53594685 0.25707337
0.3356168 -0.17930508 0.13890323 -0.16270508 0.22672048 0.025870599 -0.03622074 -0.053000644
0.09447396 -0.18138729 0.20966801 -0.22073051 0.39617878 -0.25190848 0.0037622314 0.1334532
-0.24642427 -0.073705256 -0.23919633 -0.20125732 0.21971315 0.052947223 0.10848327 -0.14780743
-0.22700664 0.12346891 -0.09717097 0.18511158 0.2712487 -0.54947585 0.08667136 -0.064732276
-0.3338741 -0.15763918 0.16997541 -0.08214676 -0.08331183 0.15110298 -0.1723572 -0.11088309
0.14432424 -0.14268109 0.30900708 -0.16208982 0.012786797 -0.040961377 0.027778111 -0.040876966
0.06674823 0.13878803 0.097028136 0.03284007 0.07905827 -0.17251033 -0.017243573 -0.2252171
0.01969286 -0.36340997 0.15752709 -0.020281732 0.26073307 -0.25723144 -0.07663806 -0.4342764
0.24071568 0.014244353 -0.059203327 -0.11748361 0.32727295 0.26731074 -0.22109134 0.030662546
-0.12045346 -0.2212876 -0.2796096 -0.040539797 -0.139595 -0.2046185 0.32345554 0.10424174
-0.25735137 0.25660202 -0.04957158 0.17203349 -0.31812125 -0.12586933 -0.050068278 0.13137875
0.14299503 0.27711114 -0.096943766 -0.035561167 0.0016287682 -0.0038336269 -0.0015075124 0.26981646
0.31075263 -0.2703169 -0.020300554 -0.04242275 0.3585401 0.4355035 0.036510903 -0.016787
-0.07727891 -0.19223425 0.2827768 0.10872419 -0.062884025 -0.006294268 0.19832338 0.031365205
-0.24418817 0.030185372 0.09159581 0.16289185 0.057529688 -0.030247688 -0.089232884 -0.21688081
0.16752104 -0.19817801 0.09326931 -0.01682162 -0.24169338 0.21091513 0.32814473 0.01690669
0.052358113 0.027254509 -0.18702908 -0.09172462 -0.09333203 0.30668506 -0.060590416 -0.12545347
0.15315177 0.09748618 0.6645553 -0.021161776 -0.0006383242 -0.001808915 0.108162805 0.12854882
0.038276955 -0.119092576 0.0011975142 0.18611652 0.22988808 -0.092197396 0.037116565 0.20603995
0.0128897 0.11433892 0.036520265 -0.045802496 -0.11144674 -0.083607525 -0.026259217 0.053952817
0.13636808 0.11661868 -0.009321406 0.10182731 -0.09131885 -0.009313057 -0.18059313 0.24898614
-0.2631905 0.13107987 -0.32435918 -0.71332943 0.12467742 -0.24949543 -0.6145542 -0.031997032
-0.13854791 -0.45869514 -0.0092151165 -0.05064402 -0.26602793 -0.33284903 -0.041889478 0.008939839
0.14354934 -0.39748156 -0.1531898 -0.22330381 0.011159238 -0.47458366 0.17684525 -0.2244388
-0.12236179 -0.18419337 0.2564851 -0.25499356 -0.40128526 -0.45625368 0.10446179 -0.03266743
00000000: 0576 0ebe 5237 aa3d 802e 5e3e 9a76 e5bc
00000010: 01fa 11bd 5a2c 353d fceb c73d e0ef 173e
00000020: 5876 f7bd e884 22bf c2c0 c2bc 8ca3 07bd
00000030: 1d87 0abe e9f2 b03d 0608 a2bd 4860 c3bd
00000040: 4b56 ccbc 3889 21be 3e11 3c3e 9c3c a03e
00000050: c745 a63b d3a5 4ebe 5f12 3dbe 18c0 12bd
00000060: 4363 04be dece a43e 52d1 04bf 2be4 e4be
00000070: 7a2e a2be 04b7 b7bf 6591 6e3d 0a99 a43d
00000080: 2550 abbd 396e 17be 37b6 0c3e 087b fd3b
00000090: 548e 343b b255 113e ea19 6f3d d667 d5be
000000a0: e4c2 d6be e85e 7ebd b6c9 34be 1153 0fbd
000000b0: ec23 52be 853d f73e 736a 033c f7dd 023d
000000c0: 355e c5be 06df ddbd 9785 903e a455 e63d
000000d0: b921 e03d b304 01be d033 09bf 1f9f 833e
000000e0: f7d5 ab3e c09b 37be a63c 0e3e 299c 26be
000000f0: 6a29 683e 94ee d33c 335c 14bd 3417 59bd
00000100: 907b c13d 97bd 39be 36b3 563e 2e07 62be
00000110: f2d7 ca3e 26fa 80be c58f 763b f5a7 083e
00000120: a556 7cbe c8f2 96bd e2ef 74be 6616 4ebe
00000130: 7cfc 603e 30df 583d 7a2c de3d d55a 17be
00000140: 6e74 68be 45dd fc3d 9301 c7bd e48d 3d3e
00000150: 1ce1 8a3e 73aa 0cbf c180 b13d 5b92 84bd
00000160: 8cf1 aabe 2a6c 21be 090e 2e3e 8f3c a8bd
00000170: 659f aabd bdba 1a3e 687e 30be ac16 e3bd
00000180: bcc9 133e fe1a 12be 2d36 9e3e e0fa 25be
00000190: b77f 513c 1ec7 27bd ec8e e33c 9b6e 27bd
000001a0: 4cb3 883d 731e 0e3e b0b6 c63d 4f83 063d
000001b0: 4de9 a13d 8ca6 30be 6542 8dbc 509f 66be
000001c0: ec52 a13c df10 babe c84e 213e e025 a6bc
000001d0: ce7e 853e d7b3 83be 6af4 9cbd 7a59 debe
000001e0: 2c7e 763e 2661 693c 307f 72bd 3f9b f0bd
000001f0: 5290 a73e f4dc 883e c565 62be 0530 fb3c
00000200: 4eb0 f6bd 3799 62be fd28 8fbe 0f0d 26bd
00000210: fef1 0ebe 8387 51be f79b a53e b27c d53d
00000220: 8fc3 83be 5761 833e 920b 4bbd 8c29 303e
00000230: cae0 a2be e4e3 00be 6514 4dbd 2788 063e
00000240: 4a6d 123e 83e1 8d3e 748a c6bd 96a8 11bd
00000250: 647c d53a 963d 7bbb b997 c5ba 6225 8a3e
00000260: f81a 9f3e fa66 8abe 594d a6bc 7ac3 2dbd
00000270: 9192 b73e 51fa de3e 758c 153d e484 89bc
00000280: 6844 9ebd 0ed9 44be 1fc8 903e caaa de3d
00000290: 57c9 80bd 2640 cebb 4915 4b3e cd78 003d
000002a0: 770c 7abe 5047 f73c 9696 bb3d 1fcd 263e
000002b0: 40a4 6b3d 00ca f7bc bbbf b6bd 0116 5ebe
000002c0: a38a 2b3e 2def 4abe fb03 bf3d 7ecd 89bc
000002d0: 787e 77be 23fa 573e 9602 a83e e67f 8a3c
000002e0: 7675 563d d944 df3c 8d84 3fbe 1eda bbbd
000002f0: dd24 bfbd d305 9d3e a82d 78bd e076 00be
00000300: d1d3 1c3e d6a6 c73d 4c20 2a3f 765b adbc
00000310: 3655 27ba 1e19 edba 7684 dd3d 4da2 033e
00000320: 4cc8 1c3d cfe6 f3bd e9f5 9c3a 5495 3e3e
00000330: c867 6b3e fdd1 bcbd 8a07 183d 23fc 523e
00000340: 522f 533c 862a ea3d 4696 153d 669b 3bbd
00000350: 303e e4bd 6c3a abbd 921d d7bc a1fd 5c3d
00000360: 13a4 0b3e c6d5 ee3d cfb8 18bc d68a d03d
00000370: 6105 bbbd cb95 18bc 68ed 38be 39f6 7e3e
00000380: e8c0 86be cd39 063e 6812 a6be c29c 36bf
00000390: e056 ff3d bb7b 7fbe 6d53 1dbf 520f 03bd
000003a0: 81df 0dbe 17da eabe 00fb 16bc 1b70 4fbd
000003b0: d034 88be 306b aabe 4d94 2bbd 6778 123c
000003c0: 99fe 123e b482 cbbe c9dd 1cbe c1a9 64be
000003d0: 3dd5 363c a1fc f2be ec16 353e 49d3 65be
000003e0: d198 fabd 309d 3cbe 0452 833e 848e 82be
000003f0: 4375 cdbe 159a e9be 10f0 d53d 48ce 05bd

fc1.bias f4 [128]
0.21290375 -0.16706349 -0.23955697 0.047040783 -0.030676113 -0.058497474 -0.12946025 -0.08056012
-0.042659506 0.04740557 0.15081882 -0.17363442 0.11958235 0.1022797 -0.11324208 -0.18780033
-0.12757185 -0.20833969 -0.007871143 -0.016576435 -0.15286885 -0.097353116 0.05079672 -0.010163829
-0.0065282034 -0.095395595 -0.1212233 0.062468696 -0.1359168 0.18204284 -0.008124652 0.035794307
-0.14549418 -0.009725698 0.03947467 0.100029826 -0.060740873 0.10535043 0.08021255 0.15928426
0.11770872 -0.01973676 -0.11714884 0.010797885 -0.086716115 0.110824384 -0.040589213 -0.10850355
-0.017501451 -0.004140948 -0.020009752 0.048810676 0.047198888 -0.08499536 0.16038446 0.13926698
-0.05687774 -0.041242037 0.05264941 -0.026568279 -0.038764134 -0.17008267 0.09695689 -0.1773212
-0.11823657 -0.19447163 -0.14061105 -0.14488617 -0.09920736 -0.13870889 -0.1357082 -0.14668164
-0.1804859 -0.08019834 -0.06072362 -0.094389506 -0.10593111 0.11364691 -0.07277817 0.06790627
-0.048735563 0.07008161 0.041827 -0.044738635 -0.024899868 -0.051729873 0.009907526 0.14367355
-0.17638294 0.058923494 -0.15737164 0.14769335 0.08087283 0.12266291 -0.05593362 -0.01338211
0.041063055 0.1268901 -0.005736759 -0.102932304 0.094767615 0.0029347842 -0.0036329504 -0.16742213
0.09618947 0.016678113 -0.07539314 0.11315585 0.15018295 -0.086948864 -0.11306607 -0.15155429
0.097046785 0.053624634 -0.103673734 -0.059578516 -0.10498665 0.1338607 -0.0009017094 -0.11021216
-0.100939676 0.16636693 0.0025291676 0.11221755 -0.19668421 -0.17190285 -0.13738221 -0.09757388
00000000: 7103 5a3e b112 2bbe 6c4e 75be d6ad 403d
00000010: 794c fbbc 0c9b 6fbd 3a91 04be b4fc a4bd
00000020: bcbb 2ebd 582c 423d 4070 1a3e 39cd 31be
00000030: 97e7 f43d 0578 d13d 77eb e7bd bb4e 40be
00000040: 32a2 02be 0057 55be f7f5 00bc 4ecb 87bc
00000050: a789 1cbe 1261 c7bd 3910 503d 3086 26bc
00000060: 8aea d5bb c45e c3bd ec43 f8bd 2ddf 7f3d
00000070: c62d 0bbe 7069 3a3e 431d 05bc 0d9d 123d
00000080: 6dfc 14be 8958 1fbc 31b0 213d 70dc cc3d
00000090: 6ccb 78bd f7c1 d73d 7a46 a43d 6a1b 233e
000000a0: 4511 f13d fcae a1bc bbeb efbd 9de9 303c
000000b0: 3898 b1bd e5f7 e23d e040 26bd 1c37 debd
000000c0: 345f 8fbc cab0 87bb 7eeb a3bc b4ed 473d
000000d0: 9f53 413d 0c12 aebd d33b 243e 019c 0e3e
000000e0: a2f8 68bd 69ed 28bd e8a6 573d b8a5 d9bc
000000f0: 24c7 1ebd 272a 2ebe 5591 c63d b093 35be
00000100: 0426 f2bd 9223 47be 58fc 0fbe 0a5d 14be
00000110: 3a2d cbbd b409 0ebe 17f7 0abe b633 16be
00000120: 4cd1 38be 073f a4bd 55b9 78bd 494f c1bd
00000130: 69f2 d8bd b6bf e83d b90c 95bd 7112 8b3d
00000140: f19e 47bd f286 8f3d ca52 2b3d dc3f 37bd
00000150: cffa cbbc b4e2 53bd 2d53 223c 291f 133e
00000160: bb9d 34be c359 713d 0826 21be ed3c 173e
00000170: a7a0 a53d b136 fb3d a71a 65bd a340 5bbc
00000180: bc31 283d 7aef 013e 6cfb bbbb 2cce d2bd
00000190: 8615 c23d 8255 403b cb16 6ebb b570 2bbe
000001a0: fcfe c43d 8aa0 883c b867 9abd 41be e73d
000001b0: 8fc9 193e 3f12 b2bd 2f8f e7bd 0c31 1bbe
000001c0: 77c0 c63d 81a5 5b3d e552 d4bd 9a08 74bd
000001d0: 3e03 d7bd c812 093e b260 6cba eab6 e1bd
000001e0: 76b9 cebd 185c 2a3e 64c0 253b 51d2 e53d
000001f0: 9667 49be 4d07 30be ecad 0cbe d0d4 c7bd

fc2.weight f4 [64, 128]
0.16528784 -0.25236842 -0.23176937 -0.14753112 -0.111922905 -0.20579997 -0.37652588 -0.18336667
-0.097205564 0.022947455 -0.024024585 0.0720675 -0.20841414 0.1980203 -0.13696729 -0.031137519
0.03907015 0.18860176 0.18502775 -0.34007847 0.043038346 -0.14625995 -0.071928576 -0.01939316
0.020842811 -0.12570722 0.12525645 -0.5476932 -0.19500786 0.014200215 0.012828829 0.14170942
0.07316314 0.0691224 0.053855766 -0.06348544 -0.220506 -0.20118064 0.10469095 0.16531344
0.1003709 0.047805805 -0.03629806 0.1027679 0.07944019 0.18260227 0.025583237 -0.057777353
-0.14320141 0.08609621 0.06910099 0.13804117 -0.36544308 0.11473514 0.069594614 -0.047185767
0.056032043 -0.05101108 0.0021307708 -0.17108808 -0.11637443 0.09151198 0.0036035946 0.08000341
0.059788514 -0.117707096 -0.037513416 -0.007737721 -0.08994622 0.05058987 0.19674088 -0.07034822
-0.074231066 -0.15456176 -0.0113954265 -0.20415317 0.0074343625 -0.068467826 -0.01831726 -0.20841949
-0.19437517 -0.15939035 0.07502974 0.11474443 0.22100742 0.108739756 -0.2518084 -0.17376764
-0.008902464 -0.0303073 0.19099002 0.021090282 -0.12555097 0.19101748 -0.1886738 -0.06459216
-0.17925952 0.0040683723 0.015953032 -0.09424431 0.08472919 -0.120685846 0.14273524 0.32678884
-0.13209485 0.008328691 0.038535427 0.02948302 0.0083380705 -0.2710588 0.16491298 -0.0290239
0.12279599 0.042620625 -0.0038011207 0.13799967 -0.17782816 -0.15858538 -0.063870914 -0.16606613
0.17582299 0.020424653 -0.0045682504 -0.04051035 0.101747036 -0.059113655 0.057037547 -0.090881705
-0.049035482 -0.29696104 -0.1091351 0.22245175 -0.29963908 -0.022668423 -0.014290839 0.001137971
-0.016904429 -0.17395495 -0.06910385 -0.12525272 -0.2753582 -0.09340008 0.044896953 -0.13733439
0.1971516 -0.11582107 0.040777296 -0.023103599 -0.07386857 -0.12139602 0.018511843 -0.2874
-0.113641225 0.12323821 -0.14465533 -0.25069612 -0.04898653 -0.10562714 -0.14197393 0.08574908
0.06465293 -0.09200946 0.012436413 -0.32629848 0.08144401 0.04573327 0.012725875 0.005062609
-0.37591055 -0.023190197 -0.050929226 -0.032361485 0.19751395 -0.19004302 -0.42954874 -0.20297505
-0.15935576 0.10745306 0.112773016 -0.41938445 -0.3809877 -0.023459567 0.028067227 0.024626167
-0.014585779 -0.03751751 -0.10679649 -0.3043902 -0.110413305 -0.41355067 -0.104984835 0.064851165
-0.08279445 -0.15767735 0.10046656 0.09104907 -0.12582836 -0.005358156 -0.10439676 -0.122320324
-0.23042794 0.15096724 -0.06469146 -0.05347317 -0.05009086 -0.16903383 -0.48985955 0.06244704
-0.1559492 -0.49926025 -0.08708501 -0.19281267 -0.09931069 0.036766708 -0.27648297 0.16595134
-0.028758358 -0.13989052 -0.23928022 0.021417202 -0.12289625 -0.047766205 -0.12133006 -0.13611636
-0.43779555 -0.23852552 0.08815672 -0.2647699 -0.04933274 -0.08022441 -0.47711247 -0.07688581
0.14453807 -0.21190399 -0.18646194 -0.2736153 0.0042116563 -0.36606747 -0.18586707 0.006573835
-0.20702061 -0.007871597 -0.20163508 -0.07162696 0.19296142 0.014858377 -0.31952223 -0.017060367
-0.056584507 -0.09626592 0.025889605 -0.1474931 0.10875353 0.1265334 -0.05983616 -0.1447374
00000000: 3741 293e 6f36 81be f354 6dbe 6612 17be
00000010: d637 e5bd 3abd 52be 00c8 c0be 79c4 3bbe
00000020: b613 c7bd 4dfc bb3c 35cf c4bc 2098 933d
00000030: 846a 55be d5c5 4a3e 2741 0cbe 1c14 ffbc
00000040: 0608 203d d220 413e ea77 3d3e c41e aebe
00000050: fa48 303d 2bc5 15be 4a4f 93bd 67de 9ebc
00000060: 8bbe aa3c 65b9 00be 3a43 003e 9f35 0cbf
00000070: 24b0 47be 05a8 683c 0230 523c 461c 113e
00000080: 8ed6 953d 0b90 8d3d dd97 5c3d a804 82bd
00000090: 53cc 61be 4c02 4ebe 3568 d63d ed47 293e
000000a0: 428f cd3d 05d0 433d 46ad 14bd fa77 d23d
000000b0: 8ab1 a23d 17fc 3a3e f093 d13c f2a7 6cbd
000000c0: 64a3 12be 3653 b03d d284 8d3d aa5a 0d3e
000000d0: 5b1b bbbe 42fa ea3d 9f87 8e3d dd45 41bd
000000e0: db81 653d fff0 50bd 67a4 0b3b b731 2fbe
000000f0: b855 eebd a26a bb3d 492a 6c3b d4d8 a33d
00000100: cde4 743d 6b10 f1bd aba7 19bd b58c fdbb
00000110: b935 b8bd 5337 4f3d 7176 493e ba12 90bd
00000120: 7506 98bd 7045 1ebe e2b3 3abc 870d 51be
00000130: f49b f33b dc38 8cbd 140e 96bc eb6b 55be
00000140: 490a 47be 3937 23be 31a9 993d 21ff ea3d
00000150: c54f 623e f3b2 de3d 08ed 80be 25f0 31be
00000160: a4db 11bc 0447 f8bc e392 433e 87c5 ac3c
00000170: 6f90 00be 169a 433e b433 41be e548 84bd
00000180: cf8f 37be fb4f 853b efaf 823c 2903 c1bd
00000190: 7f86 ad3d 242a f7bd 3029 123e de50 a73e
000001a0: df43 07be 1075 083c 53d7 1d3d 6086 f13c
000001b0: 679c 083c 38c8 8abe f3de 283e 88c3 edbc
000001c0: 777c fb3d f792 2e3d 391c 79bb c94f 0d3e
000001d0: 9618 36be 3564 22be c1ce 82bd 3d0d 2abe
000001e0: f10a 343e 9a51 a73c 43b1 95bb 2eee 25bd
000001f0: c060 d03d 2921 72bd 34a0 693d 3020 babd
00000200: 6ed9 48bd 470b 98be 3982 dfbd 64ca 633e
00000210: 4b6a 99be 21b3 b9bc 2024 6abc f827 953a
00000220: 287b 8abc 3f21 32be 5286 8dbd 4042 00be
00000230: c0fb 8cbe 8b48 bfbd dee5 373d 63a1 0cbe
00000240: 1ce2 493e 9933 edbd 1806 273d c243 bdbc
00000250: 6848 97bd 7a9e f8bd 26a6 973c 1826 93be
00000260: bbbc e8bd 5164 fc3d 8720 14be 3e5b 80be
00000270: 1aa6 48bd 0b53 d8bd 9d61 11be 379d af3d
00000280: c168 843d 756f bcbd 19c2 4b3c 9810 a7be
00000290: 1ecc a63d cf52 3b3d 3080 503c 3ee4 a53b
000002a0: 5977 c0be 5ef9 bdbc 2a9b 50bd 7a8d 04bd
000002b0: 1941 4a3e a39a 42be d0ed dbbe b1d8 4fbe
000002c0: 282e 23be 5a10 dc3d 8af5 e63d 8fb9 d6be
000002d0: d210 c3be 472e c0bc 3eed e53c d1bc c93c
000002e0: 31f9 6ebc f6ab 19bd 1eb8 dabd 08d9 9bbe
000002f0: 5f20 e2bd eabc d3be 4a02 d7bd b0d0 843d
00000300: 2390 a9bd 2c76 21be 69c1 cd3d ef77 ba3d
00000310: 26d9 00be 7893 afbb f8cd d5bd 1483 fabd
00000320: 4df5 6bbe 2897 1a3e f57c 84bd af06 5bbd
00000330: 132c 4dbd 3417 2dbe dfce fabe 78c8 7f3d
00000340: 26b1 1fbe 0a9f ffbe a059 b2bd af70 45be
00000350: 6763 cbbd b098 163d 2d8f 8dbe 26ef 293e
00000360: a696 ebbc 763f 0fbe e005 75be 2173 af3c
00000370: 07b1 fbbd 7fa6 43bd e57b f8bd 1662 0bbe
00000380: bd26 e0be 0940 74be 838b b43d ec8f 87be
00000390: 2111 4abd b24c a4bd 1648 f4be 4f76 9dbd
000003a0: ca01 143e 5cfd 58be e1ef 3ebe 4e17 8cbe
000003b0: ef01 8a3b 326d bbbe f053 3ebe 5369 d73b
000003c0: 36fd 53be dff7 00bc 6d79 4ebe 28b1 92bd
000003d0: ae97 453e 8d70 733c 6b98 a3be 2fc2 8bbc
000003e0: 28c5 67bd 1127 c5bd 7016 d43c 6e08 17be
000003f0: 2cba de3d f991 013e c316 75bd 0a36 14be

fc2.bias f4 [64]
-0.00852098 0.03955608 0.030048868 -0.11481475 0.12546213 0.04001913 -0.086429186 0.04023136
0.013807139 -0.1372323 -0.06893407 -0.0326939 0.011442084 0.16533284 0.08618063 0.10393631
-0.16807665 -0.12908071 0.024697853 -0.06629412 0.09986841 0.009767186 -0.18937351 0.06847419
-0.06316382 -0.09268245 -0.054156944 -0.010068889 0.013234498 0.08176022 0.067446284 0.014988988
0.047668036 -0.05427607 0.15216318 0.03824429 -0.046520714 0.13713512 0.062364344 -0.021075932
0.053014345 -0.11369445 0.014293834 -0.061815683 -0.07842135 -0.0053930613 0.038690165 -0.033118114
-0.07305274 0.0005383774 -0.097966895 -0.024920205 0.02346244 -0.030706592 -0.0889108 -0.021032171
0.053840037 0.06951066 0.091538474 0.024355516 -0.19529793 0.13379481 -0.10532546 0.013807392
00000000: 959b 0bbc 8e05 223d 0b29 f63c ff23 ebbd
00000010: 2579 003e 19eb 233d c901 b1bd a3c9 243d
00000020: 5737 623c a086 0cbe 4e2d 8dbd 0aea 05bd
00000030: 9477 3b3c 034d 293e 787f b03d 8fdc d43d
00000040: 491c 2cbe bc2d 04be 2753 ca3c 36c5 87bd
00000050: cf87 cc3d 8c06 203c 21eb 41be 323c 8c3d
00000060: 085c 81bd 4cd0 bdbd acd3 5dbd fbf7 24bc
00000070: 82d5 583c e771 a73d 4721 8a3d 5f94 753c
00000080: 8f3f 433d 9650 5ebd aad0 1b3e 0ba6 1c3d
00000090: 818c 3ebd 266d 0c3e c171 7f3d 6fa7 acbc
000000a0: 9225 593d a3d8 e8bd af30 6a3c 7132 7dbd
000000b0: 5f9b a0bd 47b8 b0bb 9479 1e3d dca6 07bd
000000c0: ad9c 95bd e521 0d3a dea2 c8bd 7525 ccbc
000000d0: 4e34 c03c 648c fbbc de16 b6bd a94b acbc
000000e0: 5f87 5c3d 9b5b 8e3d 8678 bb3d 3885 c73c
000000f0: 2efc 47be 8201 093e e0b4 d7bd 6638 623c

fc3.weight f4 [32, 64]
0.23374358 -0.059191436 -0.03656535 -0.11898218 0.05545353 -0.040859345 0.36263284 -0.39521793
0.43567467 0.23898809 0.0062165135 0.20918338 0.29252252 -0.20866452 -0.06850665 -0.76823944
-0.34016687 0.20230909 0.04584025 -0.05264985 0.26531914 0.18255346 0.18171929 0.408004
-0.30205575 0.116443895 -0.044918947 0.17794408 0.16924897 0.0046735085 0.3288813 0.4202694
-0.31577224 0.1453024 -0.06624904 0.0883985 -0.08616223 -0.064925805 -0.045475252 0.4463681
0.014200237 -0.21551941 0.2823881 -0.17614862 0.20307124 -0.24957716 -0.2590135 0.23446769
0.47280642 0.29542562 0.1435234 0.3142578 -0.03734435 -0.14774536 -0.5337087 0.03110369
-0.01705415 0.4039603 0.06904341 -0.34893876 0.29760414 0.02200763 -0.06433383 0.40897998
0.0137864975 0.12399807 0.04819108 -0.08193959 -0.39437065 -0.797721 0.5246932 -0.016378203
0.26885533 -0.4589474 -0.0027728714 0.14022331 0.0034963232 -0.08400591 -0.15438178 -0.08291825
0.093952484 -0.060498327 0.18295139 0.02758771 -0.0029509962 0.058811326 -0.02953427 -0.24049789
-0.13251446 0.35530007 0.0690498 0.09438712 -0.15855806 -0.009270259 -0.008142356 0.15639457
-0.24730805 0.049304686 -0.033692017 -0.03235052 0.2884016 0.1240854 0.15158144 -0.020883927
-0.031641897 -0.17187971 0.12081491 0.12619829 -0.085451625 0.05689617 -0.079698026 -0.04835681
0.23710634 -0.018878104 -0.0978642 0.8995652 0.04540928 -0.3569536 0.51169777 0.07611885
0.053695977 -0.064027496 -0.111864984 -0.6010785 -0.06308246 0.09749902 0.068263836 -0.32349026
-0.12992203 0.28509033 0.18693328 -0.11002122 0.12162782 0.014207273 -0.1075709 0.16716744
0.05959401 -0.33343825 -0.042541634 0.11429828 0.1873207 0.18375689 0.26903424 0.24903826
0.72551906 0.008962119 -0.5298111 -0.06580052 0.091621965 0.24644803 0.099197306 0.2892339
0.32925817 -0.0580128 -0.04472327 0.1705008 -0.06698286 0.23752709 0.17823622 -0.3296872
0.116035506 -0.0055315294 0.089345925 -0.07332743 -0.084700316 0.11451906 -0.16636798 0.2801236
0.09750671 0.40881768 -0.28725958 -0.16819488 0.005897936 -0.020451225 0.114591114 0.23532917
-0.32257193 0.2485078 0.005322024 -0.18942706 0.27079564 0.2727583 -0.058889322 0.18471543
0.018744232 0.03465841 -0.031070514 0.03768862 -0.024062647 0.021670198 0.08331492 -0.6395316
-0.050007325 0.3984428 0.24207139 0.11229857 -0.024734784 0.20182925 -0.007478683 -0.060570017
0.011777791 0.07596277 0.061884053 -0.16546446 0.023869175 -0.11268244 -0.076756544 0.00043586906
0.22974323 -0.13869727 0.06888215 0.108699776 -0.06574158 -0.14129883 0.38640139 0.033399303
0.012163525 0.084253326 -0.32800362 0.41422245 0.07607228 -0.020837605 0.2958934 0.2627159
-0.49012947 -0.170402 -0.029528618 -0.08153244 -0.19800125 -0.095609404 -0.007860947 0.07217199
0.004479795 0.2088188 -0.01023241 0.08647105 0.06035943 0.058342382 0.07061535 0.41067466
0.023528615 -0.13668008 -0.27595022 0.30482295 0.086380556 -0.0646164 0.15034033 0.22960111
0.017029636 0.10636851 0.08676331 0.006773964 0.51836765 -0.11626807 0.06403279 0.5345851
00000000: 7a5a 6f3e b872 72bd 8cc5 15bd eeac f3bd
00000010: 3e23 633d 215c 27bd 03ab b93e 015a cabe
00000020: c010 df3e 4bb9 743e e5b3 cb3b 2b34 563e
00000030: 83c5 953e 27ac 55be 374d 8cbd 57ab 44bf
00000040: 5a2a aebe 1d2a 4f3e fcc2 3b3d 5ea7 57bd
00000050: e9d7 873e 4bef 3a3e 9f14 3a3e e6e5 d03e
00000060: 0da7 9abe 237a ee3d eefc 37bd f936 363e
00000070: 9a4f 2d3e 3b24 993b 2163 a83e 8d2d d73e
00000080: e6ac a1be 27ca 143e 94ad 87bd 460a b53d
00000090: d375 b0bd d2f7 84bd 4244 3abd 5c8a e43e
000000a0: 1ca8 683c 1fb1 5cbe 2c95 903e 4e60 34be
000000b0: e8f1 4f3e 2891 7fbe 6b9d 84be 4c18 703e
000000c0: af13 f23e 0742 973e ccf7 123e 66e6 a03e
000000d0: 64f6 18bd 8f4a 17be 22a1 08bf 2acd fe3c
000000e0: 25b5 8bbc e2d3 ce3e a266 8d3d 1aa8 b2be
000000f0: 925f 983e 5849 b43c 74c1 83bd d365 d13e
00000100: c3e0 613c b3f2 fd3d 0364 453d f2cf a7bd
00000110: f3ea c9be 7237 4cbf 4b52 063f 952b 86bc
00000120: 68a7 893e 27fb eabe 10b9 35bb b396 0f3e
00000130: 9222 653b 4a0b acbd 4216 1ebe 0bd1 a9bd
00000140: 296a c03d 18cd 77bd 9c57 3b3e 9fff e13c
00000150: 8065 41bb 25e4 703d daf1 f1bc 1445 76be
00000160: dfb1 07be e4e9 b53e fb69 8d3d 094e c13d
00000170: 0b5d 22be 49e2 17bc 8467 05bc e625 203e
00000180: 523e 7dbe b6f3 493d a400 0abd fb81 04bd
00000190: 60a9 933e 7c20 fe3d 2a38 1b3e c514 abbc
000001a0: ef9a 01bd 3c01 30be cf6d f73d 203a 013e
000001b0: 4301 afbd f50b 693d b838 a3bd ca11 46bd
000001c0: 01cc 723e 41a6 9abc 076d c8bd e849 663f
000001d0: 15ff 393d 9fc2 b6be a0fe 023f 33e4 9b3d
000001e0: 50f0 5b3d d920 83bd 7819 e5bd 48e0 19bf
000001f0: 6031 81bd 91ad c73d e9cd 8b3d 84a0 a5be
00000200: 480a 05be 5cf7 913e 706b 3f3e ce52 e1bd
00000210: 0218 f93d 9fc5 683c 224e dcbd f12d 2b3e
00000220: d918 743d 6bb8 aabe 2340 2ebd 3715 ea3d
00000230: ffd0 3f3e c42a 3c3e dbbe 893e e303 7f3e
00000240: 9ebb 393f dad5 123c b3a1 07bf 6cc2 86bd
00000250: 4ca4 bb3d df5c 7c3e f527 cb3d 7716 943e
00000260: 8794 a83e d49e 6dbd bf2f 37bd c397 2e3e
00000270: 4f2e 89bd 4d3a 733e 8e83 363e c3cc a8be
00000280: 06a4 ed3d d541 b5bb fffa b63d b12c 96bd
00000290: 5c77 adbd f888 ea3d 5e5c 2abe 5c6c 8f3e
000002a0: 99b1 c73d 8d50 d13e b013 93be 473b 2cbe
000002b0: 7943 c13b 5489 a7bc bfae ea3d 21fa 703e
000002c0: 2628 a5be d478 7e3e 6064 ae3b 2bf9 41be
000002d0: baa5 8a3e faa6 8b3e ee35 71bd 0b26 3d3e
000002e0: 818d 993c faf5 0d3d 9787 febc 625f 1a3d
000002f0: 071f c5bc b385 b13c 03a1 aa3d 58b8 23bf
00000300: 7bd4 4cbd b200 cc3e 90e1 773e cbfc e53d
00000310: 9aa0 cabc 54ac 4e3e bd0f f5bb 4418 78bd
00000320: a3f7 403c 5e92 9b3d 227a 7d3d 846f 29be
00000330: 4a89 c33c 0dc6 e6bd 8932 9dbd 5b85 e439
00000340: cf41 6b3e a806 0ebe 1612 8d3d fd9d de3d
00000350: 86a3 86bd a4b0 10be 67d6 c53e b5cd 083d
00000360: 8649 473c 028d ac3d 17f0 a7be f714 d43e
00000370: c9cb 9b3d a0b3 aabc 577f 973e b382 863e
00000380: 40f2 fabe dd7d 2ebe 00e6 f1bc 7bfa a6bd
00000390: d7c0 4abe ddce c3bd 34cb 00bc e9ce 933d
000003a0: 3fcb 923b 98d4 553e d7a5 27bc bc17 b13d
000003b0: 733b 773d 6cf8 6e3d c89e 903d f343 d23e
000003c0: 15bf c03c ddf5 0bbe 5949 8dbe c111 9c3e
000003d0: 4ae8 b03d 9a55 84bd d1f2 193e 8e1c 6b3e
000003e0: bc81 8b3c bcd7 d93d f6b0 b13d 21f8 dd3b
000003f0: beb3 043f f41d eebd a023 833d 92da 083f

fc3.bias f4 [32]
-0.07891922 0.10934797 0.48075566 0.18387069 -0.13334087 0.013035566 -0.026131753 0.36277997
-0.050622854 0.0654111 -0.11788708 0.18684067 -0.050510056 -0.18468194 0.16182189 -0.032098114
0.13696204 -0.16752425 -0.07812104 -0.20774597 0.014182048 0.06127304 0.068945296 0.06603357
0.02014978 -0.044913825 0.15425868 0.036602788 0.046419516 0.31041476 0.043232128 0.18631332
00000000: 66a0 a1bd d4f1 df3d 9b25 f63e 9948 3c3e
00000010: 828a 08be 2093 553c 4212 d6bc 4cbe b93e
00000020: e959 4fbd 41f6 853d c86e f1bd 2953 3f3e
00000030: a2e3 4ebd 431d 3dbe a3b4 253e 5079 03bd
00000040: c73f 0c3e 7a8b 2bbe ecfd 9fbd 5cbb 54be
00000050: d25b 683c 70f9 7a3d 3133 8d3d 9c3c 873d
00000060: 2711 a53c 8ff7 37bd fdf5 1d3e ceec 153d
00000070: 6422 3e3d afee 9e3e 2c14 313d ebc8 3e3e

fc4.weight f4 [4, 32]
-0.42210725 -0.46146506 0.31029698 0.02051585 -0.19728331 0.01344414 -0.3867784 0.14257269
-0.7925163 0.8397481 -0.32587376 0.50274545 -0.017956961 -0.004000111 -0.28715467 -0.29618838
0.110107124 -0.25283182 -0.5142659 -0.266269 0.5945212 0.117375456 0.17335775 0.6661325
-0.015343386 0.33411303 0.40157908 -0.16997476 0.24897417 0.105265155 0.19634412 0.34448722
0.22903597 0.15485175 0.33211878 -0.061944686 -0.35317838 -0.9698381 -0.3900474 0.40183112
-0.71530795 0.35968167 -0.24199316 0.33552703 -0.1415925 0.048751086 -0.42958322 -0.08364809
-0.20537226 -0.4798095 -0.13155495 -0.2344277 0.438093 0.9670559 -0.371954 0.53630817
-0.0019017458 0.62273306 0.35185155 0.49318025 -0.82617944 0.018804919 0.17983642 0.25876483
0.09456392 0.13467841 0.12714529 -0.13598768 -0.3257795 -0.22588533 -0.3144975 0.34367776
-0.506333 0.2263485 0.30628622 0.31436983 -0.03661534 -0.6603421 0.37923166 0.18360232
0.37519443 0.6649625 -0.4138008 -0.22722016 0.49683326 -0.80411035 -0.1594025 0.880697
0.16492032 0.17320132 0.2833056 0.15397765 -0.12677845 0.34277764 -0.27807954 -0.08396591
0.7265379 -0.029713849 0.2977425 0.3561835 -0.4358933 -0.14564843 0.24912465 -0.009183679
0.41908503 0.6652265 -0.3354931 0.033076465 0.028533025 -0.038591187 -0.51779604 0.09667961
0.25974792 -0.43775025 -0.64612865 -0.47216278 -0.3183343 0.36350006 0.2733223 0.23698218
0.44034323 0.7698502 -0.2064587 0.0708852 -0.5542396 0.33089876 0.4750645 0.3289594
00000000: 711e d8be 2645 ecbe 3fdf 9e3e db10 a83c
00000010: a304 4abe cf44 5c3c d207 c6be 93fe 113e
00000020: 59e2 4abf bbf9 563f edd8 a6be edb3 003f
00000030: 7a1a 93bc 5d13 83bb f005 93be 01a6 97be
00000040: d87f e13d 2c73 81be eea6 03bf 6954 88be
00000050: 8b32 183f 8b62 f03d b284 313e a987 2a3f
00000060: d362 7bbc dd10 ab3e c69b cd3e dd0d 2ebe
00000070: 16f3 7e3e 4295 d73d 6f0e 493e a160 b03e
00000080: 6888 6a3e 7591 1e3e 790b aa3e b6b9 7dbd
00000090: ccd3 b4be 4f47 78bf 4bb4 c7be cfbc cd3e
000000a0: 6c1e 37bf 3228 b83e 0ecd 77be 33ca ab3e
000000b0: a0fd 10be 38af 473d 55f2 dbbe b14f abbd
000000c0: 1b4d 52be 97a9 f5be 57b6 06be d10d 70be
000000d0: ba4d e03e fa90 773f c170 bebe 7e4b 093f
000000e0: 0044 f9ba 6f6b 1f3f e325 b43e 1f82 fc3e
000000f0: 7f80 53bf c60c 9a3c 0a27 383e d37c 843e
00000100: baaa c13d 23e9 093e 6032 023e 5b40 0bbe
00000110: 92cc a6be 7c4e 67be d105 a1be 88f6 af3e
00000120: 0a9f 01bf e7c7 673e 8cd1 9c3e 15f5 a03e
00000130: f7f9 15bd 2e0c 29bf a72a c23e 3f02 3c3e
00000140: 7c19 c03e fb3a 2a3f b3dd d3be 67ac 68be
00000150: ee60 fe3e 2dda 4dbf 693a 23be 5c75 613f
00000160: dfe0 283e b05b 313e 6e0d 913e 51ac 1d3e
00000170: 36d2 01be 8d80 af3e 7160 8ebe 52f6 abbd
00000180: 63fe 393f 756a f3bc b471 983e af5d b63e
00000190: 682d dfbe dd24 15be 881a 7f3e 2477 16bc
000001a0: 5092 d63e 494c 2a3f c0c5 abbe 307b 073d
000001b0: 17be e93c cb11 1ebd 488e 04bf f6ff c53d
000001c0: aefd 843e cd20 e0be b068 25bf 52bf f1be
000001d0: b7fc a2be ae1c ba3e e7f0 8b3e 75ab 723e
000001e0: ab74 e13e e714 453f e969 53be 422c 913d
000001f0: a5e2 0dbf 906b a93e a73b f33e 5e6d a83e

fc4.bias f4 [4]
0.36587605 0.24426933 0.23997417 0.19333854
00000000: 1b54 bb3e bd21 7a3e cabb 753e 8afa 453e
