p3_collab-compet/checkpoint_critic_agent_0.pth (torch_old, 164557 bytes, 9 tensors)

fcs1.weight f4 [256, 24]
0.044054314 -0.033537563 0.0120575 -0.011860706 -0.054334372 -0.0021997576 -0.024871249 0.017123533
0.004719518 0.008612843 0.046314437 -0.01951555 -0.102974 -0.04130986 -0.049610753 0.032853987
0.034213647 -0.024032688 -0.040143285 -0.00068824575 -0.0066973986 0.05754132 -0.03515801 -0.020358361
0.033955324 -0.051205743 0.06359729 0.03727831 -0.015174391 -0.03446451 0.07257683 -0.05996291
0.05015268 0.0046917093 0.050692435 0.011572673 -0.04687877 -0.07239429 -0.01126052 -0.031191126
0.05635326 -0.0049712555 0.03940177 -0.012409867 -0.020847663 0.08170573 -0.029647304 0.029376863
-0.048126996 -0.11533236 0.016412914 -0.0081426455 0.015485701 0.027566878 -0.009015102 0.004435764
-0.012686874 -0.12020287 -0.021203546 0.074773535 0.08624699 0.09061784 -0.028288534 0.008460011
-0.05542292 0.013177913 0.023606645 0.08352515 0.109427355 0.041691985 0.018076673 0.013048044
0.003874736 -0.033904698 0.023294663 0.033039436 0.0061631883 -0.032610334 0.0385336 0.03206223
0.04360482 0.015442146 0.027082333 -0.03388013 0.062706985 -0.06344992 0.0047157314 0.03184618
0.028040437 -0.02364199 0.0797094 -0.008416376 -0.051442835 -0.0028134082 0.08136932 -0.04296439
0.032710183 -0.01272746 0.07738814 0.025279274 0.059878144 0.018869191 -0.0032630828 0.084557585
0.052744012 0.041168075 -0.06823112 -0.052872088 0.08756562 -0.008546788 0.044569835 -0.0356323
-0.019615704 0.045620855 -0.0111413 -0.023104914 0.05599172 -0.078544885 -0.00985524 -0.035011306
-0.04845832 0.0044409647 0.03910146 0.04203262 0.002330651 -0.087269455 0.03464278 0.0033350536
-0.052074507 0.029343784 0.008856863 -0.0989397 0.06537435 0.011967037 0.012584746 -0.002797451
0.014918056 0.0059641115 0.033739656 -0.040074997 0.009315333 0.05981576 -0.027544467 -0.028892554
-0.031329494 -0.012519502 0.023396432 0.009326283 0.08957989 -0.035480008 -0.045594707 -0.0071496493
0.038081978 0.0077165244 -0.034499556 0.023761746 0.10870802 -0.04596486 -0.023204373 0.03369029
-0.012664517 0.00859511 -0.044717602 -0.0138830105 0.024557846 -0.027118552 -0.01795909 0.05721004
0.114140905 -0.009490466 0.03751581 -0.024005312 0.043857947 0.018341644 0.0169607 -0.017389782
0.021644209 0.03980475 0.07111072 0.046069305 -0.014545848 0.020610726 -0.011764767 -0.047266126
0.075637944 0.010980333 -0.025697593 -0.039731 -0.05723782 -0.028400904 -0.030623686 0.0155017525
-0.012298451 0.093039684 0.043912925 -0.02266443 -0.019560076 0.018656477 -0.040696684 -0.045398757
-0.055826355 0.016931111 -0.045956142 -0.07866166 0.07486791 0.04787018 -0.043076716 0.039833162
0.014808652 0.021420721 -0.006267945 -0.05817756 0.02642089 -0.005233438 -0.04836603 -0.05657053
-0.0048567904 0.060944732 -0.05438222 -0.06083076 -0.022904051 -0.044160623 0.04916694 -0.023459747
-0.011459365 0.13266316 -0.040421847 -0.03555449 -0.0228712 -0.0046456004 0.034323182 -0.03383125
0.061166428 0.049832754 0.057793427 -0.04539316 0.078273825 0.03812864 -0.050247367 -0.11834765
0.058830664 -0.091411315 -0.014578354 0.03983106 0.03152358 0.02883841 0.019758452 0.032419372
0.07844631 -0.005575169 0.0033241184 -0.054679673 0.1156236 -0.10304856 0.0012314745 -0.02075953
00000000: 4c72 343d af5e 09bd d28c 453c 6853 42bc
00000010: b88d 5ebd cf29 10bb cabe cbbc a746 8c3c
00000020: 30a6 9a3b e21c 0d3c 35b4 3d3d 13df 9fbc
00000030: 08e4 d2bd 8734 29bd a534 4bbd e791 063d
00000040: 9c23 0c3d 33e0 c4bc 496d 24bd 646b 34ba
00000050: da75 dbbb 72b0 6b3d d801 10bd 94c6 a6bc
00000060: bd14 0b3d 1dbd 51bd 4c3f 823d 24b1 183d
00000070: 029e 78bc a82a 0dbd 29a3 943d ab9b 75bd
00000080: e66c 4d3d e9bc 993b dfa2 4f3d 4f9b 3d3c
00000090: f403 40bd 7543 94bd 0b7e 38bc 8884 ffbc
000000a0: add2 663d eae5 a2bb c063 213d c152 4bbc
000000b0: b8c8 aabc 5555 a73d e7de f2bc bfa7 f03c
000000c0: d020 45bd 5f33 ecbd 6074 863c bb68 05bc
000000d0: bdb7 7d3c efd3 e13c 14b4 13bc e359 913b
000000e0: 9bdc 4fbc ec2c f6bd 0fb3 adbc de22 993d
000000f0: 43a2 b03d d995 b93d 5bbd e7bc dc9b 0a3c
00000100: 2503 63bd 2ce8 573c b962 c13c 3c0f ab3d
00000110: 731b e03d 37c5 2a3d 8815 943c 77c7 553c
00000120: 48ef 7d3b a7df 0abd 73d4 be3c 5c54 073d
00000130: 92f4 c93b 6a92 05bd 68d5 1d3d af53 033d
00000140: f89a 323d 0e01 7d3c c5db dd3c e4c5 0abd
00000150: 856c 803d 08f2 81bd 6c86 9a3b 2471 023d
00000160: 0fb5 e53c d9ac c1bc af3e a33d d7e4 09bc
00000170: b9b5 52bd 2861 38bb f5a4 a63d 6efb 2fbd
00000180: 1dfb 053d d686 50bc ac7d 9e3d 7b16 cf3c
00000190: c942 753d 9093 9a3c 72d9 55bb 872c ad3d
000001a0: 1b0a 583d db9f 283d c2bc 8bbd 6790 58bd
000001b0: 9b55 b33d d407 0cbc dc8e 363d 2df3 11bd
000001c0: 1db1 a0bc efdc 3a3d 008a 36bc 8446 bdbc
000001d0: 9357 653d 24dc a0bd df77 21bc 0468 0fbd
000001e0: 3b7c 46bd 8385 913b da28 203d 662a 2c3d
000001f0: d6bd 183b 54ba b2bd 96e5 0d3d ea90 5a3b
00000200: 144c 55bd 6062 f03c 601c 113c e6a0 cabd
00000210: fde2 853d 6411 443c 4030 4e3c 7155 37bb
00000220: dd6a 743c 986e c33b 9832 0a3d ae25 24bd
00000230: 579f 183c 5f01 753d efa4 e1bc 14b0 ecbc
00000240: 5b53 00bd 991e 4dbc e0a9 bf3c 44cd 183c
00000250: a975 b73d 7c53 11bd 84c1 3abd 9b47 eabb
00000260: d9fb 1b3d e6da fc3b 684f 0dbd fea7 c23c
00000270: 4fa2 de3d a645 3cbd 1917 bebc d4fe 093d
00000280: d67e 4fbc 81d2 0c3c ce29 37bd 9175 63bc
00000290: 892d c93c ba27 debc f11e 93bc 1355 6a3d
000002a0: b5c2 e93d e67d 1bbc 2eaa 193d caa6 c4bc
000002b0: 64a4 333d 3741 963c 2af1 8a3c 0475 8ebc
000002c0: 324f b13c 4e0a 233d 7fa2 913d 2bb3 3c3d
000002d0: b551 6ebc d3d7 a83c 02c1 40bc 209a 41bd
000002e0: 11e8 9a3d dbe6 333c c283 d2bc f9bc 22bd
000002f0: 3472 6abd 03a9 e8bc 86de fabc 10fb 7d3c
00000300: 717f 49bc 978b be3d 0ade 333d c1aa b9bc
00000310: 743c a0bc 78d5 983c 91b1 26bd 0cf4 39bd
00000320: 2daa 64bd 1db3 8a3c 823c 3cbd 5d19 a1bd
00000330: 5954 993d 8613 443d 3671 30bd 1928 233d
00000340: fd9f 723c 827a af3c 5563 cdbb 984b 6ebd
00000350: 9f70 d83c 437d abbb 751b 46bd 80b6 67bd
00000360: b625 9fbb 2fa1 793d e4bf 5ebd ad29 79bd
00000370: 47a1 bbbc c5e1 34bd 4663 493d a82e c0bc
00000380: 0fc0 3bbc dad8 073e 6191 25bd 96a1 11bd
00000390: 625c bbbc 1f3a 98bb 7796 0c3d a392 0abd
000003a0: a689 7a3d 6e1d 4c3d cdb8 6c3d 2eee 39bd
000003b0: 074e a03d c72c 1c3d 2fd0 4dbd 4160 f2bd
000003c0: 6cf8 703d db35 bbbd 0cda 6ebc e525 233d
000003d0: df1e 013d 873e ec3c 7adc a13c 2dca 043d
000003e0: 75a8 a03d e8af b6bb 74d9 593b cbf7 5fbd
000003f0: 11cc ec3d 200b d3bd 6d69 a13a e40f aabc

fcs1.bias f4 [256]
0.040047396 0.018977087 0.1333297 0.09223246 -0.12213196 -0.16988389 0.03553639 -0.1572983
-0.041603636 0.048226178 -0.10240538 -0.20676768 0.01129443 0.10567546 -0.1895771 0.120745115
0.03895282 0.17436704 -0.1560612 0.22575454 -0.03789896 0.08123981 0.09241882 0.15930633
0.123779885 0.11455587 -0.02948254 -0.14057173 0.16943687 -0.07209611 -0.13270657 -0.0024111243
-0.041163072 0.15157726 -0.21666864 0.08680871 0.049048666 -0.02827893 -0.005065166 0.030978728
-0.19019705 -0.055233378 0.10085359 -0.057620484 -0.131896 -0.005134824 0.17993198 -0.22441791
-0.047946017 -0.08611583 -0.16641045 -0.062471006 0.009112251 -0.1839075 0.10973773 -0.038611386
-0.040411036 -0.13604863 -0.16927765 -0.084124245 0.18621966 0.15439759 0.1717261 0.06982535
-0.11774929 -0.15610492 0.106427155 -0.26515993 -0.12581865 0.09310518 0.16303322 0.007231889
0.18161182 0.20641835 0.04128894 -0.13734123 -0.11471211 0.16911612 0.12323724 -0.18632083
-0.092294246 -0.18468475 -0.035340983 -0.030714009 -0.05037021 -0.0611192 -0.043698493 -0.019424157
0.12369948 0.06772137 -0.16416629 -0.11296222 0.11693373 0.040970486 -0.12625603 -0.006398059
-0.15163755 -0.18326622 -0.1532959 0.0874707 -0.0049510105 0.17466836 0.020341717 -0.16811882
0.057829324 -0.06833261 0.06277623 -0.11674464 -0.074049585 0.12246822 0.24337648 -0.22634749
-0.1947544 -0.077397406 -0.10594313 0.21104391 0.15452193 -0.041713525 -0.10525622 0.08307244
-0.0021687583 0.14846402 -0.044854052 0.15213335 -0.16049755 -0.22081712 -0.07489775 0.087584354
-0.21894483 -0.0030731293 -0.116824724 -0.03909522 -0.21478452 -0.009649378 -0.17238969 0.009448719
-0.14609693 -0.1980298 0.054953206 0.021872954 0.022211863 0.120358564 -0.14262672 -0.1066621
0.079440616 0.048529226 0.17276992 -0.013363493 -0.065821834 0.01180627 -0.0846226 0.06432894
-0.04916306 0.046832893 -0.12078868 0.066015266 -0.09625672 -0.006927707 -0.15086266 0.05633877
-0.12232373 -0.16282627 0.15815996 -0.15064321 -0.19022754 -0.049557436 0.114492066 -0.0124447225
-0.18547693 -0.04907856 -0.04765093 -0.11648889 0.03560579 -0.1715998 0.08850046 -0.14040032
-0.07582236 -0.17464216 0.13452478 -0.016932394 0.05804689 0.017191263 -0.135779 0.11997703
-0.05141351 -0.0062328116 0.13229142 0.07460217 -0.14084293 -0.16082342 0.06616803 -0.035989262
-0.081188 -0.014806594 0.039369587 -0.11222646 -0.07556565 0.02970358 0.11308747 -0.015200299
0.024893316 0.09600912 -0.12276 0.07694412 0.16725394 0.1834322 -0.078183524 0.09848667
-0.18223499 -0.05983567 0.076988816 0.1299403 0.12720308 -0.09667593 -0.18782683 0.18944508
0.14165427 -0.080644734 0.15159528 0.08748778 0.10614572 0.01697711 -0.002516756 0.17022227
0.055845883 0.09073029 0.04533413 0.035660204 0.08843261 0.17908977 0.17514974 -0.039571997
-0.16534272 0.104365095 -0.036681455 0.08324275 -0.09633118 0.016310483 0.1727342 -0.18423145
-0.1696497 0.16012172 -0.101548195 -0.13957109 0.106894955 -0.069999486 -0.1364411 0.120792605
0.01139331 0.09801717 -0.04263552 -0.11620399 -0.02775756 0.18185052 -0.03517636 0.043051697
00000000: bd08 243d d675 9b3c 9587 083e 5fe4 bc3d
00000010: 5220 fabd 0bf6 2dbe 9b8e 113d ce12 21be
00000020: 9368 2abd d088 453d e9b9 d1bd e8ba 53be
00000030: 460c 393c 606c d83d 8020 42be 3749 f73d
00000040: fe8c 1f3d 468d 323e 82ce 1fbe 332c 673e
00000050: f13b 1bbd 0f61 a63d 1446 bd3d 3321 233e
00000060: 4f80 fd3d 459c ea3d 5e85 f1bc 09f2 0fbe
00000070: dc80 2d3e 20a7 93bd 3be4 07be f403 1ebb
00000080: 9c9a 28bd 1237 1b3e 62de 5dbe c4c8 b13d
00000090: 41e7 483d 37a9 e7bc b1f9 a5bb 1ac7 fd3c
000000a0: 04c3 42be 653c 62bd 548c ce3d 7503 6cbd
000000b0: bf0f 07be 0742 a8bb 1740 383e cfcd 65be
000000c0: 0b63 44bd 7f5d b0bd 8067 2abe 99e1 7fbd
000000d0: 8d4b 153c 3f52 3cbe 2dbe e03d f926 1ebd
000000e0: 0b86 25bd 5550 0bbe 1f57 2dbe 5549 acbd
000000f0: 5eb0 3e3e 671a 1e3e f7d8 2f3e 9800 8f3d
00000100: 8a26 f1bd f8d9 1fbe 7bf6 d93d 0bc3 87be
00000110: 9bd6 00be eead be3d 2ef2 263e 7bf9 ec3b
00000120: 73f8 393e 555f 533e 971e 293d 2ea3 0cbe
00000130: 2fee eabd c72c 2d3e ce63 fc3d e3ca 3ebe
00000140: c404 bdbd 001e 3dbe b5c1 10bd f29b fbbc
00000150: fe50 4ebd 2058 7abd 31fd 32bd 691f 9fbc
00000160: 2756 fd3d 80b1 8a3d 351b 28be bd58 e7bd
00000170: f47a ef3d abd0 273d 4349 01be cfa6 d1bb
00000180: e046 1bbe 24aa 3bbe 9af9 1cbe d723 b33d
00000190: 163c a2bb 43dc 323e aca3 a63c 5727 2cbe
000001a0: 71de 6c3d f8f1 8bbd d390 803d d017 efbd
000001b0: 4fa7 97bd 9ed0 fa3d af37 793e a3c7 67be
000001c0: b36d 47be 8882 9ebd b6f8 d8bd e51b 583e
000001d0: ff3a 1e3e cddb 2abd 9390 d7bd e221 aa3d
000001e0: ba21 0ebb f406 183e e2b8 37bd d8c8 1b3e
000001f0: 7859 24be e21d 62be fe63 99bd 6d5f b33d
00000200: 1333 60be 8e66 49bb cd41 efbd 4f22 20bd
00000210: 79f0 5bbe 6d18 1ebc ec86 30be cdce 1a3c
00000220: 6f9a 15be 53c8 4abe 9d16 613d e92e b33c
00000230: a7f5 b53c 8d7e f63d bd0c 12be a971 dabd
00000240: c3b1 a23d 95c6 463d 99ea 303e 8df2 5abc
00000250: 99cd 86bd 166f 413c 9d4e adbd e4be 833d
00000260: 345f 49bd d9d3 3f3d 0e60 f7bd 0333 873d
00000270: 3e22 c5bd d201 e3bb be7b 1abe 7bc3 663d
00000280: dd84 fabd eebb 26be aff4 213e 3742 1abe
00000290: 02cb 42be bdfc 4abd d17a ea3d f3e4 4bbc
000002a0: aaed 3dbe 9a06 49bd 9f2d 43bd ba91 eebd
000002b0: 60d7 113d dcb7 2fbe bb3f b53d 1ac5 0fbe
000002c0: c148 9bbd 65d5 32be ddc0 093e ceb5 8abc
000002d0: 93c2 6d3d b1d4 8c3c a609 0bbe 84b6 f53d
000002e0: f996 52bd 9d3c ccbb 6777 073e 06c9 983d
000002f0: 2139 10be e5ae 24be 1b83 873d 7a69 13bd
00000300: e545 a6bd 5b97 72bc 0142 213d fcd6 e5bd
00000310: 2ac2 9abd ec54 f33c 679a e73d ad0a 79bc
00000320: 11ed cb3c 6ea0 c43d 9869 fbbd e194 9d3d
00000330: 9e44 2b3e a7d5 3b3e af1e a0bd 61b3 c93d
00000340: cf9b 3abe 3f16 75bd 50ac 9d3d 120f 053e
00000350: 8641 023e 08fe c5bd ad55 40be e4fd 413e
00000360: d10d 113e 1129 a5bd cb3b 1b3e cb2c b33d
00000370: ed62 d93d 9513 8b3c 29f0 24bb bf4e 2e3e
00000380: a7be 643d cdd0 b93d 48b0 393d 6f10 123d
00000390: 281c b53d 4f63 373e 745a 333e 3f16 22bd
000003a0: 9a4f 29be 5ebd d53d 4b3f 16bd 2d7b aa3d
000003b0: 4849 c5bd 909d 853c 3ce1 303e 2ba7 3cbe
000003c0: a7b8 2dbe f3f6 233e 80f8 cfbd b9eb 0ebe
000003d0: beeb da3d e45b 8fbd 37b7 0bbe 1d62 f73d
000003e0: 01ab 3a3c 3abd c83d 95a2 2ebd 5cfc edbd
000003f0: d363 e3bc 0637 3a3e 1615 10bd fa56 303d

fc2.weight f4 [128, 258]
0.0071399184 -0.011729892 -0.030489028 -0.07082505 -0.06620251 -0.050626922 0.05511316 -0.012887399
0.086263135 -0.086270496 -0.08099015 0.0062942104 0.009330702 -0.020906541 0.046113532 0.061129607
-0.036361076 -0.033497848 -0.09044187 -0.042351317 0.031067904 -0.097279236 -0.015940174 0.005814813
0.020881683 0.05597247 -0.016487114 0.01938167 -0.07173856 0.014445455 0.024197605 -0.052647963
-0.058787055 -0.044972487 0.023093767 0.023054354 -0.020565491 -0.0870855 -0.033241205 0.04434063
0.066956356 -0.097678244 -0.028585333 -0.09134796 -0.08745521 -0.10319626 0.043190014 -0.06810369
0.018880831 -0.051219728 -0.06679309 0.0483774 0.050580658 -0.21957518 0.059785053 -0.02337952
-0.06232495 -0.028510708 -0.017981473 0.02336203 -0.015615024 -0.03993238 0.05896548 -0.100042045
-0.085381314 0.09360697 -0.007522093 0.0034463927 -0.050368797 0.009494222 0.022934157 -0.028859435
0.0007623116 0.07423569 -0.02023195 -0.035079923 -0.07655441 0.008320195 -0.026694795 0.057093743
0.05161609 -0.0102452375 -0.0866926 0.041917946 0.04865736 0.056808118 0.06905474 -0.023939112
-0.02219461 -0.0030939013 -0.0012532184 0.011311015 -0.01634908 0.08071093 -0.058856986 0.077109
-0.037124693 -0.03131189 -0.009558767 -0.0046504387 -0.05769376 0.038729466 0.012997095 -0.018758198
-0.035582844 -0.031128408 -0.026038919 0.049036145 -0.0536998 -0.039142426 -0.056532852 -0.13612027
0.04155321 -0.0706828 -0.0077091698 0.0003572319 0.06861648 0.03738253 0.0014440106 0.026770486
0.028558219 0.028300129 0.05820395 -0.07836772 -0.11712388 0.014513321 0.02788663 0.035396017
-0.07972069 -0.06460693 0.032184828 0.0039615687 0.051493026 0.051077798 0.046564303 0.0535263
-0.077734224 0.057326183 0.052654598 -0.012675073 -0.07813859 0.048449345 -0.020430896 0.0655341
0.09131402 0.0025280174 -0.008327958 -0.071663745 0.024329618 0.015751781 -0.07647525 0.0031676113
-0.0592394 0.028519733 -0.009005025 -0.044664904 0.074058235 -0.039281607 -0.052312404 0.064157516
0.058377735 0.07470819 0.037179273 -0.118162625 0.033517733 -0.029556992 0.029745443 0.0561274
0.045265544 0.026933825 -0.015906624 0.050502535 -0.07935693 0.04258611 -0.03421873 -0.015813097
0.026065355 -0.088007934 -0.0005180079 0.07159796 -0.024000788 0.0018741188 -0.044893716 -0.011475698
-0.06517593 0.048758432 0.047889616 -0.021011287 -0.07363229 0.06996443 -0.08482183 0.06633474
-0.03355196 0.0439456 -0.099339515 0.068888694 -0.077391505 -0.07790311 0.04533679 -0.04417377
-0.006011926 0.08508414 0.03780935 -0.06226794 0.061706655 0.012179946 -0.05570001 0.09401515
0.033296272 -0.061147414 -0.16746652 0.023601267 -0.04927472 0.04764726 0.0073711723 -0.062758096
-0.009127142 0.076447375 -0.045072306 -0.042975508 0.065534055 0.018518943 -0.123071745 0.06437425
-0.005838657 0.016103746 -0.0957397 0.07506568 -0.02680273 -0.026871568 -0.0016398175 0.0323337
-0.10553877 -0.016254146 0.061643776 0.07805589 0.0030178379 0.019473389 -0.015912902 0.059202105
-0.09931723 -0.032699473 -0.03330048 -0.073481664 0.04349861 -0.017471146 -0.08825953 -0.057995375
0.061609488 -0.05535494 -0.06308177 -0.04236381 0.04634046 0.042633753 0.03600011 0.07691159
00000000: faf5 e93b bc2e 40bc 20c4 f9bc b90c 91bd
00000010: 2e95 87bd 2d5e 4fbd 56be 613d ab25 53bc
00000020: baaa b03d 96ae b0bd 2ade a5bd aa3f ce3b
00000030: cddf 183c 3244 abbc 8be1 3c3d 0a63 7a3d
00000040: 5aef 14bd 0a35 09bd 9639 b9bd 9378 2dbd
00000050: 1e82 fe3c 563a c7bd f894 82bc 308a be3b
00000060: 1010 ab3c 6443 653d fc0f 87bc 4fc6 9e3c
00000070: abeb 92bd a1ac 6c3c 0e3a c63c 64a5 57bd
00000080: b2ca 70bd 1235 38bd 242f bd3c 7cdc bc3c
00000090: f678 a8bc e259 b2bd ee27 08bd 859e 353d
000000a0: 6a20 893d 880b c8bd ca2b eabc a414 bbbd
000000b0: b81b b3bd 9058 d3bd 03e8 303d f379 8bbd
000000c0: f9ab 9a3c c7cb 51bd d1ca 88bd 6127 463d
000000d0: aa2d 4f3d 51d8 60be 2ce1 743d 6886 bfbc
000000e0: 7248 7fbd 4a8f e9bc e24d 93bc ba61 bf3c
000000f0: 28d6 7fbc 2390 23bd ca85 713d d8e2 ccbd
00000100: 66dc aebd 03b5 bf3d e47b f6bb e0dc 613b
00000110: 834f 4ebd a78d 1b3c 6ae0 bb3c 9f6a ecbc
00000120: ded5 473a e208 983d 79bd a5bc f7af 0fbd
00000130: 8fc8 9cbd 6d51 083c 0baf dabc 21db 693d
00000140: 656b 533d a4db 27bc e48b b1bd 27b2 2b3d
00000150: f14c 473d a1af 683d 926c 8d3d f51b c4bc
00000160: 79d1 b5bc 0dc3 4abb 0843 a4ba d651 393c
00000170: 81ee 85bc c64b a53d 0614 71bd 53eb 9d3d
00000180: 1010 18bd e540 00bd 609c 1cbc b562 98bb
00000190: 4b50 6cbd caa2 1e3d c4f1 543c cbaa 99bc
000001a0: 51bf 11bd 0101 ffbc 924f d5bc 20da 483d
000001b0: 52f4 5bbd cf53 20bd fe8e 67bd 1d63 0bbe
000001c0: b333 2a3d 25c2 90bd 349d fcbb db4a bb39
000001d0: cc86 8c3d 6c1e 193d f544 bd3a c74d db3c
000001e0: edf2 e93c acd5 e73c 4467 6e3d 417f a0bd
000001f0: a5de efbd 48c9 6d3c 8072 e43c 6afb 103d
00000200: 9a44 a3bd a350 84bd 3dd4 033d 0cd0 813b
00000210: 5aea 523d f436 513d 36ba 3e3d 653e 5b3d
00000220: 1f33 9fbd dcce 6a3d 59ac 573d 1cab 4fbc
00000230: 2007 a0bd d272 463d b25e a7bc be36 863d
00000240: d802 bb3d 18ad 253b fd71 08bc 71c4 92bd
00000250: e84e c73c e109 813c 0e9f 9cbd b397 4f3b
00000260: 03a5 72bd 37a2 e93c d089 13bc 8cf2 36bd
00000270: d8ab 973d c0e5 20bd 8845 56bd 0465 833d
00000280: 7e1d 6f3d 9c00 993d 4b49 183d 3fff f1bd
00000290: e449 093d 8121 f2bc b7ac f33c d8e5 653d
000002a0: 5d68 393d 53a4 dc3c 9c4e 82bc bfdb 4e3d
000002b0: e385 a2bd c66e 2e3d f028 0cbd 788a 81bc
000002c0: 0387 d53c 813d b4bd ecca 07ba f4a1 923d
000002d0: 4d9d c4bc fea4 f53a 79e2 37bd 9104 3cbc
000002e0: f57a 85bd ecb6 473d e727 443d dd1f acbc
000002f0: 87cc 96bd 8349 8f3d 11b7 adbd 82da 873d
00000300: c86d 09bd 4d00 343d 8472 cbbd 8415 8d3d
00000310: 707f 9ebd aa8b 9fbd 12b3 393d 8eef 34bd
00000320: b1ff c4bb 9840 ae3d fadd 1a3d ab0c 7fbd
00000330: 1ec0 7c3d 658e 473c b225 64bd 048b c03d
00000340: ac61 083d b675 7abd 587c 2bbe 7257 c13c
00000350: 4ad4 49bd c629 433d e089 f13b 5187 80bd
00000360: 028a 15bc 7190 9c3d bd9d 38bd 1607 30bd
00000370: b836 863d 0ab5 973c 0a0d fcbd a6d6 833d
00000380: 3452 bfbb 01ec 833c 2d13 c4bd 09bc 993d
00000390: 6691 dbbc c321 dcbc 25ef d6ba 5870 043d
000003a0: b624 d8bd 6a27 85bc 2f7e 7c3d c4db 9f3d
000003b0: ebc6 453b a886 9f3c c65b 82bc e87d 723d
000003c0: d566 cbbd e2ef 05bd 1666 08bd 8e7d 96bd
000003d0: 992b 323d a61f 8fbc 6ac1 b4bd 8f8c 6dbd
000003e0: 3b5a 7c3d ddbb 62bd 0431 81bd ad85 2dbd
000003f0: 7fcf 3d3d bba0 2e3d da74 133d d383 9d3d

fc2.bias f4 [128]
-0.033844672 -0.017794007 -0.04361254 -0.09062002 -0.068601415 -0.08140053 0.030771464 -0.08018117
0.03757579 0.029739508 -0.04902843 -0.09720856 -0.057816032 -0.09236153 -0.008299614 -0.048585605
-0.09865071 -0.107313745 -0.0434103 -0.069482796 -0.058314323 -0.09077821 -0.0076162713 -0.058935117
-0.03203638 -0.023397783 -0.09879109 -0.047387544 -0.06261761 -0.100254074 -0.09544812 0.053668566
-0.0489859 -0.08333503 -0.02136658 -0.08731655 -0.062871404 0.028914815 -0.03463155 -0.033850227
-0.08619349 -0.016245408 -0.05508307 -0.07554646 -0.067556195 0.010978708 -0.03641952 -0.12425393
-0.09228899 -0.08390665 -0.09953394 -0.06990245 -0.015853418 -0.04323065 -0.09183092 -0.018334
-0.051734816 -0.11469687 -0.098792404 -0.040952746 -0.033859067 -0.027938874 -0.10928628 -0.10927001
-0.0016535 -0.14271139 0.045718286 -0.100557886 -0.13547175 -0.09810019 0.049033534 -0.0690857
-0.0124691315 -0.099484675 -0.010406126 -0.06988586 -0.01900822 -0.03465793 -0.06454506 -0.042105757
-0.038781635 -0.0034050506 -0.042240646 0.040984213 -0.122847185 -0.029282494 -0.08170735 -0.05738179
-0.097443044 -0.052044827 -0.0680687 -0.022436175 -0.074182935 -0.019626549 -0.06641541 0.0043987245
-0.11865291 -0.06542629 -0.106265716 -0.00502902 0.017476864 -0.07014287 -0.04535488 -0.12907216
-0.034321293 -0.0675437 -0.011104075 -0.0033177983 -0.13850228 -0.056635134 -0.008153876 0.017930022
-0.006338468 -0.034936603 -0.041816663 -0.056939308 -0.14434227 -0.113053836 -0.07682843 -0.044493522
-0.0771766 -0.05219009 -0.10911286 -0.11595869 -0.07003862 -0.04320433 -0.0951953 -0.09799655
00000000: b6a0 0abd bdc4 91bc 10a3 32bd fd96 b9bd
00000010: e67e 8cbd 52b5 a6bd 7014 fc3c 0636 a4bd
00000020: 12e9 193d 45a0 f33c 09d2 48bd 4815 c7bd
00000030: 81d0 6cbd 0b28 bdbd 1bfb 07bc b301 47bd
00000040: 6209 cabd 4fc7 dbbd 00cf 31bd ff4c 8ebd
00000050: 00db 6ebd ede9 b9bd ea91 f9bb f365 71bd
00000060: 9438 03bd b5ac bfbc fc52 cabd 7119 42bd
00000070: a93d 80bd 0252 cdbd 4e7a c3bd 92d3 5b3d
00000080: 70a5 48bd 8eab aabd f708 afbc 05d3 b2bd
00000090: b9c2 80bd c3de ec3c d0d9 0dbd 89a6 0abd
000000a0: 3686 b0bd 1715 85bc c99e 61bd 1ab8 9abd
000000b0: e75a 8abd 0ae0 333c a22c 15bd d878 febd
000000c0: 0302 bdbd 40d7 abbd 73d8 cbbd 0429 8fbd
000000d0: 07df 81bc 9f12 31bd d911 bcbd 2f31 96bc
000000e0: e3e7 53bd 31e6 eabd ac53 cabd 11be 27bd
000000f0: ceaf 0abd 11e0 e4bc 7cd1 dfbd f4c8 dfbd
00000100: 41ba d8ba ef22 12be 1943 3b3d 4bf1 cdbd
00000110: 1bb9 0abe c1e8 c8bd 63d7 483d ce7c 8dbd
00000120: 544b 4cbc 9fbe cbbd 757e 2abc 5120 8fbd
00000130: 20b7 9bbc 79f5 0dbd 3330 84bd 1677 2cbd
00000140: 7ed9 1ebd 4527 5fbb 8704 2dbd 10df 273d
00000150: 4e97 fbbd d7e1 efbc 2f56 a7bd 2b09 6bbd
00000160: 3890 c7bd f52c 55bd 9a67 8bbd 12cc b7bc
00000170: 39ed 97bd dbc7 a0bc cd04 88bd 2d23 903b
00000180: 4c00 f3bd 38fe 85bd d7a1 d9bd 7aca a4bb
00000190: a42b 8f3c 11a7 8fbd 0ac6 39bd 7e2b 04be
000001a0: 7c94 0cbd 5a54 8abd deed 35bc 6b6f 59bb
000001b0: 8bd3 0dbe 3efa 67bd d697 05bc fbe1 923c
000001c0: ecb2 cfbb af19 0fbd f347 2bbd 3139 69bd
000001d0: 76ce 13be c588 e7bd 3958 9dbd d73e 36bd
000001e0: c40e 9ebd 47c5 55bd 9076 dfbd c07b edbd
000001f0: 6870 8fbd 06f7 30bd c1f5 c2bd 6ab2 c8bd

fc3.weight f4 [1, 128]
0.014472289 0.010534438 -0.007488927 -0.017012144 0.017017648 -0.05665271 0.017422874 -0.04381585
0.020410102 0.010584267 -0.021076756 -0.020656466 0.016525349 0.011274222 0.0069961385 0.045826983
-0.030567093 -0.017333819 -0.0140708 -0.006836984 -0.021909641 0.031760447 0.015612855 -0.01880365
-0.023769783 0.006011284 -0.023313878 0.019458398 -0.008824704 -0.020619536 0.016948678 0.012260999
-0.015470745 0.034749795 0.009492776 -0.03757204 -0.020343535 0.012018903 -0.019201756 -0.008317336
-0.055339012 0.020296369 0.009421507 -0.009007047 -0.020492472 0.018365432 0.028799502 -0.011663633
0.050191995 -0.032074824 -0.010673733 0.020983923 0.012274741 -0.032906096 -0.013170907 0.029038498
-0.017365532 0.029802898 -0.039594673 -0.008143375 0.03377694 -0.008568267 0.05330307 0.01984236
0.019706072 0.0616341 -0.016454283 0.059284154 0.04379428 -0.03047341 0.015294122 -0.011549423
-0.011936584 -0.017614977 0.016236382 0.059573498 0.008783899 -0.015989555 0.05858334 -0.044728115
0.009958497 -0.008948076 -0.011673298 0.028116267 -0.01629967 -0.023416825 -0.0059096636 -0.017347345
0.013355381 -0.015444699 0.030143084 0.03176185 -0.051986385 -0.032514885 -0.012371921 0.0053238478
0.015331747 0.03384794 0.06698761 0.0097696865 0.014761977 0.02790956 0.025829474 -0.019153405
0.0066579995 -0.051273488 0.010725311 0.03324379 -0.06640693 -0.022571111 0.030250184 0.017423207
-0.01984944 -0.005309132 -0.031154655 -0.010972908 0.08170857 0.03126157 -0.016440587 0.07237664
-0.015170256 -0.010404558 0.046327416 -0.024826253 0.020305278 -0.022206489 -0.006872985 -0.016475694
00000000: 2e1d 6d3c a398 2c3c ac65 f5bb 0d5d 8bbc
00000010: 9868 8b3c ac0c 68bd 6aba 8e3c 4078 33bd
00000020: 1633 a73c a269 2d3c 29a9 acbc c037 a9bc
00000030: 2b60 873c 84b7 383c dd3f e53b 13b5 3b3d
00000040: d767 fabc a7ff 8dbc 3689 66bc c708 e0bb
00000050: d97b b3bc 3e17 023d 0fcd 7f3c 1d0a 9abc
00000060: d9b8 c2bc 4efa c43b bffc bebc 3867 9f3c
00000070: 7e95 10bc 4dea a8bc f4d7 8a3c 5be2 483c
00000080: 0279 7dbc cd55 0e3d 9787 1b3c 24e5 19bd
00000090: 7ca7 a6bc efea 443c 004d 9dbc 7045 08bc
000000a0: 29ab 62bd 9244 a63c aa5c 1a3c 4b92 13bc
000000b0: d4df a7bc 1a73 963c efec eb3c d318 3fbc
000000c0: 1f96 4d3d e460 03bd e2e0 2ebc 7ae6 ab3c
000000d0: ff1b 493c 8bc8 06bd caca 57bc 25e2 ed3c
000000e0: 2942 8ebc 3525 f43c 062e 22bd ca6b 05bc
000000f0: b059 0a3d eb61 0cbc 5254 5a3d 728c a23c
00000100: a16e a13c 0a74 7c3d 22cb 86bc f1d3 723d
00000110: a261 333d 5fa3 f9bc 3294 7a3c cb39 3dbc
00000120: a991 43bc 494d 90bc 2902 853c 5703 743d
00000130: 58ea 0f3c 87fc 82bc 16f5 6f3d d434 37bd
00000140: f728 233c f39a 12bc 5c41 3fbc 1654 e63c
00000150: e386 85bc a4d4 bfbc daa5 c1bb 051c 8ebc
00000160: 87d0 5a3c c30b 7dbc a1ee f63c b718 023d
00000170: adef 54bd 542e 05bd 99b3 4abc ac73 ae3b
00000180: 0232 7b3c 23a4 0a3d cd30 893d 0911 203c
00000190: 38dc 713c 97a2 e43c 5598 d33c 9ae7 9cbc
000001a0: 592b da3b 2604 52bd 37b9 2f3c a42a 083d
000001b0: 5b00 88bd 0de7 b8bc 3ccf f73c 1dbb 8e3c
000001c0: 4b9b a2bc 3af8 adbb 0c38 ffbc b6c7 33bc
000001d0: d356 a73d 220c 003d 69ae 86bc 343a 943d
000001e0: aa8c 78bc e177 2abc d1c1 3d3d 6d60 cbbc
000001f0: 4157 a63c 62ea b5bc c736 e1bb 09f8 86bc

bn1.weight f4 [256]
0.2499888 0.24784628 0.6367669 0.76427704 0.5699824 0.20134135 0.1551786 0.27763492
0.15095177 0.39736736 0.86132854 0.42191327 0.13527371 0.21128386 0.2262345 0.32593682
0.059300926 0.94147927 0.24686098 0.8257381 0.06316299 0.23197173 0.4147376 0.17903078
0.48518384 0.3563314 0.55155134 0.27851093 0.08878306 0.35936832 0.72332174 0.12668218
0.42221436 0.19343586 0.8893441 0.25906065 0.16015476 0.34905574 0.88510954 0.9073142
0.43324044 0.20968843 0.607743 0.6067483 0.393215 0.036444154 0.13026664 0.81679165
0.13450764 0.815606 0.07490778 0.07162458 0.9214697 0.72430927 0.8218893 0.005796827
0.20306368 0.5396065 0.61933595 0.7311552 0.53670406 0.23800817 0.81086844 0.37234065
0.8641307 0.02222724 0.30096555 0.8565693 0.01625842 0.52201647 0.38770884 0.6912043
0.8480636 0.49440712 0.3115303 0.81392497 0.732131 0.90331846 0.5232572 0.7965531
0.21782126 0.40646183 0.66070235 0.61330646 0.41401145 0.8350784 0.4127818 0.503821
0.23694368 0.7036029 0.69161475 0.6290367 0.6080364 0.5297674 0.32566977 0.979106
0.03305364 0.47150534 0.49296746 0.65914625 0.08128781 0.35944402 0.4886025 0.0079468
0.7700543 0.5438436 0.25190058 0.7970935 0.5675198 0.45748076 0.8967586 0.08383484
0.3138652 0.50751024 0.42537874 0.8623673 0.5005175 0.6509057 0.72299665 0.8588905
0.9046982 0.17849311 0.66495043 0.27658406 0.101659134 0.16790704 0.890655 0.7459271
0.41021663 0.029726358 0.5379211 0.053937536 0.6534983 0.7420895 0.42852524 0.46249196
0.49448767 0.47073415 0.35751578 0.37211803 0.7271684 0.44870374 0.070272684 0.38609746
0.7778637 0.2302191 0.30344492 0.774456 0.94893295 0.81157917 0.5572988 0.7746901
0.5915916 0.05128393 0.7451988 0.16230717 0.4900127 0.5502538 0.11833063 0.16311866
0.22965567 0.5626187 0.38000554 0.93102276 0.44026923 0.16303489 0.2695249 0.5458213
0.06695347 0.9181185 0.56326807 0.4805619 0.13195284 0.667864 0.657541 0.54722834
1.0020427 0.28780845 0.38865083 0.5766875 0.177322 0.81790495 0.13791095 0.1410756
0.8873273 0.3392122 0.27709812 0.922105 0.71078986 0.7055142 0.24509604 0.7829047
0.6690065 0.9703471 0.59034604 0.35825872 0.6866359 0.6540758 0.64869463 0.65527576
0.6394401 0.8468885 0.633273 0.1765713 0.14689615 0.89020896 0.3245419 0.69067365
0.21684955 0.8814535 0.49168465 0.36894011 0.18265213 0.215293 0.0380345 0.84534436
0.56877285 0.08637158 0.029863749 0.3190263 0.6909092 0.47748533 0.21874791 0.7568546
0.9446139 0.5174003 0.2514719 0.28875202 0.14041904 0.9293025 0.7758471 0.6495264
0.7114538 0.46622375 0.67377245 0.5096328 0.16134378 0.41433206 0.3859695 0.7888091
0.82085884 0.08437808 0.81271535 0.6313115 0.10056752 0.22909194 0.20875601 0.4108025
0.41369447 0.16461428 0.21390843 0.18574181 0.12160339 0.83279 0.6169554 0.28069398
00000000: 10fd 7f3e 6acb 7d3e 2803 233f a9a7 433f
00000010: 5eea 113f 6d2c 4e3e 24e7 1e3e 2a26 8e3e
00000020: 1a93 1a3e bc73 cb3e 0780 5c3f 0405 d83e
00000030: 3185 0a3e cc5a 583e 04aa 673e 31e1 a63e
00000040: 87e5 723d c904 713f 20c9 7c3e 9263 533f
00000050: 995b 813d ff89 6d3e 7d58 d43e d853 373e
00000060: 046a f83e 1271 b63e 7832 0d3f fc98 8e3e
00000070: e5d3 b53d 20ff b73e 9d2b 393f f9b8 013e
00000080: 7b2c d83e 0d14 463e 0eac 633f 99a3 843e
00000090: 9cff 233e 6fb7 b23e 8a96 623f be45 683f
000000a0: b1d1 dd3e 90b8 563e 0c95 1b3f db53 1b3f
000000b0: 7a53 c93e 7746 153d 9e64 053e 4219 513f
000000c0: 5fbc 093e 8ecb 503f 4069 993d e8af 923d
000000d0: 70e5 6b3f 556c 393f 5667 523f 4ff3 bd3b
000000e0: edef 4f3e a723 0a3f cd8c 1e3f fd2c 3b3f
000000f0: 7065 093f 6ab8 733e 1395 4f3f 6fa3 be3e
00000100: ab37 5d3f e715 b63c 2818 9a3e 2048 5b3f
00000110: 6130 853c dfa2 053f c681 c63e c4f2 303f
00000120: b21a 593f ee22 fd3e e680 9f3e 635d 503f
00000130: f06c 3b3f e13f 673f 2ff4 053f e7ea 4b3f
00000140: 890c 5f3e c41b d03e ca23 293f a701 1d3f
00000150: 4ff9 d33e b3c7 553f 2358 d33e 6afa 003f
00000160: 5da1 723e 521f 343f aa0d 313f 8d08 213f
00000170: 46a8 1b3f d69e 073f 30be a63e b1a6 7a3f
00000180: 4163 073d 2669 f13e 3b66 fc3e cfbd 283f
00000190: 397a a63d 0c09 b83e 1b2a fa3e 4c33 023c
000001a0: 4722 453f 5639 0b3f 1df9 803e 520e 4c3f
000001b0: fa48 113f eb3a ea3e f991 653f 9ab1 ab3d
000001c0: f1b2 a03e 31ec 013f 3ecb d93e 1ac4 5c3f
000001d0: ea21 003f c2a1 263f 4f16 393f 3fe0 5b3f
000001e0: 4d9a 673f e6c6 363e 313a 2a3f 6d9c 8d3e
000001f0: aa32 d03d d3ef 2b3e f701 643f 14f5 3e3f
00000200: ea07 d23e b184 f33c 32b5 093f 9bed 5c3d
00000210: aa4b 273f 94f9 3d3f a967 db3e bfcb ec3e
00000220: 7d2d fd3e 1104 f13e 4f0c b73e 4186 be3e
00000230: b527 3a3f 7fbc e53e 20eb 8f3d 91ae c53e
00000240: 1322 473f 8ebe 6b3e 225d 9b3e c042 463f
00000250: 45ed 723f a7c3 4f3f 22ab 0e3f 1752 463f
00000260: 8c72 173f 190f 523d 59c5 3e3f da33 263e
00000270: f2e2 fa3e 6fdd 0c3f 5457 f23d 9408 273e
00000280: db2a 6b3e c707 103f 1690 c23e 8257 6e3f
00000290: f86a e13e 9ef2 263e 2bff 893e f2ba 0b3f
000002a0: e71e 893d d009 6b3f 5632 103f 360c f63e
000002b0: a51e 073e 23f9 2a3f 9b54 283f 2817 0c3f
000002c0: ef42 803f a15b 933e 3efd c63e cba1 133f
000002d0: e693 353e 3862 513f 8738 0d3e 1f76 103e
000002e0: e227 633f 39ad ad3e cedf 8d3e 130f 6c3f
000002f0: 53f6 353f 949c 343f 75fa 7a3e 716c 483f
00000300: 0344 2b3f ab68 783f eb20 173f b06d b73e
00000310: 5fc7 2f3f 8371 273f da10 263f 27c0 273f
00000320: 59b2 233f afcd 583f 2e1e 223f 1bcf 343e
00000330: f26b 163e bce4 633f 5b2a a63e fdcf 303f
00000340: cf0d 5e3e f0a6 613f 17be fb3e b8e5 bc3e
00000350: 2909 3b3e c575 5c3e 10ca 1b3d 7d68 583f
00000360: 199b 113f 95e3 b03d d2a4 f43c 6a57 a33e
00000370: 6ddf 303f f578 f43e 74ff 5f3e 39c1 413f
00000380: 37d2 713f 5974 043f edc0 803e 4ed7 933e
00000390: 02ca 0f3e c5e6 6d3f ea9d 463f 5d47 263f
000003a0: d621 363f e1b4 ee3e 5a7c 2c3f 4c77 023f
000003b0: 4e37 253e 5523 d43e cb9d c53e 65ef 493f
000003c0: ce23 523f 6ace ac3d 1d0e 503f a19d 213f
000003d0: 58f6 cd3d 1497 6a3e 23c4 553e b554 d23e
000003e0: c3cf d33e a590 283e d00a 5b3e 1a33 3e3e
000003f0: 330b f93d ba31 553f caf0 1d3f 1fb7 8f3e

bn1.bias f4 [256]
-0.12963262 -0.09249399 0.109073125 -0.030274497 0.05646373 0.076876014 -0.13941427 0.08211653
-0.06703359 -0.087096535 -0.002808623 0.07001492 -0.059376437 -0.05831797 -0.0037198977 -0.005213997
0.030725064 0.08963305 0.08266133 0.016537655 0.033091217 0.022072317 0.012643947 0.02358918
-0.04088776 0.055495925 0.06365194 0.007381287 0.07967904 0.047558106 0.049091958 0.05756636
-0.15907878 0.034828752 0.001134811 0.0432556 0.039790183 -0.03241098 0.045311216 -0.056175534
-0.02420589 -0.09394785 0.07501788 -0.10608861 0.017988205 0.06066365 0.09958592 0.027657576
0.038058992 0.016895901 -0.12116941 0.13690504 0.060656995 0.045888778 0.060082808 -0.13449667
-0.1445253 0.04699424 0.051148083 -0.032888576 -0.002774893 0.112955 -0.109614715 0.1051194
0.064355925 -0.08539069 0.05503857 0.002454355 -0.078216605 -0.08010303 0.1164574 -0.011844309
0.084533595 0.019296052 0.027149338 -0.023579601 0.066817224 -0.0519765 0.06619433 0.039376933
-0.006242464 -0.026541304 0.072724484 0.09565822 -0.03874692 0.12464254 0.021460677 -0.02872402
-0.051226012 0.046590164 -0.024968676 0.050445113 0.00095094694 -0.041542944 -0.07227991 0.05421517
-0.011420741 -0.11123804 -0.0028142382 -0.02026575 0.088194236 -0.018876974 -0.040088575 0.16005059
-0.0044449484 -0.00426798 0.01517814 0.08014627 -0.10601734 0.031730313 -0.032831952 0.025743322
-0.05685565 -0.029012274 0.055566728 0.0760833 0.029386453 0.023770958 0.03756332 -0.05915132
0.08956013 -0.050416917 0.074959666 -0.04727329 0.026870973 -0.0046202955 0.061574105 0.0241369
-0.022412233 0.029204095 -0.040662985 -0.07945369 0.10476312 0.014014966 -0.11170008 0.013559487
0.08974648 0.08215072 0.02743053 0.0075312634 -0.15029459 0.04086791 0.096469454 0.09411101
0.023805019 -0.05779481 -0.05535125 -0.029028554 0.047038388 0.001554334 -0.048290838 0.046403456
-0.048740614 -0.0839743 0.01675446 -0.07106534 -0.18068215 -0.059523527 0.08724144 -0.0005377325
-0.0373542 0.043500725 0.076316796 0.082850926 0.060592446 0.07121614 0.05533644 0.06476901
0.026029466 0.005977057 -0.01578778 0.048428673 -0.02250272 -0.003292955 0.06137261 0.07988409
0.067599095 0.00076814595 -0.03899721 0.12817374 -0.05707079 -0.06919295 0.08610037 0.10981048
-0.0069444207 -0.09854035 -0.02414911 0.14171943 0.11372223 0.084241934 0.046640214 0.08324756
-0.08178282 0.08103042 0.062453907 -0.022506857 0.1048432 -0.10033579 0.012463457 0.054212775
-0.08957125 -0.13614927 0.04812715 0.085581444 -0.05923385 -0.069792554 -0.050031748 0.093476795
0.10975229 0.024528608 0.047502175 0.095726654 -0.056837343 0.030538084 0.015489627 0.13444544
-0.06861389 0.056105297 -0.14257711 0.019392934 0.05825887 0.097184524 0.03965562 0.060774613
0.12751669 0.027617693 0.056088075 0.051185124 0.051636834 -0.0066001816 -0.06538752 -0.082535565
0.050690763 -0.033772644 0.03584862 -0.033653304 0.04011951 0.03970518 -0.1044292 -0.017243352
0.15029152 0.105848394 0.14589585 0.031139985 -0.0906974 0.067512535 0.02491863 0.01391703
0.044109456 0.06661547 0.019040799 0.05990531 -0.071320795 0.031937413 -0.0086073745 -0.1215308
00000000: 6abe 04be 7d6d bdbd bb61 df3d 3902 f8bc
00000010: 8346 673d 2c71 9d3d 9dc2 0ebe b62c a83d
00000020: e848 89bd ab5f b2bd e010 38bb fb63 8f3d
00000030: b534 73bd d3de 6ebd 87c9 73bb 2dda aabb
00000040: 21b3 fb3c 8891 b73d 584a a93d fa79 873c
00000050: a88a 073d 01d1 b43c 8f28 4f3c 193e c13c
00000060: ed79 27bd b24f 633d f35b 823d b9de f13b
00000070: c42e a33d 4acc 423d a614 493d b4ca 6b3d
00000080: 8ce5 22be 98a8 0e3d f0bd 943a c92c 313d
00000090: 08fb 223d 60c1 04bd 4198 393d 5118 66bd
000000a0: 6e4b c6bc bb67 c0bd f9a2 993d fc44 d9bd
000000b0: 005c 933c 737a 783d b4f3 cb3d 2492 e23c
000000c0: bfe3 1b3d 4669 8a3c ab27 f8bd d630 0c3e
000000d0: 7873 783d dff5 3b3d 6419 763d 7fb9 09be
000000e0: 71fe 13be 087d 403d a780 513d 2cb6 06bd
000000f0: fbda 35bb f354 e73d ae7d e0bd d748 d73d
00000100: 0acd 833d 50e1 aebd 2070 613d 3ed9 203b
00000110: 0730 a0bd 0f0d a4bd 3881 ee3d a20e 42bc
00000120: f31f ad3d c112 9e3c 4a68 de3c 022a c1bc
00000130: 78d7 883d 4fe5 54bd e590 873d b549 213d
00000140: 958d ccbb 266d d9bc 93f0 943d 75e8 c33d
00000150: 17b5 1ebd 9744 ff3d 4dce af3c a34e ebbc
00000160: 5ed2 51bd 54d5 3e3d 1c8b ccbc 899f 4e3d
00000170: f848 793a ef28 2abd 7d07 94bd ba10 5e3d
00000180: 0f1e 3bbc c5d0 e3bd 156f 38bb 5c04 a6bc
00000190: 2e9f b43d e2a3 9abc eb33 24bd 4de4 233e
000001a0: eea6 91bb 69da 8bbb bcad 783c ba23 a43d
000001b0: 9f1f d9bd a5f7 013d cc7a 06bd a9e3 d23c
000001c0: 78e1 68bd 26ab edbc f099 633d 90d1 9b3d
000001d0: dcbb f03c 50bb c23c ffdb 193d a848 72bd
000001e0: 4d6b b73d f881 4ebd 7484 993d a3a1 41bd
000001f0: 8420 dc3c d965 97bb 2135 7c3d c0ba c53c
00000200: dc99 b7bc 6d3d ef3c 3b8e 26bd 9eb8 a2bd
00000210: 0c8e d63d 079f 653c 03c3 e4bd 9c28 5e3c
00000220: 01cd b73d a33e a83d feb5 e03c d1c8 f63b
00000230: d3e6 19be 1c65 273d c791 c53d 46bd c03d
00000240: be02 c33c 40ba 6cbd feb7 62bd 4acd edbc
00000250: 53ab 403d cbba cb3a 9dcc 45bd 8d11 3e3d
00000260: 3da4 47bd b8fa abbd a640 893c b48a 91bd
00000270: be04 39be f1ce 73bd a4ab b23d 9ef6 0cba
00000280: b800 19bd d12d 323d fb4b 9c3d bfad a93d
00000290: c92f 783d c5d9 913d 77a8 623d 9da5 843d
000002a0: bf3b d53c 30db c33b 6055 81bc 255d 463d
000002b0: a057 b8bc 9ece 57bb d961 7b3d 459a a33d
000002c0: 6571 8a3d 675d 493a 8abb 1fbd fa3f 033e
000002d0: 10c3 69bd 09b5 8dbd 6455 b03d 51e4 e03d
000002e0: 068e e3bb 86cf c9bd 5bd4 c5bc e61e 113e
000002f0: 33e7 e83d 0987 ac3d cf09 3f3d b27d aa3d
00000300: c07d a7bd 47f3 a53d abcf 7f3d 4d60 b8bc
00000310: 08b8 d63d da7c cdbd 8733 4c3c 370e 5e3d
00000320: 2271 b7bd b76a 0bbe f920 453d 5345 af3d
00000330: 329f 72bd 66ef 8ebd 17ee 4cbd c370 bf3d
00000340: cfc5 e03d 38f0 c83c a491 423d 560c c43d
00000350: 46ce 68bd 012b fa3c 34c8 7d3c 11ac 093e
00000360: 7085 8cbd abce 653d bcff 11be eedd 9e3c
00000370: daa0 6e3d ae08 c73d ee6d 223d cdee 783d
00000380: bc93 023e 803e e23c 9cbc 653d 7ea7 513d
00000390: 2581 533d 5646 d8bb e4e9 85bd 6808 a9bd
000003a0: 1ea1 4f3d 2f55 0abd 01d6 123d 0cd8 09bd
000003b0: 5b54 243d e6a1 223d fade d5bd ee41 8dbc
000003c0: 05e6 193e 0bc7 d83d b965 153e 4819 ff3c
000003d0: 8fbf b9bd 0344 8a3d 2822 cc3c 4104 643c
000003e0: 1eac 343d b16d 883d 73fb 9b3c 455f 753d
000003f0: a310 92bd ced0 023d f205 0dbc 24e5 f8bd

bn1.running_mean f4 [256]
0.34229767 1.3067626 1.6310763 2.1482189 0.56637394 1.0103087 0.32332715 0.40637675
0.49499118 0.33353272 0.9325992 0.83343464 0.716134 1.0797786 0.5744723 0.6496854
0.29495245 0.62129635 1.0777328 0.11654325 0.09143197 0.24411228 0.78347987 0.29631874
0.7862701 0.5622055 1.0768658 0.8039282 0.31896922 1.2528318 1.0791634 0.7872665
0.072764866 0.5957586 0.76677513 0.7207918 0.27225605 1.1421298 1.9691 2.2716832
1.0478771 6e-45 0.81982756 1.6390567 0.59594655 0.23756908 1.1223754 0.84363353
0.11764783 1.8257242 0.70815396 0.5318946 0.6443345 0.051279288 1.9435984 0.41599536
0.6310568 0.5262247 1.746365 0.9005349 1.8364897 0.019944044 1.891365 0.5638626
0.9384503 0.6913595 1.823528 0.2970346 0.7223524 1.6519897 1.0145541 1.2350143
0.05738634 2.126491 0.84047747 0.43840107 1.6688918 0.30292782 1.5455589 2.2593737
0.75489646 0.51747763 1.0782661 0.20864025 0.87490326 0.73344296 1.4262885 0.9034068
1.0284472 1.1677396 1.2894804 0.87788856 2.2443764 0.26272482 0.7701947 1.7474142
0.89630604 0.49025047 0.34684503 1.4075037 1.2976663 0.92075783 0.8749029 1.4996973
1.1143266 0.0685491 1.7458977 0.24713852 1.3259652 2.1835506 0.53054047 0.8929932
1.4413596 2.0942833 0.88951933 0.049299 0.23405154 1.0282195 0.84072834 2.0108573
0.75139487 0.26941547 0.7966867 1.2952383 0.13356902 0.38813558 0.7160614 0.9384341
0.41829216 1.123975 1.3030499 0.3600933 1.0624076 0.89291245 0.5934985 0.53878736
0.124964446 0.38557598 0.35694465 0.8330965 0.9529332 0.26901412 1.6635544 0.53102815
0.06923624 0.7928867 1.8507056 1.4669423 1.4302877 0.4584847 1.0660485 0.3207309
0.19002657 0.75677097 0.50029755 1.6399283 1.0906731 0.5979645 0.6783758 0.41577777
0.2515759 1.0061417 1.1772106 0.11171215 0.013048463 0.26996714 1.3564609 1.253707
0.18471205 0.18444657 0.88956034 1.2660414 1.0009056 0.93183583 1.658465 2.2114565
0.021506013 0.32710576 1.0827383 0.7461629 0.31395924 1.077455 0.2710828 1.1085416
0.5807394 1.1428313 0.5424036 0.58861274 0.43732998 0.8488364 0.11055447 0.6171595
0.6635324 1.1975037 0.79986775 6e-45 1.2607641 0.8942582 0.59552985 0.82365173
1.4917098 0.8926196 0.8237932 2.4749148 0.45340523 1.8800387 0.7872948 0.49326158
0.080913424 0.44215775 0.14711915 0.53832155 0.39572266 0.30205694 0.57444924 0.6801093
2.2186332 0.31319568 0.67027104 0.56824607 1.9829129 0.8240442 0.33954236 0.3980455
0.8774113 1.6944692 0.5271801 0.029771881 0.94281626 0.3564545 0.8670992 0.47515088
0.49722955 0.9583181 1.3587048 0.5981763 1.2674755 0.5164499 1.0864664 1.0946157
1.8954607 0.5302543 1.2504029 0.5850616 0.07663624 0.32106265 1.045845 0.9583869
1.3377182 0.71134907 1.6106259 0.38004616 0.29243433 0.6468565 6e-45 1.1184248
00000000: a441 af3e ff43 a73f 1cc7 d03f 6b7c 0940
00000010: e2fd 103f cc51 813f 238b a53e 9d10 d03e
00000020: 7c6f fd3e cdc4 aa3e d2be 6e3f f95b 553f
00000030: 8f54 373f 2f36 8a3f 9e10 133f c851 263f
00000040: 0204 973e 470d 1f3f 26f3 893f 3aae ee3d
00000050: af40 bb3d 92f8 793e 2392 483f 17b7 973e
00000060: ff48 493f b3ec 0f3f bdd6 893f 3dce 4d3f
00000070: ef4f a33e cb5c a03f 0722 8a3f 4c8a 493f
00000080: bf05 953d a383 183f 604b 443f d085 383f
00000090: 2565 8b3e 4f31 923f 780b fc3f 4263 1140
000000a0: d620 863f 0400 0000 38e0 513f 9ccc d13f
000000b0: f48f 183f 4f45 733e ffa9 8f3f 5ef8 573f
000000c0: 58f1 f03d 55b1 e93f 9449 353f 3f2a 083f
000000d0: 1bf3 243f 3b0a 523d d5c7 f83f 58fd d43e
000000e0: f08c 213f a9b6 063f e388 df3f 7589 663f
000000f0: 1812 eb3f b161 a33c 4018 f23f 4d59 103f
00000100: 473e 703f f0fc 303f 5e69 e93f eb14 983e
00000110: 16ec 383f 6674 d33f e9dc 813f f314 9e3f
00000120: f00d 6b3d 6e18 0840 8829 573f 1b76 e03e
00000130: 3f9e d53f 5b19 9b3e e0d4 c53f 9499 1040
00000140: e540 413f 6a79 043f a004 8a3f caa5 553e
00000150: a9f9 5f3f ebc2 3b3f 9f90 b63f ab45 673f
00000160: 28a4 833f 7e78 953f b20d a53f 4ebd 603f
00000170: dda3 0f40 de83 863e 7b2b 453f 45ab df3f
00000180: 5074 653f 1c02 fb3e ac95 b13e 1529 b43f
00000190: ee19 a63f c9b6 6b3f a3f9 5f3f 15f6 bf3f
000001a0: 41a2 8e3f 7863 8c3d 9379 df3f e111 7d3e
000001b0: 3ab9 a93f 4bbf 0b40 80d1 073f 349b 643f
000001c0: 797e b83f bd08 0640 8ab7 633f c0ed 493d
000001d0: 35ab 6f3e b29c 833f f939 573f e3b1 0040
000001e0: 6a5b 403f d3f0 893e a9f3 4b3f 5eca a53f
000001f0: 51c6 083e b5b9 c63e cd4f 373f 383d 703f
00000200: 642a d63e 6ade 8f3f 57ca a63f 265e b83e
00000210: f9fc 873f e995 643f 85ef 173f f8ed 093f
00000220: 5ced ff3d 376a c53e 73c1 b63e d045 553f
00000230: 6ef3 733f 38bc 893e 5aef d43f 76f1 073f
00000240: bbcb 8d3d 9ffa 4a3f ece3 ec3f c4c4 bb3f
00000250: ab13 b73f 82be ea3e 4774 883f d736 a43e
00000260: 5396 423e bebb 413f 8013 003f 2ce9 d13f
00000270: 2d9b 8b3f 3414 193f 09aa 2d3f d3e0 d43e
00000280: 8ece 803e 40c9 803f d6ae 963f 57c9 e43d
00000290: 38c9 553c 2239 8a3e 83a0 ad3f 7979 a03f
000002a0: 2825 3d3e 90df 3c3e 3aba 633f a50d a23f
000002b0: ad1d 803f cb8c 6e3f 9548 d43f 8188 0d40
000002c0: 612d b03c 687a a73e 2b97 8a3f 8804 3f3f
000002d0: 44bf a03e 0cea 893f 5dcb 8a3e b1e4 8d3f
000002e0: 56ab 143f 4c48 923f f6da 0a3f 53af 163f
000002f0: b7e9 df3e 584d 593f 626a e23d 2afe 1d3f
00000300: 42dd 293f cd47 993f 22c4 4c3f 0400 0000
00000310: b860 a13f 1bee 643f a574 183f d7da 523f
00000320: 59f0 be3f b882 643f 1ce4 523f 0165 1e40
00000330: bb24 e83e 1ca5 f03f 278c 493f c88c fc3e
00000340: f0b5 a53d 8062 e23e 67a6 163e 71cf 093f
00000350: 299c ca3e 35a7 9a3e 1b0f 133f a51b 2e3f
00000360: 16fe 0d40 2f5b a03e e296 2b3f 9378 113f
00000370: 17d0 fd3f 90f4 523f 7fd8 ad3e 9fcc cb3e
00000380: 079e 603f 5ee4 d83f 46f5 063f 29e4 f33c
00000390: 685c 713f 3481 b63e 37fa 5d3f fa46 f33e
000003a0: df94 fe3e 5654 753f 0aea ad3f 1522 193f
000003b0: a33c a23f 1036 043f 5511 8b3f 5e1c 8c3f
000003c0: 759e f23f bfbe 073f 340d a03f 99c6 153f
000003d0: 76f3 9c3d 5362 a43e 40de 853f d858 753f
000003e0: 5a3a ab3f f91a 363f fd28 ce3f 6995 c23e
000003f0: f4b9 953e 6398 253f 0400 0000 8b28 8f3f

bn1.running_var f4 [256]
0.2915494 3.6896317 2.2446384 7.4535575 1.1106299 1.4931445 0.49698463 0.5817393
0.6909901 0.3226595 2.2565012 1.4914657 0.9961722 2.250943 0.51823074 0.8766579
0.3152095 0.40263623 2.0192306 0.062672704 0.06567622 0.12085163 0.9064297 0.18480282
1.2669122 0.57848114 1.1684037 1.5629832 0.24202232 1.5432042 1.6255145 0.83231986
0.036636256 0.7780435 0.86776507 1.5284486 0.2133852 1.9087354 5.1920457 5.65242
2.3252234 6e-45 1.1128554 4.568901 0.8992019 0.22451977 1.8203188 1.3722631
0.114453495 3.602613 1.4754647 0.71496814 1.0472939 0.008055389 5.29048 0.46881285
0.97946197 0.47837335 4.5099134 1.4979708 4.7535925 0.009605944 3.9565938 0.16952881
1.0650197 0.6219386 4.6436024 0.10248498 0.92782557 2.0622125 1.4869756 1.6510785
0.061479196 2.5726013 0.58998835 0.36324313 5.437623 0.20140615 3.3747098 7.642424
1.2614964 0.47001994 1.245485 0.0835481 1.0583249 1.3247658 3.7297869 1.5766857
2.1060781 1.7347103 2.0428567 1.2782193 6.127477 0.07914771 0.8754657 4.123113
1.9320474 0.5953715 0.31691134 1.3300228 2.680658 1.5299262 2.0170474 2.6583276
1.2357953 0.031542424 2.8443139 0.10538695 0.9947486 6.9789324 0.32752252 0.58024406
4.5903883 5.092444 1.410802 0.01962325 0.31127143 0.5198328 1.610442 2.67986
0.54202527 0.22289613 1.3504229 2.709767 0.10279144 0.63476485 1.0553493 1.1325773
0.34603715 1.4259086 1.3513703 0.35255054 2.1385448 0.98817855 0.48046166 0.80043083
0.11286534 0.27283058 0.5574352 0.9404517 1.668452 0.23325454 3.3813975 0.5931744
0.051113546 1.0312222 1.836438 2.465399 2.659337 0.6070794 2.5065444 0.13265215
0.12813042 1.0946248 0.57618314 1.1350394 2.6576328 0.84651464 1.0351444 0.40119705
0.31537774 1.4580693 2.3931878 0.07891452 0.0052601644 0.3218148 2.6686141 1.5763742
0.18290481 0.14170444 1.0122983 2.8486462 1.9154804 0.63546866 3.6818764 5.269346
0.0068136086 0.43749338 2.1055863 1.092553 0.37060836 1.5008109 0.32583696 2.9021404
0.5837139 2.794745 0.5996565 0.5953094 0.38352257 1.4011732 0.024458239 0.68773204
0.6833563 2.3177621 0.64361525 6e-45 2.4335876 1.0323935 0.40442365 1.1994842
3.6824598 1.4666746 0.49735397 7.556056 0.48596317 1.8990195 0.80326444 0.10964787
0.025628116 0.3070169 0.12872428 0.8712939 0.32306048 0.34547493 0.9655657 1.0616722
7.477689 0.55343854 0.617612 1.0098265 2.3487625 0.9782668 0.12397815 0.342303
0.6508043 5.3158545 1.1768494 0.012335056 2.0421915 0.22898842 1.1469494 0.60104865
0.39325145 1.3166202 3.6545777 0.45711997 0.7529178 0.6291524 2.568699 1.7279161
5.83201 0.77790546 1.8703502 0.85280895 0.046174075 0.31636024 1.3804625 1.0993041
2.0644338 1.5695536 4.933994 0.64110535 0.35318625 0.7451567 6e-45 2.7472653
00000000: f745 953e ed22 6c40 28a8 0f40 8b83 ee40
00000010: 1f29 8e3f 5c1f bf3f c574 fe3e deec 143f
00000020: bae4 303f a033 a53e 846a 1040 59e8 be3f
00000030: 2405 7f3f 730f 1040 c5aa 043f a76c 603f
00000040: 2463 a13e 5626 ce3e 133b 0140 8c5a 803d
00000050: 4181 863d 0f81 f73d c70b 683f f33c 3d3e
00000060: 2e2a a23f 5717 143f 418e 953f d50f c83f
00000070: b3d4 773e b787 c53f dc10 d03f ea12 553f
00000080: e60f 163d dc2d 473f da25 5e3f 34a4 c33f
00000090: a681 5a3e 7151 f43f 3d25 a640 a0e0 b440
000000a0: 76d0 1440 0400 0000 0c72 8e3f 7034 9240
000000b0: 1932 663f 83e8 653e 3500 e93f 51a6 af3f
000000c0: 9866 ea3d 3691 6640 07dc bc3f 2708 373f
000000d0: ba0d 863f c0fa 033c 9d4b a940 3d08 f03e
000000e0: 05be 7a3f 5aed f43e 3651 9040 82bd bf3f
000000f0: 6e1d 9840 4062 1d3c d538 7d40 f698 2d3e
00000100: 9152 883f 5e37 1f3f 6498 9440 a5e3 d13d
00000110: fa85 6d3f 4afb 0340 3755 be3f 8a56 d33f
00000120: 9cd1 7b3d 80a5 2440 7a09 173f 01fb b93e
00000130: 0201 ae40 6a3d 4e3e 3ffb 5740 bd8e f440
00000140: b778 a13f 74a6 f03e 0d6c 9f3f 441b ab3d
00000150: 3177 873f ed91 a93f d4b4 6e40 d6d0 c93f
00000160: fcc9 0640 fd0a de3f 2abe 0240 b19c a33f
00000170: 4b14 c440 3218 a23d 851e 603f 8bf0 8340
00000180: 544d f73f 446a 183f 3442 a23e 303e aa3f
00000190: e78f 2b40 9fd4 c33f 4e17 0140 0a22 2a40
000001a0: 8a2e 9e3f a132 013d 3d09 3640 1dd5 d73d
000001b0: d8a7 7e3f 6a53 df40 08b1 a73e e08a 143f
000001c0: 76e4 9240 4df5 a240 2995 b43f f0c0 a03c
000001d0: f85e 9f3e c313 053f f722 ce3f d482 2b40
000001e0: 2bc2 0a3f e23e 643e a8da ac3f d36c 2d40
000001f0: 5284 d23d f37f 223f b015 873f 4bf8 903f
00000200: c82b b13e 2c84 b63f b4f9 ac3f 8181 b43e
00000210: ebdd 0840 45f9 7c3f 12ff f53e 09e9 4c3f
00000220: f225 e73d 73b0 8b3e 13b4 0e3f 71c1 703f
00000230: d68f d53f 47da 6e3e d168 5840 47da 173f
00000240: 705c 513d 17ff 833f 6610 eb3f 19c9 1d40
00000250: 9432 2a40 8e69 1b3f 396b 2040 f7d5 073e
00000260: 9f34 033e aa1c 8c3f bd80 133f f948 913f
00000270: a816 2a40 2fb5 583f 9d7f 843f b369 cd3e
00000280: 3179 a13e 04a2 ba3f fd29 1940 f09d a13d
00000290: 755d ac3b e9c4 a43e 93ca 2a40 a1c6 c93f
000002a0: 664b 3b3e f81a 113e fe92 813f 3850 3640
000002b0: 762e f53f 13ae 223f dda3 6b40 7c9e a840
000002c0: b144 df3b 22ff df3e edc1 0640 c7d8 8b3f
000002d0: 61c0 bd3e 921a c03f 1ad4 a63e abbc 3940
000002e0: 466e 153f 1add 3240 1783 193f 3266 183f
000002f0: 125d c43e a559 b33f a55c c83c 350f 303f
00000300: 70f0 2e3f 3756 1440 f8c3 243f 0400 0000
00000310: e6bf 1b40 7825 843f 9e10 cf3e b388 993f
00000320: 6cad 6b40 febb bb3f 2ea5 fe3e 36cb f140
00000330: 2ad0 f83e 1213 f33f bda2 4d3f 108f e03d
00000340: 0ef2 d13c 5231 9d3e 4cd0 033e 1e0d 5f3f
00000350: 2f68 a53e 17e2 b03e 502f 773f e0e4 873f
00000360: 3a49 ef40 26ae 0d3f d21b 1e3f ff41 813f
00000370: 2052 1640 b16f 7a3f 42e8 fd3d 5742 af3e
00000380: 1c9b 263f 7b1b aa40 00a3 963f fa18 4a3c
00000390: 44b3 0240 f17b 6a3e 3dcf 923f 53de 193f
000003a0: 4158 c93e 0387 a83f 9ae4 6940 a10b ea3e
000003b0: 39bf 403f 2210 213f 9065 2440 5b2c dd3f
000003c0: d39f ba40 d024 473f a367 ef3f b051 5a3f
000003d0: 0721 3d3d f8f9 a13e ffb2 b03f ffb5 8c3f
000003e0: af1f 0440 22e7 c83f 47e3 9d40 7b1f 243f
000003f0: d4d4 b43e 97c2 3e3f 0400 0000 32d3 2f40
