p3_collab-compet/checkpoint_critic_agent_1.pth (torch_old, 164557 bytes, 9 tensors)

fcs1.weight f4 [256, 24]
00000000: bb6b 5f3d a245 81bd 2812 573c df9d 753c
00000010: ff1b 3b3d 3793 44bd f5fb c2bc b41e 343d
00000020: 880b ccbb f95d 6cbd f485 543d 668f 4ebc
00000030: e660 3bbc 6d24 36bd e662 34bd d7dd 223d
00000040: 386f f13c 43f2 b0bd 17a7 c5bc def0 803d
00000050: e51d 4a3d 9bc6 653d cccf 9cbc 4550 313d
00000060: 0842 3c3d bddd 5bbb 85ef 5a3d d06d 853c
00000070: 285d 143d f304 2b3d 98b7 7f3d 61cb a5bd
00000080: 4113 8f3d bd9c 883d c5f1 743d d756 b0bb
00000090: e6e9 9abc a8c6 9abd 3c03 0dbb 5134 45bd
000000a0: 35d4 183d 93a9 963d df62 b63c 4912 88bc
000000b0: 3686 35bd 4112 673c b9a1 3fbd be3e ce3c
000000c0: 10ad d7bc b993 f4bc 2222 ba3c 5b5b 80bd
000000d0: d33f c23d 706e ff3c ec5c 31bb 7d31 4dbd
000000e0: dbb5 193d fa11 5dbd fe19 d2bc 9beb b23c
000000f0: 9eab e53d 4401 0e3d 0f12 06bd 6a28 36bd
00000100: bb8b e7bc a04a 2f3d e64a 153c 5c34 113d
00000110: 443b f13d 4ab5 aebc 25c1 6a3b 7778 0fbd
00000120: 0628 34bc cc57 c1bd ca83 8e3c 371e 80bc
00000130: 898a 753b 2e06 263b 6cad 053d 921f 88bc
00000140: 6b95 ef3c 42ec 52bd 39bd 1e3d 1297 2abd
00000150: d963 763d 243f 39bd 5a40 863c fc3f c53c
00000160: db9f 223d 43d6 68bd cac8 9c3d fb6a 01bc
00000170: 89b4 4cbd 084c 43bd f92e a03d dadc 2dbd
00000180: b516 693c b0b9 47bd 2cda 3c3d 1d55 24bc
00000190: f941 5a3d c4ad 1f3d b67e 0dbd bdb8 493d
000001a0: 4141 383d 0ee6 433d f060 4abd 997c 703c
000001b0: e398 a43d db25 74bd acd3 813d 23bc 023d
000001c0: 63d5 97bd ce77 7e3d deb0 d43c 2a0b f1bc
000001d0: 22cd 403d c9e9 d8bd 9939 df3c 3f4a 29bd
000001e0: e45d 95bd faf1 843d a317 813b 4127 973d
000001f0: c385 a6bb 414d c5bd 3d14 08ba 35cd 0f3d
00000200: c72f a1bd 20cb 023e 6baa c9bb 44e1 00bd
00000210: 2ddf 413d 3faa 3cbd 9f04 1fbb 5d75 843d
00000220: 40e5 9cbc 36a1 e93d 6f3b d13c de2b 16bd
00000230: a862 0e3c f038 943c 6767 12bd 3dbc d0bc
00000240: 273e 88bd 9f9f 3e3b b74e b13c 9f77 59bd
00000250: 23aa 9e3c e954 11bc c1ef 41bd e379 8ebd
00000260: c63a 38bb 6ba7 0dbb bf14 bcbc 8c97 febc
00000270: 6e9d 573d 66d1 c6bc 7318 3fbc 4041 adbc
00000280: cce2 18bd c3bc b73b cc86 8fbd 0f71 ecbd
00000290: caa0 2d3c bd69 13bd ec72 31bd f3af 35bd
000002a0: ae2b 823d a3b4 64bc 4598 523d 10b2 033b
000002b0: cf5f 603d 4bd6 a93c 13ce fc3c 2750 0d3c
000002c0: b2c8 a6bc 9204 a53c 3cf4 893d 4621 533d
000002d0: b1a0 11bd cdc0 253d 7730 7ebc 142c 2bbd
000002e0: f0de 9c3d 8d1b 1c3b 980c 143c 3424 b13b
000002f0: 0723 d2bd 215c dfbc 9fae 863b 6660 783d
00000300: 1a2c 5bbb 74db 0b3c 84d4 183d 1517 77bd
00000310: 5bcb e6bb 22a6 023d 1abb 41bd 481b aabd
00000320: a79f 46bd 8ca0 9fbd 51c2 58bc aaba a6bd
00000330: 568c a33d b712 013d 7d95 29bc 33e5 173d
00000340: aa99 9b3c 23b0 a1bd 22f4 08bb fb5f 82bd
00000350: 46cd f03b 8781 94bc 3afe 34bd dc2a 7ebd
00000360: eaf2 253c dceb f53c bc6a 58bd 4f03 28bd
00000370: 5b52 5abd 1349 d2bc 72b8 4f3d 8f0e 6fbb
00000380: 3a35 06bc 5856 db3d fe60 20bd 03e2 30bd
00000390: 4ea7 13bd 2259 9d3c d7c6 113d 18d3 29bd
000003a0: 18bf 6b3d 6d2a 173d 53c8 523d 287f d0ba
000003b0: d0ce bf3d e703 d13d 55c0 67bd 30ab 98bd
000003c0: 6b76 cc3c 1b88 c0bd 2c5b 08bc 1046 6c3c
000003d0: e58b 0bbd 270c 3a3d 701b d53c dcae e53b
000003e0: 75e7 813d 81b9 59bc 6bfc 943c 6431 9fbd
000003f0: 1310 7a3d c6e7 d3bd b9d7 833c f572 33bd
0.0545461 -0.063121095 0.013126887 0.014991253 0.045680996 -0.047991958 -0.023801783 0.043974593
-0.0062269606 -0.057706807 0.05188556 -0.012607431 -0.011436677 -0.044468332 -0.04403963 0.039762344
0.029471979 -0.08639958 -0.024127526 0.06295942 0.049344916 0.056097608 -0.019142054 0.04328944
0.04596141 -0.0033548914 0.05345108 0.016287714 0.036221653 0.041752767 0.062430948 -0.08095432
0.06986094 0.066705205 0.059800882 -0.005381446 -0.01891036 -0.07557422 -0.002151682 -0.048145596
0.03731175 0.073565625 0.022263942 -0.016610282 -0.044317447 0.014103473 -0.04678509 0.025176402
-0.02632764 -0.029855596 0.022721354 -0.06267425 0.0948483 0.03118059 -0.0027063442 -0.050096024
0.037526947 -0.053972222 -0.02564716 0.021840861 0.11214374 0.034669176 -0.032732066 -0.044472136
-0.02826487 0.042795777 0.009112095 0.035450324 0.11778882 -0.02132668 0.003582069 -0.035026994
-0.01099587 -0.09440574 0.017396826 -0.015639408 0.0037466607 0.0025333273 0.03263609 -0.016616616
0.029246053 -0.051494844 0.038754676 -0.041647978 0.060153816 -0.04522623 0.016388107 0.024078362
0.03970323 -0.05684496 0.07655485 -0.007899041 -0.04997686 -0.04767993 0.07821459 -0.04244695
0.014226605 -0.04876107 0.046106502 -0.010030058 0.053285573 0.038984075 -0.03454467 0.049248446
0.044984106 0.04782682 -0.049408853 0.014678144 0.08036973 -0.059606414 0.06339201 0.031917702
-0.07413747 0.062125973 0.025963243 -0.029424269 0.04707063 -0.10591466 0.027249144 -0.041330572
-0.07293299 0.06491466 0.0039395853 0.07380534 -0.0050818636 -0.09633876 -0.0005191004 0.03510781
-0.07870441 0.12772799 -0.0061543486 -0.03146483 0.047331978 -0.046060797 -0.002426423 0.06467698
-0.019152284 0.11407702 0.025541035 -0.03666293 0.008690514 0.018093556 -0.035743143 -0.025480384
-0.066524796 0.002908684 0.02164398 -0.053092595 0.019368237 -0.008870342 -0.047347788 -0.06956842
-0.0028111204 -0.0021614681 -0.022959111 -0.031078123 0.05264037 -0.02426977 -0.011663544 -0.021149278
-0.037325665 0.005607219 -0.07008132 -0.11545002 0.010597417 -0.03598951 -0.04332249 -0.04435725
0.063559875 -0.013959083 0.051414747 0.0020095147 0.05477887 0.020732066 0.030859983 0.008625067
-0.02035937 0.02014378 0.06736037 0.051545404 -0.035553638 0.040467072 -0.015514485 -0.041790083
0.076597095 0.0023820132 0.009036206 0.005405927 -0.10260587 -0.02726561 0.004110172 0.060638808
-0.0033443035 0.008536208 0.037312046 -0.060324747 -0.007043285 0.031896718 -0.047297575 -0.08305985
-0.0484921 -0.07794294 -0.013229922 -0.08141072 0.07985751 0.03151199 -0.010350582 0.037083816
0.018994171 -0.078949235 -0.0020897468 -0.06365963 0.0073486893 -0.01812817 -0.04418776 -0.062052593
0.010128716 0.030019693 -0.052836165 -0.04101878 -0.053301197 -0.02566961 0.05071301 -0.0036477183
-0.008191401 0.10709828 -0.039155 -0.04318429 -0.036048226 0.01920754 0.03559002 -0.04146108
0.057555288 0.036905695 0.051460575 -0.0015907036 0.09365618 0.102058224 -0.056579906 -0.074545264
0.02495881 -0.0940096 -0.008322518 0.014421001 -0.03406896 0.045421746 0.02601406 0.0070093703
0.06342975 -0.0132888565 0.018186769 -0.077730924 0.061050486 -0.10346942 0.016094076 -0.043810803

fcs1.bias f4 [256]
00000000: 9d88 273c 3bfb bb3a a6d1 0b3e 62e9 9f3d
00000010: b566 d7bd 9592 2ebe 7469 e13d 768c 03be
00000020: 6654 8abd f843 b93d 0a96 8dbd 3903 19be
00000030: 7fe4 b9bb 7e48 a83d 0a8f 3abe 8993 b93d
00000040: ad56 75bb 1610 483e 5442 f7bd 7cca 603e
00000050: 53cc 54bd 8efb 0dbc c8dc 893d da5d fe3d
00000060: 1b5c e73d f7cf ac3d 23c2 4bbd 4ea1 c2bd
00000070: 9cce 463e 6c57 00be 3709 fbbd 2c51 193d
00000080: 3000 0cbd 5d58 ed3d 7748 73be 4dd8 193d
00000090: 1fa5 043d eb95 22bd e29e 5b3c 9cf3 c93c
000000a0: bdb9 4abe e131 89bb 85a7 ab3d 1a44 5cbd
000000b0: 2070 01be f61d 40bd 315e 393e bdfb 38be
000000c0: 1c7d 06bd aafd b9bd b114 0cbe 97a3 02bd
000000d0: beb8 1a3d 784c 36be 355f f03d 0e64 67bd
000000e0: 1b0a 1dbb a42c bebd aad9 3cbe 0dd3 45bd
000000f0: 492c 6c3e 3063 053e aa2a 443e 538a cc3d
00000100: a6bb 33be b9b7 0cbe d8ec 9a3d 750d 0abe
00000110: 4e7e 32be f3fb 353d e01a 2c3e d040 613b
00000120: e5db 093e 8250 6a3e 3ebf 4b3d 5a45 44be
00000130: 8961 04be c598 353e fec1 0f3e 8c29 43be
00000140: 7fbf cfbd a5f0 4fbe f328 84bd 6919 11bd
00000150: a802 fcbb 986c 85bd c4a0 e7bc d51b c33c
00000160: 018e 163e 4b6e 943d 932c 42be 22de 24be
00000170: 3a70 0e3e de39 5c3d 6643 d1bd 7cee f93c
00000180: c7f0 0ebe 54d5 44be 3549 14be 04ea b93d
00000190: 6457 60bc 51ea 3f3e 4dcd 013d 9c63 46be
000001a0: a48a 453d 7a58 11bd ea4f c9bb 1e60 c0bd
000001b0: 873d c6bd 2915 353e bc91 463e 8de4 88be
000001c0: 9ac8 1cbe 8691 cebd 2790 cbbd d2d4 4e3e
000001d0: 907e 603e c30c 63bd 594c 10be 2f65 553d
000001e0: 7cf9 3fbd 4b5d 403e c2a2 c5bc 62dc 1e3e
000001f0: 35d0 17be eb0e 45be e0e6 7bbd ed0e 923d
00000200: bb4a 5cbe ec19 ec3b 98c7 f8bd 4a3b 56bd
00000210: f14d 46be 078a dabc f4c1 25be d7fe 233d
00000220: c01b 10be e4e6 32be a1a9 a03d 8d3c 0b3c
00000230: ad9b 083d 1933 f43d ee5a 1abe 4dc8 1abd
00000240: 203c bf3d 840f efbc a6e8 1b3e aa53 12bd
00000250: 7cf4 85bd 6e23 eabb 85c6 56bd 304b cb3d
00000260: 759b 16bc 30cb 96bc 53cb 9dbd 9903 d63d
00000270: 3014 eabd b5e4 edbc edab 48be c23e bc3c
00000280: cf2c b1bd 055e e2bd 1b32 e83d df81 1bbe
00000290: e626 28be 6945 94bd b4fd aa3d 32a7 d9bd
000002a0: 1288 6bbe f840 9abc 9767 f4bd c6de f0bd
000002b0: d02a 843d fb82 d5bd dc2d e03d f343 13be
000002c0: a1db 8dbd cc07 40be ad9e 333e 5384 93bc
000002d0: 74e0 da3d 54cf ae3c 9c6e f0bd 23fc 193e
000002e0: 7eba 94bc 0028 7ebd 9f32 1c3e bf09 843d
000002f0: 7e81 bfbd 0875 1cbe bb04 9d3d 7c62 bbbd
00000300: 127b 05be 2fab 4c3b 92ec dc3b 0317 f4bd
00000310: 9d84 77bd a319 9e3d 7d09 123e 8f1d 6fbd
00000320: 4b14 25bc 095a 163e acb8 a5bd 5c22 a43d
00000330: 7549 483e e9b3 253e 63aa d6bd f349 c83d
00000340: c9f0 83be c197 dabd 94ed 1a3d 2b09 ed3d
00000350: b874 253e 6b7b b2bd 07c2 3cbe 9e14 373e
00000360: 2879 1b3e 08ab 81bd a87a dc3d 29db d03d
00000370: 1023 773d 6164 93bc c186 9abc 0c09 543e
00000380: ca83 33bd 61ec ae3d e1a1 a43c d061 ca3d
00000390: 0b18 ba3d 8cfe 363e fd0c 313e 5267 e0bc
000003a0: 1f11 34be f02f 0c3e 0a66 4ebd 3724 583d
000003b0: 8339 02be be09 013d 5d71 043e 48e5 32be
000003c0: a093 1ebe 3ade 2c3e 578d ccbd 381f 39be
000003d0: 5453 bc3d 8d27 623c 5d9a ccbd 9c55 d33d
000003e0: 08cb b63b ffad fc3d 5cbd 25bd 29ac dbbd
000003f0: bd4d 1fbd 7a12 2b3e cf5f 2a3d 4d52 373d
0.010225442 0.001434184 0.13654193 0.07808186 -0.10517637 -0.17048104 0.11006442 -0.1284655
-0.06754379 0.09046167 -0.06913383 -0.14942636 -0.005672991 0.08216952 -0.18218628 0.09061343
-0.0037435696 0.19537386 -0.12073198 0.21952242 -0.05195267 -0.008665932 0.06731564 0.124202445
0.112968646 0.08438104 -0.04974569 -0.09503423 0.19414753 -0.12533349 -0.12257617 0.037430927
-0.034179866 0.115891196 -0.23758112 0.037559796 0.032384034 -0.039693754 0.01340458 0.024652295
-0.19797416 -0.004186854 0.08381561 -0.053775884 -0.12640429 -0.046903573 0.18102337 -0.1806478
-0.032834157 -0.09081586 -0.13679768 -0.031894293 0.03777384 -0.17802608 0.11736909 -0.056491904
-0.0023962322 -0.09285858 -0.18442407 -0.048296977 0.23063768 0.13026118 0.191569 0.09987321
-0.17552051 -0.1374196 0.075647056 -0.13481696 -0.17430994 0.04442973 0.16807127 0.0034370907
0.1346279 0.22882274 0.04974293 -0.1916708 -0.12927832 0.17734058 0.14038846 -0.19058818
-0.10143947 -0.20306642 -0.06453123 -0.035424624 -0.0076907463 -0.06514853 -0.028274901 0.023816982
0.14702608 0.07247599 -0.18962316 -0.16100362 0.13909999 0.053766124 -0.10217933 0.030509226
-0.13959037 -0.19222003 -0.14481051 0.09077838 -0.013692711 0.18741728 0.03168993 -0.19373935
0.04822792 -0.03548477 -0.0061435597 -0.09393333 -0.09679704 0.17683853 0.19391531 -0.2673687
-0.15310898 -0.1008635 -0.09939604 0.20198372 0.2192328 -0.055432092 -0.14091624 0.05209845
-0.046868786 0.18785588 -0.02412546 0.15513757 -0.14825518 -0.19243972 -0.061499476 0.07131753
-0.21512882 0.0072052386 -0.121474445 -0.052302636 -0.1936567 -0.026677145 -0.16187268 0.040037956
-0.14073086 -0.1747089 0.07844854 0.008498323 0.03335159 0.119238086 -0.1507375 -0.037788678
0.0933764 -0.029182203 0.15225467 -0.03572432 -0.06540772 -0.007145337 -0.052435417 0.0992645
-0.009192337 -0.018407434 -0.07704797 0.10449905 -0.11429632 -0.02903972 -0.19596834 0.022979144
-0.08651125 -0.11053089 0.11337682 -0.1518626 -0.16421089 -0.072398014 0.08349171 -0.10627593
-0.23001125 -0.018829808 -0.11933821 -0.11761241 0.06453478 -0.10425373 0.10946247 -0.1438139
-0.069266565 -0.18752974 0.17540999 -0.018007433 0.10687342 0.021339096 -0.11739847 0.15037589
-0.018155333 -0.062049866 0.15253685 0.064471714 -0.093508705 -0.15279019 0.07666918 -0.09149644
-0.13035229 0.0031229963 0.0067420686 -0.11918452 -0.060429204 0.077197336 0.14261432 -0.0583778
-0.010075639 0.14682783 -0.08091864 0.08014366 0.19559272 0.16181912 -0.104817174 0.0977973
-0.25769642 -0.10673476 0.03782423 0.11574014 0.16157806 -0.08714946 -0.1843339 0.17878959
0.15182936 -0.0633145 0.10765582 0.101980515 0.060336173 -0.0179922 -0.018863084 0.20706576
-0.043826856 0.085411794 0.020096721 0.098819375 0.09086617 0.1787054 0.17290111 -0.027393017
-0.17584656 0.13690162 -0.05039028 0.052768912 -0.12717251 0.03150343 0.1293387 -0.17470276
-0.15486002 0.16881648 -0.09987896 -0.18078315 0.09195581 0.013803375 -0.0999038 0.10319063
0.0055784024 0.123378746 -0.04046379 -0.10726196 -0.038892496 0.16706267 0.041595276 0.044756223

fc2.weight f4 [128, 258]
00000000: e4c5 223c 3f23 0ebc b8af 1ebd 2c70 91bd
00000010: 81fd 87bd 02ab 90bc 8c1b 0d3d 9357 6fbc
00000020: e0fc e23d b1a5 4bbd f41b 7cbd afbb 3f3c
00000030: f977 853d 5438 49bc 7d42 573d d97c 363d
00000040: dbb2 6dbd 9f53 bdbc 0a8d d2bd 29e5 9abc
00000050: 46c9 053d af85 49bd a698 b7bc 8f4c e7bc
00000060: d33a e13c 9254 c43d 55af c8bc 2a6f 843b
00000070: 9a5e 30bd 0c52 463d 8554 313d af7d 76bd
00000080: 64ab d2bd 3d18 52bd e7c0 fb3c efed d33c
00000090: 4e03 78bd d4b6 e3bd be96 5abd 04d1 5b3d
000000a0: 1f0f 973d dc15 abbd bdbd 7dbd ad9a b4bd
000000b0: c575 99bd f78e 9fbd e21c 773d 7624 35bd
000000c0: 1797 bc3b b470 2fbd e2a9 8fbd bee5 ad3c
000000d0: f784 873d 7721 0bbe 19c8 7d3d dafc 25bd
000000e0: c181 1bbd fcb2 55bd 1af4 e4b9 5730 10bd
000000f0: 5615 03bc 5093 6ebc c1b7 7d3d 8763 8fbd
00000100: d02b edbc 912b 9d3d 8bc5 803a 87c4 3abd
00000110: 108b 68bd ec13 583b ae23 143d aa6c 13bc
00000120: 0885 fbbc ea56 933d 0d84 22bc f623 c73a
00000130: edc7 70bd 8ebb 21bc c491 30bd 67d3 6a3d
00000140: f06f 6d3d 8d12 2dbd a148 d4bd 22cd f13c
00000150: e5d1 973d 1830 743d 9c99 ac3d ed02 02bc
00000160: 5332 45bc 6ce4 2b3b 375b a9bc 833f 8dbb
00000170: db75 d2bb 5675 c13d 1468 ccbb 1ce1 9b3d
00000180: 508f 20bd 4635 91bc bd38 08bd d318 fcbb
00000190: 9e07 65bd d6a0 1b3d 691e 0f3d fdfe 9e3a
000001a0: e313 61bd d997 91bd 8664 04bd 39ce 8f3d
000001b0: 6b3e 8b3b 499d 3bbd a80b 87bd 95f3 22be
000001c0: 3517 693d de5d 85bd 5902 09bc a59e 4f3c
000001d0: ab28 803d ab07 2c3d ef2c 123c b7d5 e93c
000001e0: 00f4 363d 3f65 293d 87e4 633d a345 abbd
000001f0: 58fd c5bd 17e3 d33c f967 b13c 957f 203d
00000200: 6a09 05bd 6aa5 a8bd 0bd9 b03d aaca e13a
00000210: 7ce9 353d e04f 243d 7b50 b23d 5c40 053d
00000220: c3e3 27bd 6d73 723d 20d6 793d 2a4c 893c
00000230: a19c 85bd a8eb 603d 4a8d 90bc 5f0d 373d
00000240: 2d93 843d 21c0 583c 330d fa3c 4f6b 93bd
00000250: 1915 b53c 375a da3c 4e45 9abd 5adf c53b
00000260: 9af7 74bd ee19 e33c c8db 0cbd dcac 0dbd
00000270: 85a0 ab3d c5fa 9bbd 3216 8abd 47ba fe3d
00000280: 7d0f eb3c d3a7 403d 5ad6 ee3c 7185 39bd
00000290: a278 713c 66c7 f1bb 2e04 0d3c 3ea5 943d
000002a0: 1714 3d3d 77df 673d 73e7 a5bc 0f06 3e3d
000002b0: 0bda 91bd 8bf5 a03d 201d 4ebd 7791 5abc
000002c0: 9841 e83c a311 67bd 4f9f 8b3c c50a a73d
000002d0: 2247 d03b e5ca 183b ea16 1dbd e2ba 9e3b
000002e0: 947b 92bd e127 d93c f49b 883d 1229 6fbd
000002f0: 16ca 9abd ef5d ce3d 29f8 95bd f62d ab3d
00000300: 4d16 3bbd c599 e03c b69f 99bd 3306 b13d
00000310: 0c60 8ebd 22b9 09bd 3b80 0dba 77aa 09bd
00000320: e828 06bb bd70 c13d ea6e 6e3b 6396 65bd
00000330: feef 373d dd71 233d 0891 43bd e5b3 4b3d
00000340: 6d45 123d 6e15 203a 25f3 34be 5bf7 973c
00000350: 6912 7cbd 46e8 9f3d 258f d6bc 09b7 8bbd
00000360: 4e52 f3ba fe80 353d 3654 6cbd 283c 6fbd
00000370: c848 a63d 995a ee3c ef0d ffbd 5631 663d
00000380: 9291 fc3b 05fe 833c 0f63 aebd 7fcc 183d
00000390: 5817 ddbc 239d 10bc ed3c b13c dfb0 8b3d
000003a0: 0a3e 30bd b646 293c 6b8a 7b3d 8ad2 843d
000003b0: e355 0c3d 1720 203d eed1 a6bc bc9d 6f3d
000003c0: 6a77 b2bd 1bf3 9abc 9e93 ed3b c92a b6bc
000003d0: 48c5 7c3d 0890 07bd 055d 9fbd af52 42bd
000003e0: 8202 8d3d 1eab 8abd 8041 8abd d194 04bd
000003f0: 7a77 093d 8af8 4b3d d131 8c3c a97c 813d
0.009934876 -0.0086753955 -0.038741797 -0.07101473 -0.06640149 -0.017659668 0.0344501 -0.014608282
0.11083388 -0.049718563 -0.061550096 0.011702462 0.065170236 -0.012281496 0.052553643 0.044552658
-0.058031898 -0.023111163 -0.10280807 -0.0189081 0.032662652 -0.049199756 -0.022411656 -0.028234748
0.02749387 0.09586443 -0.024497667 0.004041572 -0.04305897 0.04841809 0.043293495 -0.060178455
-0.102865964 -0.051292647 0.030731631 0.025870292 -0.060550027 -0.11118856 -0.053366415 0.05366613
0.07375931 -0.08353779 -0.061948527 -0.088185646 -0.07493166 -0.0779094 0.06033028 -0.044224225
0.005755316 -0.04283209 -0.070148245 0.021227714 0.06617158 -0.13586985 0.061958406 -0.04052434
-0.03796554 -0.052172646 -0.0004366942 -0.03520235 -0.008000692 -0.014561489 0.06194282 -0.07001405
-0.028951555 0.07674325 0.0009824497 -0.04559758 -0.056773245 0.0032970859 0.03616684 -0.0089980755
-0.030703083 0.07194312 -0.009919179 0.0015193212 -0.058784414 -0.009871377 -0.043107763 0.057330515
0.05796808 -0.04225402 -0.10365415 0.02951676 0.07413081 0.05961618 0.08427736 -0.007935268
-0.012035924 0.002622868 -0.020673377 -0.0043105497 -0.006422741 0.09446208 -0.006237993 0.076112956
-0.039199173 -0.017725598 -0.033257235 -0.007693389 -0.055915467 0.037995182 0.03494111 0.0012130436
-0.054950606 -0.07109041 -0.03232243 0.07021756 0.004249384 -0.045804296 -0.0659402 -0.15913232
0.056906898 -0.06512044 -0.008362376 0.012672101 0.06257757 0.0419995 0.008921846 0.02854429
0.04466629 0.04135632 0.055637863 -0.083628915 -0.09667462 0.02586512 0.021656023 0.03918417
-0.03247968 -0.08234675 0.08635148 0.0017226536 0.04441212 0.040115237 0.08706757 0.03253208
-0.040988695 0.05919211 0.06099522 0.01675995 -0.06524015 0.05491224 -0.017645497 0.044690486
0.06473384 0.013229401 0.030523872 -0.07198202 0.022104787 0.026654346 -0.0753275 0.0060385885
-0.059806444 0.027722325 -0.034389287 -0.03458868 0.08380226 -0.0761619 -0.06742515 0.12437873
0.028693909 0.04703505 0.029154945 -0.045293275 0.014738234 -0.0073785065 0.008606954 0.0725808
0.046161737 0.056609597 -0.020251965 0.046392497 -0.071216665 0.078593336 -0.050320745 -0.013340346
0.02835159 -0.056413304 0.017043738 0.08156351 0.006356136 0.0023314294 -0.03835193 0.0048440555
-0.07152477 0.026508274 0.06670371 -0.058388777 -0.07558076 0.1007651 -0.073227234 0.08358376
-0.045675565 0.027417073 -0.075011656 0.086437605 -0.06951913 -0.033623822 -0.0005397831 -0.033609834
-0.002047116 0.09445331 0.0036382028 -0.056051623 0.04490661 0.03990351 -0.047745734 0.049732108
0.03571074 0.0006106709 -0.17670877 0.018550565 -0.061540995 0.078079745 -0.026191304 -0.068220206
-0.0018563957 0.04431247 -0.057697497 -0.05840698 0.08119351 0.029095935 -0.124538295 0.056199394
0.007707783 0.016112337 -0.08514988 0.037304398 -0.02698867 -0.008826527 0.021635497 0.06820845
-0.043027915 0.0103318 0.061411303 0.0648547 0.034261595 0.039093103 -0.020363774 0.058500037
-0.08714183 -0.01891475 0.0072502634 -0.022237198 0.06171158 -0.033096343 -0.07781414 -0.047442134
0.06885244 -0.06770919 -0.067507744 -0.032368485 0.033561207 0.049797572 0.017113598 0.06322605

fc2.bias f4 [128]
00000000: 455a 88bc 4daa b8bd 7278 47bd 20e1 d3bd
00000010: a7f2 02bd c0b8 f1bc 826c a83c f04b 9cbd
00000020: 6822 0b3d f396 d2b9 6300 73bd 8a0c 02be
00000030: e2a5 3bbd 0669 d5bd 4e5e d5bd 9aec 96bd
00000040: 542c 8bbd 76f3 bdbd a35d 78bd 8f2f f1bd
00000050: 61f7 4dbc e2f3 66bd e74b 45bc caef 8cbd
00000060: 4e48 f3bc e6ed 12bd 5936 c4bd ae95 ecbc
00000070: 6e63 dabd 08e0 8cbd 40cb 9fbd 721f 263d
00000080: 17a9 3dbd 4175 1bbc 4596 33bd 8d8c 93bd
00000090: 6174 4dbd b738 01ba 1a21 1fbd c78d babc
000000a0: 703e 93bd bcf0 f83c f3c4 c0bd 08a9 64bd
000000b0: 83ca 4cbd e765 0eb9 ee1f 083c df1a febd
000000c0: fc97 c2bd 2690 bfbd 8658 d7bd 1734 c0bd
000000d0: 842c 6abc c340 74bd 9bf7 d4bd 2134 7fbd
000000e0: 1c38 d6bc bc43 a5bd 913f 10bd 9198 86bc
000000f0: 5a55 32bd 1e1a c2bc c457 09be ef84 85bd
00000100: 07e1 c33c 9354 d4bd 1755 16bd 7ac4 d4bd
00000110: 2ed5 1ebe d5c0 a5bd 4e64 513d cf6b 89bd
00000120: d79b 9a3b 0b44 d0bd f95d 10bc 016e 85bd
00000130: 1989 0abd 0af4 f8bc 1e08 b6bd f4b3 32bd
00000140: cd5d e2bc c626 24bd 74f0 85bd c521 f3bc
00000150: c354 8cbd 18ae 86bd 1f45 d9bd f43b 21bd
00000160: 6cfd b5bd 9d9a 7abd 4d8e 91bd 34b3 7abc
00000170: 1e57 a2bd 959c 09bc ee43 c0bd dadf 113d
00000180: 53b4 c5bd 9a37 15bd 465d bebd 311a 38bc
00000190: 38f0 91bb ae36 39bd e87e a8bd c74c d2bd
000001a0: 4b28 78bc 04ba fc3b 9106 44bd e0d1 23bd
000001b0: ae25 babd b54d 1fbd 51c5 3abd b298 8e3c
000001c0: 0340 c2bc e825 85bd 1c37 82bd 81c2 91bd
000001d0: 2b3f 11be fabe d3bd edf2 88bd 3328 a2bc
000001e0: 2154 ccbd a727 90bd a0c7 d0bd ba1d 17be
000001f0: 0727 8abd 8d9c 8bbd 2bd7 d3bd 95eb 01be
-0.016644606 -0.09016857 -0.04869885 -0.103456736 -0.031969693 -0.029507041 0.020559553 -0.076316714
0.03396836 -0.00040166787 -0.05932654 -0.12700096 -0.045812495 -0.10420422 -0.10418378 -0.07369347
-0.06795564 -0.09274952 -0.060636174 -0.11776649 -0.012571187 -0.05638493 -0.012042022 -0.06881674
-0.029697563 -0.03587141 -0.095806785 -0.028879967 -0.10663496 -0.06878668 -0.07802439 0.040557332
-0.046303835 -0.009488405 -0.04384448 -0.07204542 -0.050159816 -0.00049294106 -0.038849927 -0.022772683
-0.071896434 0.030388229 -0.09412565 -0.055825263 -0.049997818 -0.00013580137 0.008308394 -0.12407469
-0.09501645 -0.09353666 -0.105149314 -0.09384935 -0.01429284 -0.059632074 -0.103987895 -0.062305573
-0.026149802 -0.0806956 -0.03521687 -0.016430171 -0.04353843 -0.023694094 -0.13412386 -0.06519496
0.023911012 -0.10367694 -0.03670224 -0.103890374 -0.15511009 -0.080934204 0.05112105 -0.06710016
0.0047182846 -0.10169228 -0.008811467 -0.06515122 -0.033822153 -0.030389804 -0.08888267 -0.043628648
-0.027632618 -0.04007604 -0.065400034 -0.029679189 -0.068521045 -0.065761745 -0.10608887 -0.039363816
-0.08886227 -0.061182607 -0.0710722 -0.015301514 -0.079267725 -0.0083991485 -0.093879566 0.035613872
-0.09653535 -0.03642998 -0.09295134 -0.011236713 -0.004453685 -0.045218162 -0.082273304 -0.1026855
-0.015146325 0.0077126045 -0.047857825 -0.039995074 -0.09089218 -0.038892467 -0.04559833 0.017406795
-0.023712164 -0.06501371 -0.063581675 -0.07117177 -0.14184253 -0.1033916 -0.066869594 -0.01979456
-0.09976984 -0.07038813 -0.101943254 -0.14757434 -0.06745725 -0.06816969 -0.103437744 -0.12687524

fc3.weight f4 [1, 128]
00000000: dbb2 0a3c 4632 ca3c 665b 6ebc d571 033d
00000010: 3e89 77bc 6401 8abc 6603 4e3c 0f39 eabc
00000020: 109e 3b3c 6849 6cbc fbbb e03c 6b4c 82bc
00000030: 4cd8 433c f206 8f3c 3389 38bd 88b1 8d3d
00000040: 9605 ff3b 6a08 55bc 4306 79bc def5 5e3c
00000050: 5be6 7a3c a9a7 073b 82e8 2ebc 39fe a5bd
00000060: 0540 98bc aa9c a13c 8b8e 873c 8988 023c
00000070: e632 313d 525f e8bb e690 243c 9596 403c
00000080: 5486 c0bc 9185 1d3c e530 bd3c 90e3 8ebc
00000090: 3d8a 483d d832 583c d934 69bc 4781 47bc
000000a0: 6523 37bd 5416 633b f6fb f23c 0933 89bc
000000b0: d12e 03bc d637 cb3c 3244 033c 078d e3bc
000000c0: ee88 d03d 686b ed3c d7f4 e2bc 4ec1 133d
000000d0: 8ecf 163d 9b68 c5bc eb67 8bbc d69f 8c3d
000000e0: cd18 463c ad36 b2bb bda9 f93c e429 37bc
000000f0: 81c4 f23c 2970 c4bc cc28 2b3d ef11 2e3c
00000100: 9bd7 8d3c b9e8 c03c ab62 3bbc f570 bb3c
00000110: 87c6 40bd 07f7 99bc c182 633c f70f a3bc
00000120: 9aee 97bc 188f dabb e5c3 de3b 570e d13d
00000130: 72c7 823c 090b 533c fd79 ebbc 5056 c7bc
00000140: d6ba 8b3c 2ccc cfbb a53b 5f3d 421b 47bc
00000150: c2d5 143c 5df3 1cbc 5739 9abc c7b7 ffba
00000160: b52e 003c ec85 783c c8c9 9ebd 6d53 123d
00000170: 6c3b 2ebd ccf9 07bd dd68 a43c c541 783b
00000180: f012 48bc eee6 1e3c cf10 953d b8f9 523c
00000190: fc9c e03b b473 56bc 35ce 40bd 67eb cfbc
000001a0: 8037 5e3c 237b d03c cb5a e43b 37bd 403d
000001b0: 6151 d63b b468 20bc d9b4 e93d 9b86 823c
000001c0: 4fe5 adbc aeac 0ebd 9714 cd3c 5cb6 673c
000001d0: ff54 093d 74bb 2dbc 92c2 7abc 2c9b 273d
000001e0: ddd8 2bbc 64ab 34bd ca76 77bc f8e8 81bc
000001f0: 0072 c2bc 55d5 523d 274c 6d3c 97be 8ebc
0.008465494 0.024682175 -0.014548158 0.03209098 -0.015108405 -0.016846366 0.012574052 -0.02859166
0.011451259 -0.014421798 0.027433386 -0.01590558 0.011953425 0.017459366 -0.04505272 0.06918627
0.0077826483 -0.013002494 -0.015199247 0.013608424 0.01531371 0.0020699298 -0.010675551 -0.0810513
-0.018585214 0.019728024 0.016547462 0.007967123 0.04326143 -0.007091441 0.010044312 0.011754652
-0.023501553 0.009614364 0.023094604 -0.017442495 0.04895996 0.013195716 -0.014233791 -0.012176818
-0.04471149 0.003465076 0.02966116 -0.016747968 -0.008006767 0.024806898 0.0080118645 -0.027777208
0.10182367 0.02898188 -0.02770464 0.03607302 0.036819033 -0.024097731 -0.017017325 0.06866424
0.012090874 -0.005438647 0.030476445 -0.011179421 0.029634716 -0.023979263 0.041786954 0.010624393
0.017314723 0.02354847 -0.0114370985 0.02288101 -0.04706433 -0.01879455 0.013886155 -0.019905074
-0.018546391 -0.00666989 0.006798255 0.10207813 0.015964244 0.012881049 -0.028744692 -0.02433315
0.017056864 -0.006341478 0.05450024 -0.012152495 0.009084167 -0.009579507 -0.01882617 -0.0019509726
0.007823636 0.015168648 -0.077533305 0.035724092 -0.042537138 -0.03319721 0.020069534 0.0037880999
-0.012211546 0.009698613 0.072785966 0.01287692 0.0068546515 -0.013089109 -0.047071654 -0.025380803
0.013563037 0.025449341 0.006968831 0.04705545 0.006540463 -0.009790588 0.11411447 0.015933326
-0.021227507 -0.03483265 0.025034232 0.014142599 0.033528324 -0.010603774 -0.015305178 0.040919468
-0.010488716 -0.044108763 -0.015104005 -0.015858158 -0.023736 0.05147298 0.014483488 -0.017424865

bn1.weight f4 [256]
00000000: 2241 663e 2630 663e 7c32 263f 33f3 433f
00000010: 1aad 0f3f 213c 883e eb82 253e 42a6 8f3e
00000020: c7c2 3d3e e5fa d03e 0efb 5f3f 3d7f e13e
00000030: 9c2d 1c3e 17ab 643e 700a 423e ad62 aa3e
00000040: d735 703d e778 5d3f edd0 893e 259b 453f
00000050: f94b 053d 6776 763e 4fd6 d63e bcc1 903e
00000060: 34ff ef3e 37e7 ce3e c206 0c3f 75a2 903e
00000070: afc7 523e 3f7f d33e c7cc 373f f5bd eb3d
00000080: 0c57 d63e 66f6 4a3e cfca 663f 769e 813e
00000090: d774 343e 2bd8 ca3e 6969 603f bb02 6f3f
000000a0: 72bf e43e 2455 4c3e 031a 0d3f bf0f 1c3f
000000b0: 5273 c33e 376f 65bd 6318 1b3e c9c2 4f3f
000000c0: 2102 0d3e e7cb 523f 58c3 ad3d 3765 163d
000000d0: e05b 5e3f aa62 3d3f 65f1 513f e2ee 733c
000000e0: 51c8 433e 4042 153f a382 153f a679 433f
000000f0: babb 063f 3584 9f3e 00d6 503f f8f2 973e
00000100: 46fe 493f ed2e 923c 7d6b a03e 1723 4a3f
00000110: 2c6d 1b3d 1945 073f 5460 c73e 6b8d 2c3f
00000120: ca34 603f e7da 033f c17d 973e 5677 563f
00000130: 1ff5 3d3f 2ac4 663f a892 fc3e 2ad9 493f
00000140: 2d98 4f3e 4fcd c33e 81fc 2b3f d316 263f
00000150: df51 cd3e f453 573f 6e23 d33e 9eae 053f
00000160: 8dfd 573e 30bd 3d3f 1a9f 273f 030b 2d3f
00000170: ebda 1f3f e06e fd3e 5eee ac3e 28e2 733f
00000180: 5bb0 d13c 58ef f13e daff e93e 570b 243f
00000190: 9a8f 873d 9f6f b43e 9817 f73e 2518 273b
000001a0: 76f8 503f fd16 063f 0948 a43e 72d8 333f
000001b0: 2e39 113f f47b e83e 0420 673f 2e42 203e
000001c0: f2d5 903e b048 053f 0285 063f 3831 613f
000001d0: 6a14 cc3e 2cf5 233f cfc5 483f f228 5f3f
000001e0: fceb 6b3f c959 0a3e d733 2a3f 53f2 953e
000001f0: 22be 0a3e 5748 183e bc35 6c3f a59a 433f
00000200: 25e8 f63e f65b 6d3d 85a9 073f c891 ae3d
00000210: 04b6 273f 275f 3c3f 9c5b f53e 5c67 e33e
00000220: e7e7 e93e 0531 193f f315 bc3e 1b5d c83e
00000230: 67c5 3f3f e9bb e13e 34c4 8e3d 53e0 f13e
00000240: 8038 5a3f c2b2 5a3e 45b4 8b3e 3621 483f
00000250: 6ec9 6f3f ab8c 663f 8115 143f e236 4d3f
00000260: cbc2 163f 389f 363d caa2 3d3f 7b9d 1b3e
00000270: f8e0 023f ad3d 123f 3e36 e93d 5105 6d3e
00000280: c235 623e 04c5 163f 75ad e03e 9a15 533f
00000290: a108 ed3e 822f 023e 560e 853e 7b3c 243f
000002a0: 0bed 0d3e e501 5c3f 263e 1c3f 5983 ee3e
000002b0: f1df 0a3e 65cd 303f 0dc2 2c3f 6bcc 0a3f
000002c0: 306b 733f 681c 6c3e 4903 b33e 7c9d 053f
000002d0: 5844 113e a685 4d3f aa3e cf3d bea1 d73d
000002e0: f4d9 613f 5320 d43e 49f0 993e 9142 6c3f
000002f0: 94bb 313f ebc2 413f 5bea 563e ae52 4b3f
00000300: 6126 3a3f e707 6e3f b70c 0f3f 36d7 bd3e
00000310: e2a9 363f 98e9 213f e429 393f 15e1 223f
00000320: c990 233f e278 533f d62a 1c3f 8afa 2d3e
00000330: bb7d 1e3e 67dd 613f 7b6a a33e b4ce 323f
00000340: 4999 073e ac29 5b3f 26c5 f93e 0d38 bf3e
00000350: 6a20 1e3e 0b83 893e cf5a 1a3d 9b7b 623f
00000360: 6046 113f c2c9 d43d fbc0 1b3d 6841 a63e
00000370: 6868 323f 92bc f33e 45b6 7c3e 7454 513f
00000380: f7db 7b3f e84a 013f f9ca 803e c012 773e
00000390: 0b51 1b3e d982 673f 0c0e 4b3f 3224 2e3f
000003a0: 2e4a 313f 41ec de3e 11bc 2b3f 855f 013f
000003b0: 0e03 223e 5eb4 c23e 549f cf3e 0f51 4e3f
000003c0: 39d0 543f b93a 7b3d d279 4c3f 27cb 0c3f
000003d0: fa9e eb3d f084 633e 2ef4 593e 5250 e83e
000003e0: 59ca df3e be03 263e 9a8a 573e d1d0 193e
000003f0: 19d8 813d ae0d 613f ff85 0a3f 0a91 713e
0.22485784 0.22479305 0.64920783 0.7654297 0.5612351 0.26608375 0.16163222 0.28056532
0.18531333 0.40816417 0.87492454 0.44042388 0.15251774 0.2233089 0.18949294 0.3327841
0.058645096 0.8651261 0.2691721 0.77189857 0.032543156 0.24068604 0.4196038 0.28272808
0.46874392 0.40410778 0.5469781 0.28248945 0.20583986 0.4130802 0.7179684 0.11510841
0.41863286 0.19820556 0.9015321 0.2531621 0.17622696 0.39618048 0.87660843 0.9336354
0.4467731 0.19954354 0.55117816 0.60961527 0.3817392 -0.056014266 0.15146022 0.81156594
0.13770343 0.8234238 0.084845245 0.03671762 0.8685894 0.73978674 0.82008964 0.014888497
0.19119383 0.58304214 0.5840246 0.76357496 0.526302 0.31155553 0.8157654 0.29677558
0.78903615 0.017844642 0.31332007 0.7895979 0.03794591 0.5283981 0.3894068 0.67403287
0.8758055 0.51505893 0.2958813 0.8377584 0.7420215 0.9014307 0.4933064 0.7884699
0.20272894 0.38242576 0.67182165 0.64878577 0.40101525 0.8411248 0.41237968 0.5221957
0.21092816 0.741168 0.65477145 0.6759493 0.6244342 0.49498653 0.3377561 0.9526696
0.025596788 0.47252917 0.45703012 0.64079803 0.06619187 0.3524141 0.48260188 0.002549657
0.8162912 0.5237883 0.32086208 0.70252144 0.56727874 0.4540707 0.90283227 0.15650246
0.28288227 0.5206404 0.52546704 0.87965727 0.39859325 0.6404598 0.7842683 0.8717185
0.9215696 0.13510813 0.6648535 0.2928644 0.13549092 0.14871345 0.9226949 0.76407844
0.48223987 0.05794903 0.5299304 0.08523899 0.6551211 0.7358269 0.47921455 0.44414794
0.4568474 0.5984042 0.36735496 0.39133534 0.7491059 0.44088677 0.069710165 0.47241458
0.8524246 0.21357253 0.27285972 0.78175676 0.9366673 0.9005839 0.5784531 0.8016187
0.5889098 0.044585437 0.7407652 0.15196793 0.51124525 0.5712536 0.11387299 0.2314656
0.2209082 0.5889437 0.43882337 0.82454836 0.46295646 0.12713435 0.259875 0.64154786
0.13859956 0.8594039 0.6103233 0.46584585 0.1356199 0.6906341 0.674836 0.5421817
0.9508543 0.23057711 0.34963444 0.5219343 0.14186227 0.80282056 0.10119374 0.10528897
0.88223195 0.4143091 0.30066136 0.9228907 0.69426847 0.75688046 0.20987837 0.79423034
0.7271481 0.9298081 0.55878776 0.37078255 0.7135297 0.6324706 0.72329545 0.636247
0.638928 0.8260633 0.6100286 0.16990104 0.1547765 0.8822846 0.31917176 0.69846654
0.13242067 0.8561046 0.48783225 0.3734745 0.15442052 0.2685779 0.037684258 0.88469857
0.5674801 0.10390045 0.038025837 0.32471776 0.6969056 0.47604805 0.24678905 0.8176949
0.98382515 0.5050492 0.25154856 0.24128246 0.15167634 0.9043403 0.7931831 0.6802398
0.69253814 0.43539622 0.6708384 0.50536376 0.15821478 0.38028234 0.40551245 0.80592436
0.8313022 0.0613353 0.79873383 0.54997486 0.11504932 0.2221868 0.21284553 0.4537378
0.43709067 0.16212365 0.21048966 0.15021063 0.063400455 0.879115 0.5411071 0.23590484

bn1.bias f4 [256]
00000000: 02ce 75bd 64e6 39bd 5ea4 1d3e b7c2 23bd
00000010: 4235 e53c c67c 8fbc 20bf 40be 2c09 bd3d
00000020: 00b7 cd3d 5be4 46bd dfbc 8a3c e1e7 013d
00000030: d8f2 853c 5f04 52bb 54d6 d73d bb0d f93d
00000040: b8f8 4b3c a635 8e3d c63f be3d f87d b93c
00000050: ddb9 cb3d 7004 ea3b b5eb ed3b 6c1d 5a3b
00000060: bad6 b4bc 0eda 9f3d d4ee a03d 4f59 3b3d
00000070: 0260 ea3d fb16 d03d 507a 793c 9023 74bd
00000080: 58ab d9bd ea42 e13a 87f7 abbc b8fe f53c
00000090: d9cf ee3c 704e a6bd be19 4e3d fd06 89bd
000000a0: 74ff af3c 46bf b1bd 93b0 41bd 34d8 16be
000000b0: 255f 4cbd a675 cfbc 0450 ee3d 11d0 a9bd
000000c0: 7683 c33d 2ca3 cb3c 4bba cabd 41e0 073e
000000d0: ca14 13bd d1fd 423d 4f7d 4a3d ca2a 05be
000000e0: 3e43 e6bd 3e65 333d 63b3 793d 6149 a73c
000000f0: 8586 923d a05e 6b3d b1c1 b9bd 9ccc c93d
00000100: 488f 803d 0817 acbd 883c 503d f9cf 3e3c
00000110: cda1 e7bd 3e05 e4bd d61e 063e 615e 933c
00000120: 01da af3d b1c1 c73c 1c97 2f3d 3b93 8abc
00000130: 89d7 a93d c292 85bc 58d5 cb3d b9f4 893d
00000140: 8bbc efbd 9813 44bd 094a 513d 0dc3 db3d
00000150: a140 45bd b9ac bf3d 8b8f a83c 0930 6ebc
00000160: ea92 373d c252 3e3d 22f7 89bd 891d 1c3d
00000170: 2abf c23c 029b 91bc 1058 1dbd 0dba 7c3d
00000180: 3902 cb3d fa95 e4bd 7af1 db3c 143a d3bd
00000190: f00a 843c 9adc 51bd 02b3 0abe fc54 093e
000001a0: 0f49 983d 2072 8cbd f678 3fbc 75ba a33d
000001b0: 1395 3dbd 1ec7 843c 4edc 13bd 2eaf 213d
000001c0: cff1 26bd abe4 9fbb c1b4 953d 76d3 263c
000001d0: 2499 abbc 3210 b53c ebdc 1a3d 13b0 1f3d
000001e0: 1e51 803d 09be a43d a38d a43d 4215 5bbc
000001f0: 5b1a 183d ebaf 83bc 6489 6a3d 72be 4e3d
00000200: 9c1d 00bd fd83 553d cf76 ebbb cbb8 e6bd
00000210: 454d f13d 7d37 423d b631 ad3c 3516 2dbc
00000220: 4a28 da3d 8b4e a73d 7cfc 6b3d 3d73 ad3c
00000230: abb2 08be 46e7 8dbc b2c3 023e 25a8 9d3d
00000240: ad0b 5c3d 2345 79bd 1f5e b7bd e540 823d
00000250: 458b 413d f452 9d3b e231 d9bc b1cf d83c
00000260: 97bf 9cbd efc0 c2bc 5f89 3dbd fd39 cfbd
00000270: 44c6 33be e58c 78bd 48b2 d13d 647b 0a3d
00000280: 2bed 0abe 1f1e a93d 8b92 abbc 5994 b93d
00000290: 5e13 b73d edd6 d13d f7f4 9bbc 33cf 873d
000002a0: d0a7 0abd 6457 213e 9cce 2fbd b942 d03b
000002b0: eb71 ec39 41e8 7e3c 5bac 9e3d 9a60 e73d
000002c0: ad5b 9e3d 2080 1e3c 7412 cebb 9cc8 103e
000002d0: 6ea5 553d 1260 d2bd 1e95 6c3d b66c 2a3e
000002e0: 722b 73bd 130d b1bd 5bd9 9bbc 6f8b 073e
000002f0: ec16 123e 31ec 993d ffc0 4e3d ec82 833b
00000300: 2ea8 bbbd 5120 da3d 3627 e33d 993b 98bd
00000310: 7a15 993c b263 20bd 9a75 8f3d 16a8 b13d
00000320: b0b3 8fbd 90b1 a6bd e89f b13d 7df4 243d
00000330: 7106 bcbc 81ed e2bc 8828 0ebd ed87 973d
00000340: 50ca fc3d 8732 ce3d 11d8 763d 1cf3 d53d
00000350: 3355 adbb cf07 0abb f2e8 05be ed81 b83d
00000360: e4ff 39bd 6e0b 6e3d 6ea8 efbd 8362 0cbd
00000370: f667 7e3d 8337 2f3e 3065 cc3c 802c a73d
00000380: 4b8c 113e c3b4 e63d acc0 853d a795 513d
00000390: d671 b63d 6551 bbbc 57f3 e8bc 312f 8ebc
000003a0: ea2b b13c 72ae a33d 7141 813d ac47 b8bd
000003b0: 682e fa3c cef6 a63d 9947 c1bd bfd8 22bd
000003c0: cb42 fc3d 5431 753d c3bc 183e 531e 56bc
000003d0: f56c 73bd 1de8 843d 3c37 4439 d31d 023d
000003e0: c292 823d b822 d83d 4fa8 583d c3bd abbc
000003f0: e319 02be c8db ed3d 99d5 06bc 2945 2cbe
-0.060010917 -0.045385733 0.15394732 -0.039980616 0.027979497 -0.017515551 -0.18822908 0.09230265
0.1004467 -0.04855762 0.016935764 0.031715278 0.016351148 -0.0032046062 0.10538927 0.12160822
0.012449436 0.069438264 0.092895076 0.022643074 0.0994756 0.0071416423 0.0072607645 0.0033281697
-0.022075046 0.078052625 0.07858053 0.04573947 0.11444093 0.10160633 0.0152269155 -0.059604228
-0.10628384 0.001718608 -0.020992054 0.030028686 0.029151844 -0.081204295 0.05031752 -0.06690786
0.021484114 -0.08679061 -0.047287535 -0.14730912 -0.049895424 -0.025324654 0.116363555 -0.08291639
0.095465586 0.02485808 -0.09898814 0.1326914 -0.035908498 0.04760534 0.04943591 -0.13004604
-0.11243294 0.043797724 0.060962092 0.020420732 0.07154564 0.05746329 -0.09070147 0.09853479
0.06277329 -0.0840283 0.050838977 0.011646264 -0.11310158 -0.11133812 0.130977 0.01798934
0.08586503 0.024384351 0.04286872 -0.016915908 0.08293063 -0.016305331 0.099528015 0.0673613
-0.117058836 -0.04787025 0.051095996 0.10730562 -0.048157338 0.09359116 0.02057626 -0.01453782
0.044817843 0.046465643 -0.0673659 0.038114104 0.023772795 -0.017774109 -0.03841406 0.06170087
0.09912533 -0.11161418 0.026848543 -0.10313812 0.016118497 -0.051235773 -0.13544849 0.13411325
0.0743581 -0.06857705 -0.011686554 0.07994548 -0.046284746 0.016208228 -0.03609877 0.039473705
-0.04075795 -0.0048795543 0.07309867 0.010182252 -0.020947047 0.02210245 0.03780834 0.038986277
0.06265472 0.08044059 0.080348276 -0.0133717675 0.03713451 -0.016075095 0.057259932 0.05047459
-0.031278238 0.052127827 -0.007185794 -0.11265715 0.11782316 0.0474162 0.021141868 -0.010564377
0.10652216 0.08169278 0.057613835 0.021173114 -0.13349406 -0.017322194 0.12769964 0.07698087
0.053722072 -0.06085695 -0.08953499 0.06360034 0.04725196 0.0048011485 -0.026513044 0.026466222
-0.0765373 -0.023773639 -0.046273585 -0.10118482 -0.17556101 -0.060681242 0.102390826 0.03380908
-0.13567035 0.08257698 -0.0209439 0.09061498 0.08939241 0.10246072 -0.019037707 0.06631317
-0.033851445 0.15755993 -0.042921647 0.00635561 0.00045098303 0.015558303 0.07747718 0.11297722
0.077323295 0.009674102 -0.006288821 0.14139026 0.05215972 -0.1027223 0.057759397 0.16643032
-0.059367605 -0.08645072 -0.019024542 0.13236783 0.14266557 0.07515753 0.050477024 0.00401341
-0.09162937 0.10650695 0.11091463 -0.07433242 0.018686999 -0.039157577 0.070048526 0.08674638
-0.070166945 -0.08139336 0.08673078 0.040272225 -0.02295229 -0.027701141 -0.034706622 0.07398973
0.123432755 0.10068231 0.06026465 0.1044676 -0.0052896976 -0.0021061783 -0.13077143 0.090091564
-0.045410052 0.05811637 -0.11702047 -0.034273636 0.062110864 0.1711102 0.024950594 0.081627846
0.14213674 0.11264946 0.0653089 0.05116811 0.08908431 -0.02286596 -0.028436346 -0.017356487
0.021627385 0.07992257 0.0631131 -0.08998045 0.030539706 0.08152543 -0.09437484 -0.039757486
0.12317427 0.059861496 0.14915757 -0.013068753 -0.05943008 0.064895846 0.00018712593 0.031766724
0.06375648 0.10553497 0.052894887 -0.020964509 -0.12705187 0.116141856 -0.008229637 -0.16823258

bn1.running_mean f4 [256]
00000000: 2066 673e 8f97 773f a9e8 7e3f 3f48 0240
00000010: df2b 343f 1511 c33e 23bb 163f 7476 683f
00000020: 0df2 a73e e4de 863e f60b 773f 99f9 6c3f
00000030: b643 5c3f 29cb 743f a415 fe3e 135c 613f
00000040: 46ad 243e 6a76 233f 3666 b13f af98 613e
00000050: 85a0 0f3c 87c5 ac3e 1f26 e53e ccca 4b3d
00000060: 17d2 533e abd5 063f b501 813f 0efb d13f
00000070: 4cae 7d3e 4d11 e63e 242e 553f 0576 803f
00000080: d8a8 733d dab1 ff3e 4c2f 0e3f 61ff 3e3f
00000090: 7cbc 0d3f 3b81 1e3f cae5 ff3f 3c80 e13f
000000a0: 50db 5d3f f8dd a03d 2013 0a3f e6f9 ea3f
000000b0: 89f0 c33f e2e3 b23e 0186 c63e 446c 753f
000000c0: ed87 823e ce44 0440 082b bf3f c25c c23e
000000d0: 7d67 833f f6a1 2b3d 2936 c53f d8f6 893d
000000e0: 4e09 6c3f fbc4 993f 40da 5e3f cba1 1e3f
000000f0: e7ed b73f dad7 093f 5efb d43f dd1f fa3e
00000100: a103 fb3e 94ee 093f 68ab ac3f ba96 553f
00000110: 4108 e23d d902 673f bc82 a03f 9b6b 7b3f
00000120: 6491 d83d 112d b13f 8772 923f 3b20 fa3e
00000130: c062 843f 4ef2 b83e 263e c33f 8ef4 1340
00000140: 2aca 603f 2001 823e b7f3 833f fe17 1f3e
00000150: 1b3d 7e3f c60b 0f3f 962d cd3f c1f8 633f
00000160: 087f ba3f 2ae0 203f 6407 3d3f a720 1a3f
00000170: 937b 0d40 f827 693f 31b2 a53e 6e0f ad3f
00000180: 644c 6b3f 6f51 d93e 03b3 ef3e c8ae 893f
00000190: 8b7e c33f 9f0d cb3f 2cac aa3f 9597 7c3f
000001a0: 3609 733f d6d7 373e 2468 193f 4edc cc3e
000001b0: 435b 9f3f b10e 2d40 9421 393e 0a3b 8d3e
000001c0: e515 723f 34b4 dc3f 0ccd 073c fe2c e43e
000001d0: 31a7 6e3f a718 bd3f 4993 a93f 44f0 a93f
000001e0: 1a24 903f af99 183f f299 863f 0d57 f33e
000001f0: 2567 673f 6267 0c3f decd 4f3f ecfb 133f
00000200: d838 1d3f 06b5 2c3f ad04 9c3f 9356 9a3e
00000210: c157 a73f 7dfb 7d3f 7b68 1a3f 2eda b03e
00000220: 565c 143f 495e 163e bf4e cb3f 547b 853e
00000230: e194 7e3f 1ba9 b23e 1920 d83f ebb1 e63f
00000240: 5f6e ef3e 96a8 783f edbc cd3f 5d14 923f
00000250: c225 cc3f 364c 773f 882b c63f 56f4 263f
00000260: e78d e53e 3b52 623e 901a 473f 4504 aa3f
00000270: d0be a93f d4ce 303f 311c e43d 644d 923e
00000280: 327b c03e 84f4 f83d 50e3 213f f408 2b3e
00000290: 1d88 063c ebe7 793e b491 b33f da87 9e3f
000002a0: b6f7 7c38 08bd be3e c3d8 123f 65da e43f
000002b0: b7ee 873f 52ad 883f e6f7 e13f 62f2 0a40
000002c0: 35e5 043d d587 033f 10db 653f d5b6 9e3f
000002d0: 81dc 5f3f b4c6 833f 4d57 c53e 048d 8e3f
000002e0: a918 973f 777b 573f 81c4 e33d 5052 063f
000002f0: f639 2f3f 288e 143f 56d7 fa3d ff66 963e
00000300: 7935 373f f304 8f3f e25e 9d3f 0400 0000
00000310: abf4 b43f cb91 513e 12e6 723f 0a27 333f
00000320: 1b6f 7f3f 33d9 873f ff9e d43e eee6 0a40
00000330: a49a 183f a113 ec3f 63c6 1f3f 5fc5 e63e
00000340: 0400 0000 e015 ae3e 0c4a 8c3e 44a4 ba3e
00000350: cbb8 493e 4d22 823e bea9 653c 1c13 603f
00000360: 61bf c73f 5025 363f bad1 973c da69 323f
00000370: 2b2b cd3f f862 913f 408d 933e 2dc7 033f
00000380: 2079 1c3f c305 2740 0bdb 2b3f a0c2 ff3e
00000390: bb18 ae3e ca59 063f 52a3 873f dfc3 873e
000003a0: afeb 173f 5365 673f 3ca7 933f e1c9 f03e
000003b0: d9b9 963f e20b a83f 09c0 143f 7eff 483f
000003c0: 3694 d13f d42e bb3f eca4 b33f 599e 023e
000003d0: 055e d73c bc32 473f bc10 273f a897 793f
000003e0: 8084 a03f 3a70 e63f 44ee 0440 038b a03f
000003f0: 7678 ae3e dd44 ed3e bff5 853d 08ab 953f
0.22597551 0.96715635 0.9957376 2.0356596 0.7037944 0.3809897 0.588793 0.90805745
0.32801858 0.26341927 0.96502626 0.92568356 0.8604082 0.956225 0.49625885 0.8803112
0.16081724 0.6385256 1.3859317 0.220309 0.008766298 0.3374445 0.44755647 0.04975395
0.20685612 0.5266978 1.0078646 1.6404741 0.2477352 0.44935074 0.8327353 1.0036017
0.059487194 0.49940377 0.5554092 0.7460843 0.5536573 0.6191594 1.9992001 1.7617259
0.8666277 0.07854837 0.5393543 1.8357513 1.530778 0.34939486 0.38774112 0.95868325
0.25494328 2.0666995 1.4935007 0.37961394 1.0265957 0.041902505 1.5407153 0.06736535
0.922017 1.2013239 0.87051773 0.61965626 1.4369477 0.5384499 1.6639211 0.48852435
0.49026206 0.53879666 1.3489809 0.83433115 0.110367306 0.9023872 1.2539897 0.9821107
0.10574606 1.3841878 1.1441201 0.48852715 1.0342636 0.36122364 1.5253341 2.3118014
0.8780848 0.25391483 1.0308751 0.15536496 0.9931199 0.5587734 1.6029537 0.89051443
1.4570017 0.6284205 0.738394 0.60206074 2.2106674 0.9107661 0.32362512 1.3520334
0.9191344 0.4244494 0.46816263 1.0756464 1.5272993 1.5863532 1.3333793 0.98668796
0.9493593 0.17953429 0.5992453 0.4001183 1.2449726 2.7040217 0.18079215 0.27584106
0.9456466 1.7242494 0.008288633 0.44565576 0.93223864 1.4773148 1.3248073 1.3276448
1.1261017 0.596095 1.051573 0.47527352 0.9039176 0.5484525 0.81173503 0.5780628
0.6141486 0.6746372 1.2188927 0.30144176 1.3073655 0.99211866 0.60315675 0.34541458
0.57953393 0.14684404 1.5883406 0.26070654 0.9944592 0.34894642 1.6884795 1.8023046
0.46763894 0.9713224 1.607328 1.1412464 1.5949023 0.96600664 1.5482035 0.6521658
0.44834825 0.22101681 0.77774906 1.3282553 1.3261356 0.69065595 0.111381896 0.2857467
0.3759399 0.12156013 0.63237476 0.16702634 0.008211163 0.24404876 1.402884 1.2385209
6.031218e-05 0.37253594 0.57362 1.7879149 1.0619725 1.0677893 1.7653778 2.1710439
0.03244515 0.5137914 0.8978739 1.2399546 0.8744584 1.0295014 0.38543168 1.1136785
1.1804401 0.8417277 0.111214645 0.5246935 0.68447816 0.58029413 0.12248103 0.29375455
0.7156597 1.1173385 1.2294581 6e-45 1.4137167 0.20465772 0.9488231 0.69981444
0.9977891 1.0613159 0.41527554 2.1703448 0.5961096 1.844349 0.6241209 0.45072457
6e-45 0.34001064 0.27400243 0.3645345 0.19699399 0.25416794 0.0140175205 0.8752916
1.5605279 0.71150684 0.018532623 0.69692767 1.6028799 1.1358328 0.28818703 0.51475793
0.6112232 2.6097267 0.6713111 0.49953175 0.34003243 0.5248076 1.0596716 0.26516625
0.59344 0.90388983 1.1535411 0.4702902 1.1775466 1.3128626 0.5810552 0.7851485
1.6373355 1.4623666 1.4034705 0.12755717 0.02628995 0.7781179 0.6525991 0.97497034
1.2540436 1.8002999 2.0770426 1.2542423 0.3407628 0.463416 0.06541013 1.169282

bn1.running_var f4 [256]
00000000: 51fc 3d3e 3b9b 1440 ac51 e03f 0000 ec40
00000010: c7cc 8a3f da93 723e 8efd 733f 33b2 e63f
00000020: a5bb e73e 7853 243e bdb2 1f40 4dec c43f
00000030: 4e21 9c3f 266f e73f f696 293f 3626 b73f
00000040: 8788 2c3e 0a0d 233f 17dc c33f 067b 1d3e
00000050: e0cd 883b 40ab 533e 3772 bf3e fbb1 d03c
00000060: 4716 543e 3862 d13e 9ae2 903f 21ce 3840
00000070: dcc0 3a3e f50e 123f d4d6 af3f 54a0 883f
00000080: eb73 093d a90a 273f 19dc d83e ff7f d03f
00000090: 6c52 4c3f 3bdb 893f 59bd a340 1d2e 7940
000000a0: 735d 0340 7e99 373d 4639 0a3f 3f2b 9040
000000b0: 4a49 7940 d21c 983e 6f69 fa3e 3f0a ce3f
000000c0: 435c 7c3e 3c9d 8d40 8caa 7840 0d6c 113f
000000d0: 9042 5c3f efa4 bf3b 2e5e 8340 90d4 3f3d
000000e0: b583 cc3f 7e0e f23f 6160 fa3f f361 473f
000000f0: 07ed 5540 c927 ee3e 66e9 4940 9116 893e
00000100: 187b a93e 0c30 263f 7a5f 4140 606c 073f
00000110: 9407 cf3d 03a4 eb3f b97a ff3f f8f7 ba3f
00000120: a50f ed3d e675 f73f c25f c93f 17de bc3e
00000130: 243a 3e40 a9a3 473e dee3 4340 793e e040
00000140: 56f5 dd3f a172 373e a99e e43f 9f7f 3e3d
00000150: 87d4 ba3f ac6b 493f 9f7b 8940 02d8 d83f
00000160: a2eb 4b40 55d0 433f 6acf 883f 9a18 123f
00000170: aa2b 0240 c7de 943e 69db af3e e0e4 1240
00000180: 0d5a 2140 7727 1b3f eaf6 273f ec83 8c3f
00000190: c81a 4c40 617f 8140 f7cf 3c40 ac68 ee3f
000001a0: c95c a53f afc2 0f3e be36 083f a3d4 b13e
000001b0: 701d 6a3f 46fe 8e40 6b90 043e 0b9a 8b3d
000001c0: 8efd b23f 8399 6840 c30b 373b 4278 aa3e
000001d0: c117 fa3f 5f7d 5840 67c2 6740 fdf8 3c40
000001e0: 2011 0b40 a244 333f e485 e33f 731c 0f3f
000001f0: 0a67 093f ec0b 6f3f 6b20 713f 2967 743f
00000200: 8536 f03e 288e 013f 840e ac3f 338a c63e
00000210: 8b7a 2b40 1c7f 993f d414 ad3e ceea 9b3e
00000220: 014b 1d3f d9c0 2d3e ca08 ff3f 9864 533e
00000230: 8ca2 cd3f 5768 853e 84a6 9340 f1d0 8340
00000240: c8fc ff3e 980b a63f 64fc e23f 84cf 0540
00000250: fdfa 3c40 d3f4 aa3f 95ab 7a40 71cf 193f
00000260: 4cf9 013f c7c0 7d3e 3c50 5d3f 75e7 8c3f
00000270: 8dd8 8340 0224 693f 79a9 233e e8ed f33d
00000280: cb00 b53e fb6e ab3d 72cc 1b3f 80fc ed3d
00000290: 0cc3 4f3b 370e 873e baa2 2840 a60c 0540
000002a0: 685e fa36 8edb 9f3e 8851 083f fa72 ab40
000002b0: ac31 a23f e2a4 e93e 1a38 7b40 9d85 9540
000002c0: a745 073c 0070 543f c995 b93f 0b17 1240
000002d0: 8dfe 303f 3622 a93f 5d2c 7f3e 50fd ec3f
000002e0: 5622 f43f 2821 c63f ab9e c33d 49e8 2b3f
000002f0: 2e84 5c3f d917 1e3f b47f bb3c c753 aa3e
00000300: 3573 233f 33f7 0540 a21b d13f 0400 0000
00000310: ccb8 4840 740e 8c3e ea6d 8b3f a074 853f
00000320: 2a86 e13f 780d 1b40 a98b bf3e 7124 d640
00000330: 6fee 153f ec0c e73f 2033 103f 5659 c13e
00000340: 0400 0000 20a5 6e3e 1455 663e 55d5 c83e
00000350: 212e 383e acae 843e 96c5 f63b 2f80 ae3f
00000360: 9ebd 8540 e810 d03f d4be c03b f18d 703f
00000370: 682c 0c40 9f7c 1040 0719 fd3d a93d b83e
00000380: 02e9 203e bd58 0341 4967 ab3f bf62 073f
00000390: 2b1b d73e 7cc8 ee3e bbda 923f 3b28 853e
000003a0: b4bf f73e 9f3c 923f 053f 2e40 f56c df3e
000003b0: c98d 4f3f 95b3 0a40 ed86 6f3f 76b4 643f
000003c0: f15d a140 235a 0540 fd8a 0740 dd7f 143e
000003d0: 7d8d 703c 2d5d 4b3f 0dfd 3f3f c42d 9c3f
000003e0: 5204 bd3f 3b91 af40 55bb b340 125d b33f
000003f0: d183 5e3e 86f4 d93e bfbc 7a3d 313b 3e40
0.18553282 2.3219745 1.7524924 7.375 1.0843743 0.23689213 0.9530877 1.8023132
0.4526035 0.16047466 2.4952843 1.5384613 1.2197664 1.8080795 0.66245973 1.4308536
0.16848956 0.6369177 1.5301541 0.15378961 0.004174933 0.20670795 0.37391827 0.025475493
0.20711623 0.40895247 1.1319153 2.887581 0.18237633 0.5705407 1.3737435 1.0673928
0.033557814 0.6525064 0.4235542 1.6289061 0.79813266 1.0770029 5.1168637 3.8934395
2.0525787 0.044824116 0.5399364 4.505279 3.8950982 0.29709488 0.48908564 1.6096877
0.2464457 4.4254436 3.8854094 0.568055 0.86039066 0.005848519 4.1052465 0.046833575
1.5977694 1.8910673 1.9560663 0.77883834 3.342592 0.4651473 3.1548705 0.2677503
0.33101726 0.64917064 3.0214524 0.5289974 0.10108867 1.8409427 1.9959327 1.4606924
0.115752496 1.9332855 1.5732348 0.3688819 2.9722986 0.19496025 3.060783 7.007626
1.7340496 0.17914821 1.7860919 0.046508428 1.4596108 0.7867992 4.2963405 1.694092
3.186257 0.76489764 1.0688298 0.5706879 2.033915 0.29076216 0.34347084 2.2952194
2.5211213 0.60607094 0.65611136 1.0977759 3.1891346 4.046799 2.9501932 1.8625693
1.2918941 0.1403911 0.5320853 0.3473254 0.9145117 4.468539 0.12945716 0.06816491
1.3983629 3.6343696 0.0027930595 0.33294874 1.9538499 3.382652 3.6212404 2.952697
2.1729202 0.700266 1.7775235 0.55902785 0.5367285 0.93377566 0.9419009 0.9546991
0.46916595 0.5060754 1.344193 0.38777313 2.6793544 1.1991916 0.33804953 0.3045258
0.6144257 0.16968097 1.9924557 0.20643842 1.606523 0.26056167 4.6140766 4.1192555
0.49997544 1.2972288 1.7733274 2.0907907 2.952819 1.3355964 3.9167225 0.60082155
0.5077102 0.2478057 0.8645055 1.1008135 4.1201844 0.9107057 0.15982617 0.119106114
0.35352167 0.08370777 0.60858834 0.11620426 0.003170195 0.26378033 2.634932 2.078897
7.461571e-06 0.31222194 0.53249407 5.357785 1.2671409 0.45633608 3.9252992 4.67256
0.0082563525 0.829834 1.4498836 2.2826564 0.69138414 1.3213565 0.24919267 1.8514805
1.9072978 1.5478868 0.09551748 0.67151314 0.8613919 0.6175514 0.022888042 0.33267042
0.63847667 2.0932128 1.6336558 6e-45 3.136279 0.27354777 1.0892918 1.0426216
1.7619069 2.422697 0.3741124 6.6919484 0.58566946 1.8050818 0.5632801 0.3776347
6e-45 0.23305178 0.22493392 0.3922526 0.17986347 0.25914514 0.0075308783 1.3632869
4.1793966 1.6255159 0.0058821235 0.93966585 2.1902103 2.2576063 0.12358289 0.35984543
0.15713885 8.209165 1.3390895 0.5288505 0.42012915 0.46637332 1.1473001 0.26007256
0.48388445 1.142475 2.7225964 0.43637815 0.8107572 2.1672108 0.93565255 0.8933786
5.0427175 2.0836265 2.1178582 0.14501901 0.014682171 0.7943905 0.749955 1.2201467
1.4766943 5.4864783 5.6166177 1.4012778 0.21729971 0.4256937 0.06121516 2.9723628
