p3_collab-compet/checkpoint_actor_agent_0.pth (torch_old, 164047 bytes, 10 tensors)

fc1.weight f4 [256, 24]
00000000: d946 29bc d8f4 373e cac4 37bd ca16 b03d
00000010: e1c4 9a3d 2b76 39bd 3ec6 6d3c 46a6 593d
00000020: b759 7c3d 86b0 343e c42c 2c3b f3df c039
00000030: 800b 593c d651 d0bd 1cee 703b 6913 933c
00000040: afea 8d3c 759b 173e 6a0e 87ba ed91 dabb
00000050: e5be 723d 04f5 1ebd bd74 1bbb 253f 4dbd
00000060: c8a5 2dbd 6461 223d dd06 bbbc 48c0 25bc
00000070: 20a5 093d 11a7 5e3d 2578 bfbc b4bd 3ebd
00000080: 38f2 503d 7eef b73c efbe cf3c 0957 643b
00000090: a58f 89bc 5d02 843d 808b 2db9 79d3 f2bc
000000a0: 6bb7 9c3d 9aa7 353c 66f8 813c a0d6 22bd
000000b0: c6b9 803d 2426 fa3d 5f2a c63c d7e0 833d
000000c0: 6421 913d 0e07 89bc d0c4 133d 9075 2fbc
000000d0: 1bbf 1fbd 6610 c6bb 4790 02bd dcc2 b03d
000000e0: ad93 b63d 91ba 33bc 0326 dd3c 0ffd 043d
000000f0: aa97 50bd 2478 66bd d6b8 8e3c a510 e33c
00000100: 7e48 173e 5b24 0b3d b8ab 0bbc 69d6 723c
00000110: 2888 74bd bf19 eebc 0c57 1d3d 48fd 343b
00000120: 4b23 bf3d e684 ca3b 38bc 11bd c916 83bd
00000130: 37b4 343c 1cb8 3a3d 91ae ee3c 537e 7ebd
00000140: bde8 133e 43e3 953c 70a0 4abd bdbb 4cbd
00000150: 4613 bcbd 5d7a 43bc aee8 b03c 3343 7e3a
00000160: ab32 b53a e550 84bd e2b0 aabc 1653 5dbc
00000170: dad7 c1bd a782 943c 7a53 203d 52d4 8b3c
00000180: fd5e cf3b 9986 58bb 28f8 49bc 6814 f93c
00000190: 9094 893d 2912 9b3d 2746 3c3d 47d3 d83d
000001a0: 2305 1e3d 240a cc3d 1d89 f33b 12fa 313d
000001b0: 24f4 e4ba 6503 403c 4f78 ce3c 6ead 0a3e
000001c0: 0700 a1bb 39b0 183e 299b 143d 49c4 63bc
000001d0: 92c2 f2bc 0c09 eebc 1c81 13bc ae35 1e3d
000001e0: b107 af3c dda4 a93c 7d04 00bc 8867 0cbc
000001f0: b5e9 443c 1a44 e3bc d804 083c 92e1 2d3d
00000200: 4a86 373d 90a7 763d 115e babc c12c 4d3b
00000210: bd20 0d3c f40d d3bd 3549 cc3b 1dd1 4bbc
00000220: b4bb a93d b6b0 093e 3357 15bd a4d5 bbbc
00000230: 732a 25bd 6587 aabd 0254 823c 0ad1 db3c
00000240: b3f9 e23c 235a 473d ae5d 2d3c 3b6c 9c3c
00000250: d293 b53d 5c99 25bd 13e8 14bc 163d 313d
00000260: f176 29bd 8bd8 a33d 11ea 0b3d 4651 3bbd
00000270: 5c3c 38ba 4bfb a53b c431 81bd 6c96 b03c
00000280: 2bd2 073d 44b1 c63d 03f1 903a 994e 98bd
00000290: 040a b5bd 6056 87bc bfa1 2abd d43c f13c
000002a0: f23d dcbc b632 493d 541e 93bc 8b70 ff3c
000002b0: 91d9 793c f03a e7bc 6c33 c33c d9e8 be3c
000002c0: 005d c6bd ce7c 643d 53c7 97bc 122a 323d
000002d0: c286 533d fa7a f93c 00f5 c2bb 9ecb 1b3d
000002e0: d78c e4bd 3223 0ebd 3e3c 893c 6d9c b83d
000002f0: e2ca e63d 0d42 68bd 2800 4bbd 3314 8cba
00000300: 07d1 0b3e 209b 263d 0ecf 063d 5562 403b
00000310: 14b5 f2bc 3b45 bcbc 05de 19bd bb92 20bd
00000320: 788b 9f3c fb35 073d 52d3 94bb 5e85 99ba
00000330: 9280 bc3c ea49 d7bc 4dd8 b4bb 3898 b23a
00000340: 8fb2 863d 90cc 1f3d aa4b 20bd 50c9 f13c
00000350: d013 d1bb 807b 15bd d4d6 d93c f44d 9ebc
00000360: f79e ef3c 1bc6 073e ebae f53b a3c0 5abd
00000370: d5f9 873d c5a5 2e3d 7c98 ddbc 4ebd 6b3d
00000380: 4c34 f5bc 36db 013e 87dd 9bbc e3d1 e13b
00000390: 692a aa3d 6447 98bd 59df 243d 47af 453d
000003a0: 5139 443c 71dd 9e3c 09cc 12bd beef 973c
000003b0: 57b0 793d cab9 33bd 3e5e 98bc 3a69 73bd
000003c0: 05f0 63bc c720 45bd 2a38 34bb b699 9bbc
000003d0: b3bb 233d f0ad 0fbd 6b20 70bc 87ef 0cbd
000003e0: 8f58 1f3d 6575 b1bc 5eb1 f73c 37c2 803d
000003f0: cde8 4c3d fbee c4bc 51a1 0abc 6d1e a03c
-0.010331833 0.17964494 -0.044865407 0.08598097 0.07557083 -0.04527871 0.014512597 0.053137086
0.061608996 0.17645463 0.00262718 0.0003678795 0.013247371 -0.10171859 0.0036763018 0.017953591
0.01732382 0.14805396 -0.0010303978 -0.0066702277 0.059264082 -0.038807884 -0.0023720704 -0.050109047
-0.04239443 0.03964366 -0.022830421 -0.010116644 0.03360474 0.054358546 -0.023372719 -0.046567634
0.051012248 0.022453066 0.025359599 0.0034841916 -0.016792128 0.06445763 -0.00016550533 -0.029641854
0.07652172 0.011087323 0.015865516 -0.039755464 0.062854335 0.12214306 0.024190126 0.06439369
0.07086447 -0.016726997 0.036076367 -0.010709181 -0.03900061 -0.0060444353 -0.031875875 0.086309165
0.08914886 -0.010969774 0.026995664 0.032467898 -0.050925888 -0.05626692 0.017422121 0.027717898
0.14773747 0.03397022 -0.008524828 0.014821627 -0.05970016 -0.029065011 0.038413092 0.0027616788
0.093329035 0.0061803935 -0.03557989 -0.0640083 0.011029295 0.045585737 0.029135974 -0.06213219
0.14444251 0.018296843 -0.04946941 -0.04998373 -0.091833636 -0.011931029 0.021595325 0.00096993445
0.0013824304 -0.06460742 -0.020836297 -0.013508579 -0.094649985 0.018128706 0.03914211 0.017069016
0.006328462 -0.003303921 -0.0123272315 0.030405238 0.06717789 0.07571823 0.04596534 0.10587173
0.038579118 0.09962872 0.0074321167 0.043451376 -0.0017467779 0.011719559 0.025203852 0.1354272
-0.0049133333 0.14910974 0.036280785 -0.0139017785 -0.029633794 -0.029057048 -0.00900295 0.03862541
0.021365972 0.020708496 -0.00781357 -0.008569606 0.012018611 -0.027742434 0.008301936 0.04245145
0.044805802 0.060218394 -0.022749932 0.0031307193 0.008613762 -0.10305396 0.006234313 -0.012439993
0.08287755 0.13446316 -0.036460113 -0.02292902 -0.040323686 -0.08326606 0.015909199 0.026833076
0.027706956 0.048669945 0.010581417 0.019094577 0.08866085 -0.040429458 -0.009088534 0.043271147
-0.041373197 0.08000287 0.03415877 -0.045731805 -0.0007028037 0.005065357 -0.0630832 0.021556102
0.033159416 0.097017795 0.0011058155 -0.07436866 -0.08839801 -0.016520679 -0.04165816 0.02944795
-0.026885007 0.049120627 -0.017958798 0.031181594 0.015249626 -0.028226346 0.02382823 0.02330439
-0.09685707 0.055783086 -0.018527662 0.043497153 0.051642187 0.030454148 -0.0059496164 0.03803598
-0.111596756 -0.034701534 0.016752359 0.09014211 0.112691656 -0.056703616 -0.049560696 -0.0010687172
0.13653956 0.040675282 0.032912306 0.0029355485 -0.02962736 -0.02298223 -0.03756525 -0.039202433
0.019475684 0.033010464 -0.004541793 -0.001171272 0.023010526 -0.026280362 -0.005518949 0.0013625687
0.06577026 0.039013445 -0.03913466 0.029514939 -0.0063805357 -0.036494732 0.026591696 -0.01932428
0.029250605 0.13259165 0.0074976585 -0.05340637 0.066394486 0.04263856 -0.02705025 0.057553582
-0.029932164 0.12681279 -0.01902653 0.0068914755 0.0830887 -0.07435492 0.040252063 0.04826286
0.011976556 0.0193927 -0.035839114 0.018546935 0.060959186 -0.043878354 -0.018599626 -0.059426524
-0.013912206 -0.048126962 -0.0027499297 -0.018994194 0.039973926 -0.03507799 -0.014656167 -0.03440812
0.038902815 -0.021662423 0.030235942 0.062870435 0.050026704 -0.024039736 -0.008461312 0.019545758

fc1.bias f4 [256]
00000000: 67ff b5bd cf1b 4ebd 0c39 ca3d 1807 a33c
00000010: 4654 ebbd a628 9fbe 31ac c73d 90bd 13be
00000020: 1a87 25be 1209 efbd fa1d 68be fc1b 86be
00000030: 00b5 f9bd afd1 9f3d a417 a8be bb60 643d
00000040: 53e2 803b 88b3 a13d eb1b 32be 7b1e 283a
00000050: 68ca 4cbd 7d5a ad3d 7ef9 153d fead e13d
00000060: 7e2b 983d 06c5 663d e777 8dbd 9ad6 c6bd
00000070: e248 2b3e 526c 44bd 8ede 3cbe 8f6f 043d
00000080: 8c30 84bc 16c3 4bbd 3226 8cbe 5a27 d13b
00000090: 61d1 60bd 6116 a9bd daed f3bd 3088 b43c
000000a0: 9f8e 59be e8b3 7abd b13e 8b3d 03f8 00be
000000b0: dcde 3bbe 5d08 40bc 373a 3c3e 5068 49be
000000c0: ee69 f6bc b746 2dbe 08b3 16be 08ac 20be
000000d0: 78c4 cfbd 87e6 fabd debf c03d 0768 adbc
000000e0: 5305 743d 435d 1bbe 407d 8abe d524 c4bd
000000f0: b788 243e 675c f13d d2f8 8d3d e785 8939
00000100: 3234 04be a68c 93bd cc77 713d 7265 5dbe
00000110: cfb7 49be 30bf af3c bd88 e23d ddc8 e1bd
00000120: 417e c23d d442 383e dff3 7ebc 9ace 21be
00000130: 79ed 07be e36e 383e c8dd f83c eb55 99be
00000140: db23 64be 86d3 65be ec3e 73bc b63f 34bd
00000150: 1a92 99bd ee06 07bd 0375 a0bd 64ac b5bd
00000160: 676c 1c3e 8a82 28b9 6d99 15be 6cf0 58be
00000170: badc 773a 36c8 53ba 3d96 3cbe 4c26 6dbd
00000180: 7219 44bd 5ff0 02be d4f1 24bd 692e ec3c
00000190: 6e2d 91bd 4ffd 773e 17ff b8bc 2160 3cbe
000001a0: 2753 273c e87f 9cbd ca7f 9fbb a94e 55be
000001b0: 1368 37be 55e4 d83d 02f2 503e 5871 93be
000001c0: 334d 65be 0ff9 42be ef71 72bc eee0 0c3e
000001d0: be0c 533e 98ad e83c a418 85be 8440 e4bd
000001e0: 1aee 7cbd ebd6 a93d 4f7c 79bd 1157 2f3e
000001f0: f740 b4bd 6153 2bbe 433d c9bd b441 693d
00000200: d172 0abe d5dd 0f3d 685e 1bbe 0985 02bb
00000210: 4248 31be 82f3 43be 4727 5fbe b928 f6bd
00000220: 1ffa ffbd 6cc4 8abe dfc6 813d e2c7 89bd
00000230: 814b 053d a50b d23d 57f8 82be 6088 59be
00000240: a88c b13d 1575 8bbd abf5 993c 3d86 89bd
00000250: 5dab 51be 7ee5 ddbd 8226 3bbe 1172 0dbe
00000260: df8c adbb 4421 8bbd e6ba 40bd e1c2 e93c
00000270: bfcd 51be ba4f 393a b4cd 84be dcfe ad3a
00000280: a87f 54be 0e9a 04be eb88 c93d 2077 6dbe
00000290: 0870 a7be 8a92 af3b b5de 053e 8b8f ff3c
000002a0: 35e9 98be 7f10 3f3d bad4 c4bd 46aa 39be
000002b0: 816c a23c cfba 2cbe 1290 aebd 1ff0 6ebe
000002c0: e51d 22be 65a3 43be 1cdd 7e3e a3f5 f4bd
000002d0: 5202 d93d 41b9 8fbb 9d66 81be d36e b13d
000002e0: cbe8 063b 4afe dcbd 279d 5a3d 3c1a 733d
000002f0: 9505 69be 368e 4cbe 81a0 b13d 0105 afbd
00000300: ff45 d7bd 9dc8 72bd f319 773d 6535 b2bd
00000310: 5a6b 79be a9b3 84bd 677f ed3c c752 28bd
00000320: 19f0 00be cf02 eabc c1b2 f6bd c1a4 cf3d
00000330: 9d93 453e 1fc0 393d 6b82 ebbd 7912 0e3a
00000340: 9739 99be 1b09 17be 2f55 c93d d3db f33d
00000350: d593 1b3d dee6 50be 7450 40be 8d5c 983d
00000360: b1bb 043e 0900 50be cc6e 733d 5ae7 b03d
00000370: f1e7 30bc c1c6 093c 064a 963d c30e 8e3d
00000380: e18f ebb9 ecfe af3d ec9d 3d3d f63c 12bd
00000390: 5bb1 093d 79a3 1a3e 714d 1f3e 6551 62bd
000003a0: 592a 6dbe 6648 383b b0ed dfbd f244 cebd
000003b0: 0c08 58bd 57e9 483d 8d26 fcbc ff79 41be
000003c0: 13c6 ffbd 91e2 bb3d fc01 fcbd 1284 4bbe
000003d0: cc78 da3d 589e 1abb 7fc3 77be 3d88 a73d
000003e0: 4dc6 02be 660b 553e 5cc9 20be 6065 1bbe
000003f0: 404e 5ebd 02fd 873d a8cc fb3b 1865 20be
-0.08886605 -0.05031949 0.09874162 0.019900844 -0.11490683 -0.310857 0.0974964 -0.14427781
-0.16164818 -0.11671652 -0.22667685 -0.26193225 -0.12192726 0.07803666 -0.32830536 0.055756312
0.00393323 0.07895571 -0.17393462 0.00064132334 -0.049997717 0.08464525 0.036614887 0.110195145
0.074301705 0.05634024 -0.06907635 -0.09708901 0.16727021 -0.047954865 -0.18444273 0.032332953
-0.01613643 -0.049746595 -0.2737289 0.006382865 -0.05488718 -0.082562216 -0.11910601 0.022037596
-0.21245812 -0.06120673 0.06799067 -0.12594609 -0.18346733 -0.011720744 0.18381582 -0.19668698
-0.030079808 -0.16921507 -0.14716733 -0.15690625 -0.10144895 -0.12251001 0.09411596 -0.021167768
0.05957539 -0.15172295 -0.27048683 -0.09577338 0.16067778 0.117852025 0.06932224 0.0002623044
-0.12910536 -0.07204561 0.058952138 -0.2162073 -0.19699024 0.02145347 0.11061237 -0.1102464
0.09496737 0.17994243 -0.015561073 -0.15801468 -0.13274182 0.1801105 0.030379191 -0.29948363
-0.22279303 -0.22443971 -0.014846545 -0.044006072 -0.0749857 -0.032965593 -0.07834818 -0.088707715
0.15275727 -0.00016070358 -0.14609309 -0.21185464 0.0009455193 -0.0008078845 -0.18416686 -0.05789785
-0.04787583 -0.12787007 -0.040269688 0.028830724 -0.07088743 0.24217723 -0.022582574 -0.18396045
0.010212696 -0.07641584 -0.0048675286 -0.20830788 -0.17910795 0.10590426 0.20404819 -0.28797412
-0.2239273 -0.19040321 -0.014797672 0.13757679 0.2061033 0.028403088 -0.25995362 -0.11145118
-0.06175051 0.082929455 -0.060909566 0.17123057 -0.088014536 -0.16731025 -0.09826138 0.056947425
-0.13520361 0.035123665 -0.15172732 -0.001991572 -0.1731272 -0.1913586 -0.21792327 -0.12019486
-0.12498879 -0.27102983 0.0633676 -0.06727578 0.03254271 0.10256127 -0.25580093 -0.21243429
0.08669406 -0.06809441 0.018793901 -0.06715057 -0.20475526 -0.10834788 -0.18276408 -0.13813044
-0.005296334 -0.06793454 -0.04705324 0.028535308 -0.20488642 0.000706907 -0.2593819 0.0013274807
-0.20751822 -0.12949392 0.09840568 -0.23189974 -0.3270266 0.005358045 0.13073237 0.031196376
-0.29865423 0.04664659 -0.09610887 -0.1813136 0.01982713 -0.16868137 -0.08523573 -0.23333786
-0.15831716 -0.19105299 0.24889034 -0.11960914 0.10596146 -0.0043860977 -0.252736 0.08663716
0.0020585533 -0.10790689 0.05337253 0.05935119 -0.22756036 -0.19976124 0.08673192 -0.08545876
-0.105113976 -0.05927335 0.06032748 -0.087015904 -0.24357358 -0.0647958 0.028991414 -0.041094568
-0.1259159 -0.028565792 -0.12045813 0.10138846 0.19294591 0.045349237 -0.11499485 0.0005419623
-0.2992675 -0.14749567 0.098307006 0.119071625 0.03798278 -0.20400569 -0.1878069 0.07439528
0.12962224 -0.20312513 0.059431836 0.08637877 -0.010797487 0.008409203 0.073383376 0.06936409
-0.0004492989 0.08593544 0.046293184 -0.035702668 0.033616405 0.15101422 0.15556885 -0.055253405
-0.23160686 0.0028119325 -0.10934007 -0.10071744 -0.05274205 0.049050655 -0.030780101 -0.18894194
-0.124889515 0.091740735 -0.12305066 -0.198746 0.106675714 -0.0023592915 -0.2419567 0.08180282
-0.12770958 0.2080513 -0.15701813 -0.1517539 -0.054273844 0.06640054 0.007684309 -0.15663564

fc2.weight f4 [128, 256]
00000000: b73b c33b 41e4 853e ab1c 89bb b85c 113d
00000010: d76d 71bd b0db 913d 2c41 46be f56b 4d3d
00000020: 39de 3b3d ab28 babc aae8 d8bd 5424 d93b
00000030: 5e4f ccbd 2444 1a3d b98a a53d 6457 fa3a
00000040: b728 923e 2043 333e c3d3 fdbd 33cd fd3d
00000050: 1e87 5a3d b9fa cbbd 21ff 75be 4d51 9dbd
00000060: 44d9 ce3c 6f32 953d b171 f7bd 200f 093d
00000070: a26d 3d3d 76ef c73c f5eb b3bd 94d2 043e
00000080: e961 60bd ccb0 3c3e 449a 993d 2b39 343d
00000090: b708 b53c a422 28bd 5177 55be 086d e8bd
000000a0: bae4 213c a9c4 233e 8dea 74bd b050 9dbd
000000b0: 0ccf 5c3d b094 aa3c 358e 9cbd c235 25be
000000c0: 2e9d 6ebd 8f4a 69bd 7c05 b63d 200c dd3c
000000d0: 5222 403e fad4 a7bd 3a99 f4ba a8c5 db3d
000000e0: 5476 1cbd 524b 87bd a4fb d4bd 0ab5 fdbc
000000f0: db83 043d 64ca b0bd 494d 2e3d 8503 7e3d
00000100: f097 6b3d 9ad3 f1bd c0b6 b53c a045 e7bd
00000110: 759b d4bd 9489 56be 5e1a fb3d eff6 13be
00000120: dcca ba3d d35d 85bd 15e4 aabd a38b 9cbb
00000130: d419 29bd 2ae7 0abe 02aa e73d 7339 80bd
00000140: 9385 3d3e 53ed c03d cab0 01bd e84e d53a
00000150: 4e95 5abe 81dc 9abd a5cf cbb8 3674 38bc
00000160: 357a 71bd 1f3d a3bd 7f9f 82be 98a7 013e
00000170: f36a 893d 8a7e 49bc 9aa0 7c3c 71e0 8f3d
00000180: 55e8 7fbd 0c44 b73c ba2a 9b3c 3672 033d
00000190: 0f71 32be c2c6 f6bd 6b3b 1cbd 608b 85bd
000001a0: a170 1abe f297 8cbd dbbc 25be c83a 50bd
000001b0: da13 823d 97bc 2bbd 8270 1fbd 82a6 793d
000001c0: 2878 303e d7cc 8b3d 934b 0fbe 4426 82bc
000001d0: 9fdb 9abd aec0 7dbd 636e 24bc 1ad9 023d
000001e0: fbe8 ac3c d120 02be 3a11 733d f0d7 babd
000001f0: 07f6 953c 1f2f 96bd f265 b3bc 2af7 a43b
00000200: a45f 05bd 7197 d7bd 193a 16be cc5f 44bd
00000210: a3eb 20be 18ed 42bd 6f6b ad3c 952b 06bd
00000220: 8879 d4bd 6bb1 10be 02df 93ba af61 72bd
00000230: b459 b13c 6886 c43c 6600 bc3d 8037 60bd
00000240: ccf0 c3bd cc19 f3bd 7dda db3d 52ce 6b3e
00000250: f9fd 7ebd 3d8d f43d 613b 10be 4a74 96bd
00000260: f680 483d 9cad 9a3d 634b 9bbd 6432 b53d
00000270: 3000 bc3d 34b2 b0bc 866f 28be 23fa ffbd
00000280: 7e4a 1c39 e0c3 893d 2976 74bc bbb7 babd
00000290: eee0 4d3d 693b f63c e728 cf3c 232d a93c
000002a0: 38f1 833d 4825 88bd 1b27 56be 2d8c 6cbe
000002b0: c8ca 36be 692a fabc 3fba edbb 676b 8e3d
000002c0: 0679 613d 116c b93d d4dc d63d d893 9c3d
000002d0: 3157 8bbd fe2f 5e3d 2ff5 15be dcb9 1cbd
000002e0: ea2e f13c 519f d6bd f69d 17be 43ce 0ebe
000002f0: 874a 2e3d 7115 06be 0a24 87bd 3075 58be
00000300: 86cf 143e 4b62 2cbe 6bb3 b8bd 4733 3bbe
00000310: f0ae 52bd 7d3e a73c d5e4 9bbd 1d68 303d
00000320: a00c c43d ab78 58bc 0c83 00bc 49e5 79be
00000330: 303d cf3d 5b06 3b3d 9741 d43c 8a3a 013d
00000340: 7394 5cbc 9bee a0bd 94a1 24bd 6b4d 553d
00000350: 06ca 7b3d 30d7 5c3e fa51 6e3d cfa5 333c
00000360: ad61 f13c 827a d23d 89a1 393c 53e8 aa3b
00000370: 7594 e33d f2e2 823c 7bf9 843c 19b8 6bbd
00000380: 48fe febd d2f4 443d 6927 fd3c 0ef7 e13d
00000390: 7988 70bc 2977 773d 18fc 49bd f3dc 88bb
000003a0: 390c b2bd 1c2e adbd d169 083e 664a 923d
000003b0: 3878 55bd bdf0 1ebe 156a 20be c309 8f3b
000003c0: 328b 93bd 1bf8 45bd ea14 b8bd 21f9 4c3e
000003d0: 665b ffbc 9f92 373d f80b cd3d 31c4 b23d
000003e0: c1d0 fd3d 7d85 0ebc 1d14 2ebe fe57 1dbe
000003f0: 200d 193c 38f4 0b3c ffb7 07bd 4fd0 6b3c
0.0059580463 0.26150706 -0.0041843257 0.035488814 -0.058942642 0.0712198 -0.19360799 0.050151784
0.045866225 -0.02272447 -0.10591252 0.006626645 -0.099760756 0.03766264 0.080831 0.0019099531
0.28546688 0.17506075 -0.12393906 0.12392654 0.053351514 -0.09959931 -0.24023105 -0.076815225
0.025250085 0.0728501 -0.12082232 0.03346169 0.046247132 0.024406176 -0.087852396 0.12970954
-0.054780874 0.18426818 0.07500127 0.043999832 0.022098882 -0.04104866 -0.20846297 -0.11348921
0.009881193 0.15992989 -0.059793998 -0.076814055 0.053908393 0.020822853 -0.07644311 -0.16133788
-0.058255367 -0.05695587 0.08887765 0.02698332 0.18763092 -0.08194919 -0.0018661388 0.10731059
-0.038198784 -0.06606163 -0.10399559 -0.030970115 0.03235231 -0.08632353 0.042554174 0.062015075
0.057517946 -0.11807938 0.022181869 -0.11292577 -0.103812136 -0.2095092 0.122608885 -0.14449666
0.091207236 -0.06512036 -0.083442844 -0.004777388 -0.041284397 -0.13564745 0.11311723 -0.062609576
0.18507986 0.09420266 -0.03166274 0.0016274126 -0.21346018 -0.07561589 -9.718471e-05 -0.011258176
-0.058954436 -0.07970642 -0.2551231 0.12661588 0.06709852 -0.012298236 0.01541915 0.07025231
-0.06247743 0.022371314 0.018941272 0.032091342 -0.17425941 -0.12049629 -0.038142603 -0.06520724
-0.15082027 -0.06864919 -0.16185324 -0.05083731 0.06351443 -0.0419279 -0.038925655 0.06094981
0.17233336 0.068261795 -0.13993673 -0.015887387 -0.07561421 -0.06195133 -0.010036084 0.031945325
0.021107187 -0.12707831 0.0593426 -0.09123218 0.018305792 -0.073332064 -0.021899197 0.005034347
-0.032561913 -0.10526932 -0.146706 -0.04794292 -0.15714888 -0.04758939 0.021169392 -0.032756407
-0.10374743 -0.1413018 -0.0011281671 -0.05917519 0.02164922 0.023989871 0.091797635 -0.05474043
-0.09567413 -0.11870155 0.10735033 0.23027924 -0.062253926 0.119410016 -0.14085151 -0.07346399
0.04895111 0.075526446 -0.07582738 0.08847502 0.09179723 -0.021569349 -0.16448793 -0.12498882
0.0001490507 0.06726813 -0.01492075 -0.09117075 0.050263338 0.030057626 0.025288058 0.020651406
0.06442493 -0.06647736 -0.20913355 -0.23100348 -0.17850792 -0.0305378 -0.0072548683 0.06954079
0.055047058 0.09053815 0.10491338 0.076453865 -0.0680374 0.054244988 -0.14644311 -0.038263187
0.029441316 -0.10479606 -0.14806351 -0.1394587 0.042551544 -0.13094117 -0.06598671 -0.21138453
0.14532289 -0.16834371 -0.09018596 -0.1828128 -0.051436365 0.020415539 -0.076120056 0.04306804
0.095727205 -0.013212363 -0.007843744 -0.24403872 0.101190925 0.045660358 0.025910182 0.031549968
-0.013463127 -0.078580104 -0.040193155 0.052075785 0.06147196 0.21566463 0.058183648 0.010964825
0.02946552 0.10277273 0.011330017 0.0052156835 0.111123 0.015977357 0.016232243 -0.057548616
-0.12450844 0.04808504 0.030902581 0.1103345 -0.014680975 0.060416374 -0.04931268 -0.00417673
-0.086937375 -0.0845606 0.13321616 0.071430966 -0.052116603 -0.15521522 -0.15665467 0.0043651774
-0.07204284 -0.048332315 -0.08988364 0.2001691 -0.031171512 0.044817563 0.100120485 0.08728827
0.12393332 -0.008698818 -0.1699986 -0.15365598 0.009341508 0.008542113 -0.033134457 0.014392926

fc2.bias f4 [128]
00000000: 4414 0dbd 0d75 0f3e 61fb 2c3c fb45 3c3c
00000010: 49c9 513d 1828 9fbd efea f03d 7cea 963c
00000020: c33d 813d 4d98 ce3c 937b e53c fb1e 70bc
00000030: ec73 963d 8bcc 4b3d 3302 52bc 2fec 423d
00000040: 9634 963c a382 4d3c d28c 0b3e eb1a be3d
00000050: d1ba 073e c8c6 0ebd dad9 923d 3753 5b3d
00000060: d075 afbc 6010 9fbb 65c1 863d 8ba5 d73d
00000070: 6ee8 903d dd83 373d 4a92 3cbc 7800 fa3b
00000080: 362c ac3d 3a92 7a3d cc3b 4d3c 9bea b5bb
00000090: 0ee0 963d 2d4c e93d 84c3 8d3d 1d9b 59bc
000000a0: 2413 a03d a213 133d e254 d33c b9bd 623b
000000b0: 4d00 0a3e a969 553d 2df6 133e 0d5c 533d
000000c0: 6935 073e 6757 123d bc21 d0bb 2899 5f3d
000000d0: 22d3 ae3b f447 45bd 7525 0fbc 6721 0f3e
000000e0: ebee e7bc 46c3 c73d 60dd 153d 9da2 1f3e
000000f0: faf7 d43c 2b44 293d 8387 3ebb 1b75 c2bc
00000100: ad7d 813d fe5c d03d d7d7 163d e5d3 a93d
00000110: 2a14 383d 7e2a f5bc d45a bf3d c079 b1bc
00000120: 8bb7 923d 260d 4c3d 591b bc3d 1ffe b53d
00000130: fc0b 143d a29b 743c 1fad f23d 7a7c 633d
00000140: ecb9 c53d 488e ea3d dce7 783d 3f67 24bc
00000150: 8484 02bc 8dcc 893d d7b7 023e d803 8abc
00000160: 7558 87bd 01b3 bfbc 6524 503d b1a7 993d
00000170: c1df 903d ff7a bf3d affc d23c fe50 923d
00000180: ed36 f63c c58b 713d 4f92 0b3d 1d2d 243e
00000190: 8c8b 8b3d 7b9c ce3d 466c 143d 6005 e93d
000001a0: 08c7 ae3c ff03 13bd 5bdc 933d 3ea4 4f3d
000001b0: 25fd 263d ad35 d03d 8f26 023d a66d e9bc
000001c0: 9e06 a9bc f051 9cbc 7896 963a a33f c93c
000001d0: 545c 9dbc 4b39 cd3c 5be1 e03a 2b1e 713a
000001e0: 9376 983d fe30 4f3c 4c06 e83c 8970 c73d
000001f0: 84f3 82bd c787 92bd 8a5c 5a3d cb21 333d
-0.034443155 0.14009495 0.01055798 0.011491294 0.05121735 -0.07771319 0.1176356 0.018422358
0.06310608 0.025219107 0.028013026 -0.014655824 0.07346329 0.049755614 -0.012817907 0.047588523
0.018335622 0.012543353 0.13627937 0.09282478 0.13254859 -0.03485754 0.07170458 0.053546157
-0.021418482 -0.004854247 0.06579856 0.10529622 0.070755824 0.04480349 -0.011509487 0.0076294504
0.0840687 0.06117461 0.012526464 -0.005551649 0.07366954 0.113914825 0.06922057 -0.013281611
0.07816151 0.035907395 0.025797311 0.0034597947 0.13476677 0.05210272 0.14449377 0.05160146
0.13203968 0.035727885 -0.0063516777 0.05458942 0.0053352276 -0.048164323 -0.008736958 0.13977586
-0.028312167 0.09754042 0.036588073 0.15589376 0.02599715 0.041324776 -0.002907247 -0.02373748
0.06322799 0.10173987 0.036826935 0.08292369 0.044941105 -0.029927488 0.09343496 -0.0216645
0.07163914 0.049817227 0.09184904 0.088863604 0.03614424 0.014929684 0.118494265 0.055538632
0.096546024 0.11452919 0.060767993 -0.010034381 -0.0079661645 0.06728468 0.12765442 -0.016847536
-0.06608669 -0.023400785 0.05081596 0.07502688 0.07073928 0.093496315 0.025755255 0.07144354
0.030055488 0.058971185 0.034075078 0.16032834 0.06813726 0.1008844 0.03623607 0.11377978
0.02133514 -0.035892483 0.07219764 0.050693743 0.04076876 0.10166488 0.031775054 -0.028494667
-0.020633038 -0.01908204 0.0011488935 0.024566477 -0.019209065 0.025051733 0.0017157005 0.0009197916
0.07444491 0.012645958 0.028323315 0.09738261 -0.06394103 -0.07154804 0.05331091 0.0437334

fc3.weight f4 [2, 128]
00000000: da5c 363e 9636 b6bc af56 1d3e 0fff e8bd
00000010: 744a 433e ac26 58bd 71ed 753c 41cc f1bd
00000020: e934 c7bd c6f0 2cbe 6597 feb8 672e 9fbd
00000030: d9fd 783a 1e9c 86bd a765 04be 2a78 493e
00000040: 3574 6d3e ae85 69bd 91e2 12bd 035b 40bc
00000050: ff20 51be 0666 02bd e834 dbbd a3d9 76bd
00000060: 64a6 ce3d 12a7 f6bc d614 233e 0705 103e
00000070: 777c 25be b7cd c43c e42b 88bd 282a b03d
00000080: dadb 36bd 5633 10be df74 e13c b9a6 603e
00000090: 67cf 413d 50b4 d6bd c14c 4e3e 2b8f 23be
000000a0: 54f2 303b 1a79 ddbd 87a3 403e 4de6 2c3e
000000b0: 36b7 0dbe f5c0 a8bd 19dc f7bb be0d 83bd
000000c0: 6d80 ce3c f52d a1bd 0936 02bc bb4b 2e3e
000000d0: d723 6abe 5fe6 39be bfb7 a4be 6abd 263d
000000e0: b299 91bd 95a3 c3bc 87fc c3bd 3805 59bd
000000f0: b950 083e 1988 90bd 1278 b93d 4b11 79bd
00000100: c1be 08bd 07ce 1bbe bcab eabd 19ba 21bc
00000110: 839b 16be ef92 b2bd 141f 713e 00b0 1f3e
00000120: 881d 17be 90b6 373e c929 86bd 002c e0bd
00000130: 6bb4 24bd 6ce5 313e f04c 50bc 32ee b4bd
00000140: 4f4d 403a 59d8 ccbd 3424 2b3d 676f 60be
00000150: 38df dabd db9c 613d aad3 12be f285 96bd
00000160: f467 1f3e 9c43 0dbe a7b7 2bbd 4031 81bd
00000170: 082d 3dbe 9c96 86bc 2809 26be a48a a3bd
00000180: 27ba 613e e7c0 70bd b60b 463e b81c 5c3e
00000190: 4fbe 42bd ebea a73c ad20 873d e294 a4bd
000001a0: 8ad6 f8bd 9efb 123c 4c1d 483e a2f7 683e
000001b0: 1f33 6b3e 1159 373e 621a 1f3e b3bb 2c3e
000001c0: 8f4a 083e 6cc6 fa3c 2b68 9ebb 2152 3cbd
000001d0: 9c4b ca3d 89f4 38bd 4c09 c1bd b959 9cbd
000001e0: a993 d43d bf0e dabc bd6e 17be 6902 443e
000001f0: c12b 163e c056 4f3e 78d2 4e3e 5e24 16be
00000200: 5d8d 1bbe 5d69 953e 14aa cebd 5079 433e
00000210: 5542 14be fda0 47be 1d90 bb3e e788 d23d
00000220: bc02 3dbe 450d 8b3b 3543 3ebe cc3b 53be
00000230: d62e 53be df0c 25be a6b3 253e bcbd db3b
00000240: 505e b7bd f2ed b73d ac2b 703e a044 62be
00000250: 7833 303e b979 f5bd b807 ee3d cc89 8d3e
00000260: 294b 453d 47e4 49be 6f21 9ebd 56bf 013d
00000270: 5a32 0f3e 92c9 56be ad25 55be 1742 03bc
00000280: d224 713e 0486 1dbe 56cb 573e 6c38 e8bd
00000290: 971c 15be ced7 7d3e 7f69 1dbe df7f f73d
000002a0: 05e4 b43e 9eb8 613d a633 5fbd 05ec e3bd
000002b0: aa9c 223e 3d06 f03d 2375 26be 1581 12be
000002c0: 1fa9 64be 3088 6d3e 0dd0 59be 314d f7bd
000002d0: 87fe bd3d 72a0 2c3d bce1 4d3d 7bb5 713e
000002e0: fe25 b4bd 556a 833e baf8 5d3e b7fb 933e
000002f0: fb0f 8a3d c346 923e 8def 203d a4c6 2bbe
00000300: c534 a23e 6233 3f3e a754 e73d 12d8 40be
00000310: 1d6d 653e 48f1 d33d 8f31 6dbd ba00 1dbe
00000320: ac60 133e 5f32 d2bd f121 a93e 1daf 403e
00000330: 2763 45be cccf e3bc 5954 5e3e 285b 10be
00000340: a4f3 48be bf48 1b3e 992c 42be 9583 163d
00000350: 5065 afbc 86cc 47be 3b11 2e3e 662f 60be
00000360: ae99 11be b3b2 31bd d626 9b3e 5654 3fbe
00000370: 92a5 013e 1bee 903e 7e2f ac3c 9a9c 7c3e
00000380: ea9b 98bc 2877 08be 6740 28bd d15b bd3d
00000390: 52ef 10be 8bef 46be 44ef 463d 7f93 7f3e
000003a0: a565 ed3d 20f1 9bbe aa04 61bc 6065 e2bd
000003b0: 9e8c 643b c122 453d aaa3 02bd 2b52 dbbd
000003c0: be63 4dbe 8148 6dbe 687a 83be e7cc 383e
000003d0: b0ea dd3d a046 81be 13cb d13d 6cff 0b3e
000003e0: a812 54be 0cd3 883e 4282 063e 8b66 4ebd
000003f0: 9e32 d9bd 1117 24be a730 04bd 52a3 323d
0.17808858 -0.022242825 0.15365098 -0.113767736 0.1907137 -0.052771255 0.015010224 -0.118065365
-0.09726889 -0.16888723 -0.00012139863 -0.077725224 0.00094982755 -0.06572746 -0.12929402 0.19674745
0.2318886 -0.057012253 -0.0358606 -0.011740449 -0.20422743 -0.03183558 -0.107034504 -0.06026615
0.1009033 -0.030108962 0.15925917 0.14064418 -0.16160761 0.024023874 -0.066489965 0.08601791
-0.04464326 -0.14082083 0.027521549 0.219386 0.047316935 -0.10483611 0.20146467 -0.15972583
0.0026999908 -0.10814114 0.1881238 0.16884728 -0.1383942 -0.08239929 -0.0075640795 -0.063991055
0.025207723 -0.07870094 -0.007947453 0.17021076 -0.22865234 -0.18154286 -0.32171437 0.040707983
-0.07109393 -0.023881713 -0.0956965 -0.052983493 0.13312043 -0.070572086 0.09056105 -0.060807507
-0.033385042 -0.15215312 -0.11458537 -0.009871029 -0.1470776 -0.087194316 0.23547012 0.15594482
-0.14757359 0.17940736 -0.06550939 -0.10945892 -0.040211122 0.17372674 -0.012713656 -0.08834495
0.00073357386 -0.100022025 0.041782573 -0.21917497 -0.10687107 0.05508123 -0.14338556 -0.07349767
0.15566999 -0.13795322 -0.04192319 -0.06308222 -0.1847421 -0.016429238 -0.1621443 -0.07985428
0.22043668 -0.058777716 0.19340405 0.2149533 -0.047544774 0.02049776 0.06598029 -0.0803621
-0.12150295 0.008971123 0.19542426 0.22750714 0.2296872 0.1790507 0.15537408 0.16868477
0.13309692 0.030612193 -0.004834195 -0.04597676 0.098777026 -0.045155082 -0.09425601 -0.07634301
0.103797264 -0.02661836 -0.14788337 0.19141544 0.14665128 0.20247936 0.20197475 -0.1466231
-0.15190645 0.29181948 -0.100910336 0.19089246 -0.14478429 -0.19495006 0.36633387 0.10280018
-0.18458074 0.004243525 -0.18580325 -0.2062828 -0.20623335 -0.16118191 0.16181812 0.0067059677
-0.089535356 0.08980931 0.2345416 -0.22096491 0.17207134 -0.119861074 0.11622566 0.27644193
0.04816738 -0.19715987 -0.07721221 0.031676613 0.13984051 -0.2097533 -0.20815153 -0.0080113625
0.23549202 -0.15383154 0.2107366 -0.113388866 -0.14561687 0.24789354 -0.15372275 0.12084936
0.35330215 0.055107705 -0.054492615 -0.111290015 0.15880075 0.1171994 -0.16255622 -0.14307053
-0.2233014 0.23196483 -0.21270771 -0.1207527 0.09277063 0.0421452 0.050264105 0.23604386
-0.08796309 0.25667062 0.21676913 0.2890298 0.06741329 0.28569612 0.039290953 -0.16774994
0.31680885 0.18671945 0.11295443 -0.18832424 0.22404905 0.10348755 -0.05790859 -0.15332308
0.14392346 -0.10263514 0.33033708 0.188168 -0.19276105 -0.027809046 0.21711864 -0.14097273
-0.19624192 0.15164469 -0.18962325 0.03674658 -0.021410614 -0.19511613 0.1699876 -0.21893081
-0.1421878 -0.04338331 0.30303067 -0.18684515 0.12660816 0.2830666 0.02101874 0.24669114
-0.018629033 -0.13326705 -0.041077044 0.09246028 -0.14153793 -0.19427316 0.048568025 0.24958609
0.11591653 -0.304574 -0.013734022 -0.11054492 0.0034873853 0.048128847 -0.031894363 -0.10709032
-0.2005758 -0.2317219 -0.25679326 0.18046914 0.10835779 -0.25249195 0.102438115 0.13671654
-0.20710242 0.26723516 0.13135627 -0.05039076 -0.106053576 -0.16024424 -0.03227296 0.043612786

fc3.bias f4 [2]
00000000: 8118 66bd dba3 953b
-0.056175712 0.0045666522

bn1.weight f4 [256]
00000000: ba42 0e3f e949 d93e f93f 203e 5090 fd3e
00000010: 4d92 723f c904 e23e ad46 e23e 2804 053f
00000020: 94ef aa3e dff9 7c3f 1866 8b3f 03c5 403f
00000030: 6f41 043f 61cc 0f3f 743f 3a3f 471c 563f
00000040: 87f5 643f 770a ae3e 7b39 1d3f fa92 863e
00000050: 8c7f dc3e 213e 753f 459f 393f 490e 343f
00000060: 8646 c33e 7aa2 623f d58c d03e 22b4 913f
00000070: 08ad bd3e a461 c03e f936 533f 7c06 983e
00000080: 96a3 393e 71d7 963f 6557 723f 4b94 883f
00000090: c98e b83e 0c41 b43e 007c 323f d529 8c3f
000000a0: 18d6 ff3e bc4f ae3e 4587 ec3e 5ec2 803f
000000b0: 1ad2 7a3e 07b4 5a3f e379 8a3e 378c 533f
000000c0: ce13 673f f740 893f 9750 7f3f 2a5b 3b3f
000000d0: e39d f43e dce0 313e 5dde 2c3f b72c 073f
000000e0: 6145 873f 2607 543e 64eb 933e 48b7 403f
000000f0: 9ede 0d3f e063 1f3f 2eab 633f c6be 093f
00000100: 119e 7a3f 9bfb 883f 41e9 813e 64cf 993e
00000110: e8a6 d23e 0ebc 713f 1217 9d3e cf03 b93e
00000120: b615 253f e55f 513f 966a 803f 595e 913f
00000130: 287f 823f 2ae8 df3e 90ee ad3e 0a1d 8c3f
00000140: b4cb 373f a767 5e3f 584b aa3e 17c4 bf3e
00000150: a22c 133f ddab 653f a052 743f 49dd 523f
00000160: 8dd0 143f 353a 413f 1d13 f83e 26d8 033f
00000170: d3e6 273f 88df 233f 8e08 443f 1159 793f
00000180: 4176 783f 1a95 843f ff7e 913f 47a5 8c3e
00000190: f900 813f 4e7e 663f f8dd 213f 94d0 023f
000001a0: ca33 643f 546d dd3e 4cb8 073f 03f1 833f
000001b0: 15d4 8e3f 3329 723f a3ae 7e3f 3e74 be3e
000001c0: 68f4 963e 146d 8b3f af0c 873f f4ce 613f
000001d0: b0df 553f 5f11 5a3f 4144 903f f267 8e3f
000001e0: d190 173f b265 933e 9960 2f3f 556c 593f
000001f0: a168 243f 255e ca3e e728 0d3f 9174 b53e
00000200: 49a0 c83e 18eb 513f 3516 753f e683 543f
00000210: 5e0a bb3e 8056 e73e 5b80 043f fdc1 9e3e
00000220: 2e51 133f 6ea1 883f 1806 103f 209d fd3e
00000230: 8fb9 0a3f 378c c33e 7317 0f3f 1d1d 423e
00000240: 5dff 8c3f d057 063f c5d6 793f 3582 a23e
00000250: 7e60 003f 3002 073f fb15 d63e 77dc 333f
00000260: da30 f23e aa96 4d3f d73e cb3e e8fd c03e
00000270: 265c fe3e 87f0 663f 7bc3 e93e 0715 243f
00000280: eadc 0c3f 1fc6 8d3f 41e8 983e 3b29 b83e
00000290: 8bda 313f 37d9 613f e158 813f 2d0d 013f
000002a0: b52a d03e 40eb 383f 1de9 453f ab4c 193f
000002b0: 3935 90be c10e a13e 9216 6c3f ba00 cf3e
000002c0: 47a2 823f 481e c13e 9e04 473e f330 7a3f
000002d0: b99a 333f 62fb 7b3f e9f7 a53e 1bba c53e
000002e0: 84d9 233f 18bf 493f a73f 773f 1e87 503f
000002f0: 7367 d63e 2058 803f 6cac eb3e 0d95 813f
00000300: 9bc7 8f3e f1ea 0c3f 2ad9 5b3f 9a5a 933e
00000310: e55a 353f e5a6 1b3f 301c 683f ff01 683f
00000320: 56d5 3a3f 13bd 003f 4349 5e3f cb6a 7d3f
00000330: 991f 863f fe23 073f 6f72 763f 3864 d93e
00000340: 7a82 173f 2877 4c3f d99e 433f bae7 183f
00000350: 32ae 813f 50a3 223f 7b02 273f 00d9 fe3e
00000360: 8144 6d3f 7e03 673f 8b6d 553f 44bf 433f
00000370: 54e9 2a3f ddc5 eb3e 9ee7 6e3f ff0b 953e
00000380: 8ffc 333f 5131 153f 7ba2 553f a9bb b73e
00000390: 9c89 1a3f eb7d 103f 3481 9dbe 2c14 743f
000003a0: 0e5e 3c3f 6567 043f 5b14 5c3f dce8 3d3f
000003b0: ae12 173f f322 8a3f f9a2 a73e ce87 e13e
000003c0: 437f 2a3f de0f 1c3f 1132 963f 484b 513f
000003d0: 36ab 413f 543b 863f 4f10 8b3f c9d7 8d3f
000003e0: 3fbe ac3e 4f79 473f 5016 173f 8852 013f
000003f0: 3659 833e 1dcc 8e3f 51bf 6d3f f7f7 e83e
0.55570567 0.424392 0.15649404 0.49524164 0.9475449 0.44144276 0.44194546 0.51959467
0.3338591 0.98818773 1.0890532 0.75300616 0.51662344 0.5617123 0.7275307 0.836369
0.89437145 0.3399236 0.61415833 0.2628401 0.4306606 0.95797926 0.7250865 0.703343
0.38139743 0.8852917 0.40732446 1.1383097 0.37046075 0.37574494 0.82505757 0.29692447
0.1812881 1.1784497 0.94664603 1.0670255 0.36046436 0.35205877 0.6972046 1.0950266
0.49968028 0.34045208 0.46196952 1.0059316 0.2449421 0.8543095 0.27046117 0.82635826
0.90264595 1.0722951 0.99732345 0.7318598 0.47776708 0.17370933 0.675268 0.52802604
1.0568048 0.20705852 0.28890526 0.75279665 0.5541781 0.6226177 0.88933074 0.5380672
0.9789744 1.0701784 0.2537327 0.3004104 0.41142964 0.94427574 0.30681664 0.36135718
0.64486253 0.8178695 1.0032527 1.1356918 1.0195055 0.43731815 0.3397107 1.0946362
0.717952 0.8687691 0.33260608 0.37454292 0.5748998 0.8971537 0.95438576 0.82368904
0.58130723 0.7547944 0.48452082 0.5150169 0.65586585 0.64012957 0.76575553 0.9740153
0.9705544 1.0358002 1.1366881 0.27469847 1.0078422 0.90036476 0.6322932 0.51099515
0.89141524 0.43247473 0.5301559 1.0307926 1.1158472 0.94594115 0.99485224 0.3719806
0.29483342 1.0892663 1.0550746 0.8820641 0.83544445 0.85182756 1.127083 1.1125472
0.5920535 0.28788525 0.6850677 0.84930927 0.6422215 0.39524952 0.5514054 0.35440496
0.39184788 0.8199935 0.9573701 0.8301376 0.36531347 0.45183182 0.51758355 0.31007376
0.57545745 1.0674264 0.562593 0.4953394 0.5418939 0.38192913 0.55895156 0.18956418
1.1015431 0.5247774 0.9759334 0.31739965 0.50147235 0.5273771 0.41813645 0.7025828
0.47302896 0.8030802 0.3969638 0.37693715 0.4967968 0.90210766 0.45656952 0.64094585
0.5502459 1.1076087 0.29864696 0.35968956 0.69474095 0.8822207 1.0105249 0.5041073
0.40657583 0.72233963 0.7730883 0.5988261 -0.28165606 0.3145657 0.9222194 0.40430242
1.0205773 0.37718415 0.19435355 0.9773094 0.70157963 0.98430455 0.32415703 0.3861855
0.6400378 0.7880721 0.965815 0.8145617 0.418758 1.0026894 0.46029985 1.0123612
0.28081974 0.5504599 0.8587824 0.2878006 0.7084182 0.60801536 0.9066801 0.90628046
0.72981775 0.50288504 0.8683054 0.9899108 1.0478393 0.52789295 0.9626836 0.42459273
0.59183466 0.7986932 0.7641426 0.59728587 1.0131285 0.63530445 0.6523816 0.49774933
0.92682654 0.90239704 0.83370274 0.76463723 0.6676228 0.46049395 0.9332217 0.29110715
0.7030725 0.58278376 0.8345105 0.3588536 0.60366225 0.56442136 -0.30762637 0.9534328
0.73581016 0.5172027 0.8596856 0.7418344 0.5901288 1.0791916 0.32741526 0.44048923
0.66600436 0.6096171 1.1734029 0.81755495 0.7565187 1.0486856 1.0864352 1.1081477
0.33738896 0.7791948 0.5901842 0.5051656 0.25654 1.115604 0.9287005 0.45501682

bn1.bias f4 [256]
00000000: 3a2d be3d 998a 87bd f2d3 2fbc e97f adbd
00000010: 4f79 3dbd ba6f 0cbe 93b6 643d 1f6e 9dbd
00000020: 4b71 13bd 908a f7bd 35a7 36bd 1d35 85bd
00000030: d80e 8e3a 4d79 5fbd 4522 0abe 2233 123b
00000040: 1134 49bd 0d48 de3d 9ae6 b93c 1e25 08bd
00000050: e7f0 b0bd 97e7 103d a33d c9bd ca73 1fbc
00000060: 1062 703d 4334 813a 28e5 7b3b 7dcd 4cbd
00000070: a927 903b 361b 53bd de7f b93d 80f4 943d
00000080: d366 65bd d8e9 6dbd ed0d 3cbc 2d57 f2bc
00000090: 20d7 a0bd 29cb 2c3d 2087 36bd db56 8ebd
000000a0: 4756 90bd 1241 df3d 21fa c5bc e432 1abc
000000b0: e987 b1bc e67f bbbd d690 ae3c a073 5c3c
000000c0: 7431 0a3d 8f27 71bc f2af 60bd e5cf 47be
000000d0: be83 48bd c866 033e 7eac d4bc 06a7 27bd
000000e0: 56f0 72bc d115 803c 6f03 d4bc 2369 14bd
000000f0: 3111 8dbd 9049 0abd 1536 95bd d466 0dbe
00000100: ef11 113d 83d0 d3bd 80a8 0b3d 52bd 62bc
00000110: 2b5a 493c 5dcf 49bd 541b 8c3d 2fa6 ad3d
00000120: ab9c 87bd 5615 6f3c 9a9d 3c3d 1208 8fbd
00000130: 5e80 c23c 20e1 e9bc e05b 86bd 6acf 3fbe
00000140: dfa3 5c3d 6161 2cbd fe0f a3bc 15c8 afbd
00000150: 3894 b2bc 600d 133d 156a 1cbd 110b ca3c
00000160: 0307 f0bd 4a19 ae3d f3c6 aebc 091d 8cbd
00000170: d804 e2bd c566 98bd 11b6 68bd 93de 48bd
00000180: 4cca 69bd 51cc 02bd 9768 203d 49f5 0dbd
00000190: eeaf 913c e4d2 b2bc b6be d8bd 3866 66bd
000001a0: 17e8 8dbc f06c 68bd cc6e 4a3c 90c3 97bc
000001b0: c22c bcbd 163d e8ba f262 843d 968a 4dbb
000001c0: 60ca 1bbb 5e67 9fbd 25ad 93bc 9ecc e7bb
000001d0: 8cd3 863d 489e 1dbd 6239 a5bd 9ff2 eebc
000001e0: c961 86bc 962c c3bd 7997 8bbd 9410 2f3d
000001f0: 83b4 8fbd 98b8 3ebd 8c0c 97bd 247a 84bd
00000200: 5cd9 903d 7b9d 2ebc 5831 e5bc 18c7 6bbc
00000210: a9cf 84bb 15ea 37bd 0838 bf3c 4216 0cbe
00000220: e2f5 083d 4c70 0abc 5c68 88bd 552f 62bd
00000230: 0bf3 3b3d 1d2d 08bd 3676 723d 58ec 373e
00000240: 9022 ef3c fd63 12be 772c 70bd 571a 1c3e
00000250: 1483 c13d 9ca6 2a3d 4378 b0bd 6de5 71bd
00000260: 6a70 2bbd 918a 57bd 27fb a73d 7b8a 2c3d
00000270: 6582 01be 8427 01be cac6 d1bc 3bcc ac3d
00000280: b2fa b83c 34a2 a1bc 4201 413d 8943 02be
00000290: b76b 29bd a50c b53d 32c3 383c 9a14 743c
000002a0: 26ea 77bd 498c 35bd 1dbb c8bc 28a4 143c
000002b0: 9a16 163e b16b d03d 1e7f 53bd 5c66 153d
000002c0: aecc 15bd d0ea 353d e826 5d3d 2a51 d8bb
000002d0: cb1d 35bd 04b6 ddbd 4341 8d3c ca8e aa3c
000002e0: 7cad 93bd 281e 5f3d 623e 3e3c 0c08 a3bd
000002f0: 7ea2 87bd 197e 0b3d 9588 15be a6b5 a3bb
00000300: a367 13bd 9612 78bb e217 cabc 1047 043d
00000310: 0942 8a3c bea0 ab3d 33ac 673d 042e e53c
00000320: 226c 82bd d54e 83bc c981 99bc 9da1 6abd
00000330: b4f0 99bd f7f2 c4bd 6df4 9ebb d305 763d
00000340: 3af9 cebd 374a 9bbd 328f 403c 3c7e 4dbc
00000350: 8618 763c 4f92 bdbd b4f8 c7bd 96f2 ecbd
00000360: 5395 13bd ccbe 8dbd 2a1d 6cbd 8f26 4ebd
00000370: 2f4c 9ebd b564 a4bd eb83 6abc 1bd2 9fbd
00000380: 22a2 9dbc ccf2 9dbd e47e 443c b468 7ebd
00000390: 34c8 05bc f04d 1ebd dfb6 04be 417e 9dbd
000003a0: 1366 f33c 74c2 55bd 63e2 dcbc a10e 81bc
000003b0: 9595 5b3d 57dc 78bc 3693 8dbd 0992 bc3c
000003c0: 8399 73bc 7d9e ffbd 8187 633d d9c1 843d
000003d0: 5191 a5bd 48a0 06bd 76b2 543c 19eb 98bd
000003e0: 8418 5cbd 450e e73b 632b 1f3c c7e9 93bd
000003f0: 690e 28bd 0867 bebd 2a09 cf3b 0ae9 a6bd
0.0928597 -0.06618232 -0.010731684 -0.084716626 -0.046258267 -0.13714495 0.05583818 -0.076870196
-0.035996716 -0.120869756 -0.044593055 -0.06504271 0.0010838164 -0.05455904 -0.13489635 0.002230831
-0.04912192 0.10853586 0.022692967 -0.033238523 -0.086396985 0.03537711 -0.098262094 -0.009732196
0.05868727 0.0009857494 0.0038436148 -0.050000656 0.004399259 -0.051539622 0.09057592 0.07273197
-0.056006264 -0.05808434 -0.01147793 -0.029582584 -0.07853532 0.042185936 -0.04456246 -0.0695016
-0.07047706 0.10901083 -0.024167122 -0.009411547 -0.021671252 -0.09155254 0.021309298 0.0134553015
0.03373857 -0.014718904 -0.054855295 -0.19512899 -0.048953764 0.12832177 -0.025961157 -0.04093077
-0.014827808 0.015635403 -0.025880544 -0.03623308 -0.068880446 -0.03376156 -0.07285706 -0.13808757
0.035417493 -0.10342505 0.03409624 -0.013839083 0.012289564 -0.049270023 0.0684115 0.08478963
-0.06621679 0.014592489 0.046048738 -0.06983961 0.02374285 -0.02854973 -0.065604925 -0.18731466
0.053867217 -0.042085055 -0.019905087 -0.085830845 -0.021799192 0.035901427 -0.038187105 0.02466348
-0.117200874 0.08500917 -0.0213351 -0.068414755 -0.1103608 -0.07441477 -0.056814257 -0.04904039
-0.05707769 -0.031933133 0.039162245 -0.03465775 0.017784085 -0.021829076 -0.1058325 -0.056249827
-0.017322583 -0.056744516 0.012355518 -0.018525869 -0.091882244 -0.00177184 0.06464185 -0.0031363121
-0.0023771748 -0.077833876 -0.018026898 -0.007073953 0.06583318 -0.038481027 -0.080675855 -0.029168425
-0.01640405 -0.095299885 -0.068160005 0.04274042 -0.07016852 -0.04656276 -0.0737544 -0.06468609
0.07072708 -0.010657663 -0.02797763 -0.014390729 -0.0040530753 -0.044900972 0.023342147 -0.13680366
0.033437617 -0.008449625 -0.0666053 -0.05522092 0.04588608 -0.03324615 0.059194766 0.17961252
0.029191285 -0.14295955 -0.058636155 0.15244423 0.09448829 0.041662797 -0.08616688 -0.059056688
-0.041855253 -0.05262238 0.082022004 0.042124253 -0.12647398 -0.1261273 -0.025607485 0.08437391
0.022580478 -0.019730665 0.04712034 -0.12721075 -0.04136249 0.088403024 0.011277007 0.01489749
-0.060526036 -0.04432324 -0.024503285 0.009072341 0.1465706 0.101767905 -0.0516349 0.03647457
-0.03657215 0.044413388 0.053992182 -0.0066014724 -0.044217866 -0.10825732 0.017243033 0.02082004
-0.07210824 0.05447212 0.011611553 -0.07960519 -0.0662279 0.034055803 -0.14602883 -0.0049960194
-0.035987508 -0.0037852875 -0.024669591 0.032294333 0.016877191 0.083802685 0.056560706 0.027976044
-0.06368281 -0.016028801 -0.018738644 -0.057283033 -0.075166136 -0.09616654 -0.004850915 0.06006415
-0.1010613 -0.07582515 0.01175289 -0.012542304 0.015020495 -0.09256422 -0.09764233 -0.11569707
-0.03603108 -0.06921157 -0.057645 -0.05032974 -0.077293746 -0.08027021 -0.014313678 -0.07803746
-0.01924235 -0.077123255 0.011993144 -0.06211157 -0.008165408 -0.038648546 -0.12960385 -0.07690097
0.029711759 -0.052187398 -0.026963418 -0.015754046 0.05360945 -0.015189252 -0.06912844 0.023018854
-0.014868143 -0.12481401 0.05554915 0.06482286 -0.080843575 -0.0328677 0.0129820015 -0.07466716
-0.053734317 0.0070512616 0.009714934 -0.07222324 -0.041029368 -0.092969954 0.006318231 -0.081499174

bn1.running_mean f4 [256]
00000000: bc32 f93d 293e 4e3f 2ffc 8a3e 3989 263e
00000010: 5b45 683f b9ea 7a38 5862 073e 3322 7b3f
00000020: 0400 0000 9115 aa3e 3e47 523e fd92 793d
00000030: d697 0a3f f2e8 823f 4bcc a239 4fbc 873d
00000040: a833 ed3c 4953 b33c fdf9 553f 3231 033f
00000050: 2462 463f 9a4d 933f 64ae 5a3c 4f16 f43d
00000060: a488 c13f abb0 fc3e 17eb d93f 3678 b43e
00000070: aa84 003f 66f4 1a40 fd8c b23e 0264 f83d
00000080: fdf7 093f a390 7d3e 52ca a83f f764 b73d
00000090: bdec f03d 3685 823d e184 433e 7380 2d3f
000000a0: 6ca8 103f ea44 2f3f f308 243f 6a0c 293e
000000b0: b87c 8d3f 9eb2 453f 500b 9b3f cbae 6e3f
000000c0: 0bda 623e 2468 f63e a0b9 983f df0e 3b3e
000000d0: 5b53 9a3f 9443 223e 5366 433f 66c7 043f
000000e0: e282 443f 58cc 4d3e 21f9 6e3f 2d0e a03d
000000f0: f9be 263f dc9e 353f aeb8 f23f f420 7b3a
00000100: ac82 133f e6e8 8f3f 7875 633e 9d8a 373c
00000110: b41b 953e 5abb 813f ea2d d53f f32e 3e3e
00000120: 27ca df3f 169b e33f 0d97 2540 f59c 203f
00000130: d39b d33e aea7 b33e fbdf 243e 4544 703e
00000140: f9fe 113e fa7a 503f 608a 1d3f 960b 1e3f
00000150: 385f c73e 5afc 993f 4abf 943e d5cc 953e
00000160: 297a 323e 9f0c 893e 2d18 733f 64dc d13f
00000170: 7d2a b23e 49be f53e 5664 863d 3a31 903f
00000180: 374c ac3f aa33 cd3f 6fc6 dd3f 1561 f53e
00000190: ebd2 213f 52ec f03f e946 2f3f d456 f43d
000001a0: 2cd7 c03e 4a1b 853e 586a 2b3f aa8d 0d3f
000001b0: ec30 803d b60c e13e 2274 b33f f911 c73e
000001c0: d42b d53e 9ced 893e 8834 eb3e 44d5 e33f
000001d0: d58c cb3f d458 c13f 2a4f ae3f 7712 6a3d
000001e0: 1338 a93e 8eeb ec3d 0797 b93c bee4 f33e
000001f0: 562c 9f3e 5a6d 3d3d 7502 8a3b 81a6 0a3f
00000200: 6855 ba3f eb73 e03e 3497 8f3e 5b4f 1d3e
00000210: 2d4a 063f 4451 8a3f 5026 dd3c 6b00 4d3d
00000220: d00d 2e3e 6d2e e63d 3c15 833f a0bc 593f
00000230: 3c64 3a3d 639d 663f e730 e93e 7233 b439
00000240: 1c0d 1640 0a25 983c ecf3 b63e 18d4 8e3e
00000250: a3d4 fb3e 76cf 553e d286 443e fe3d 513f
00000260: 1362 a63f 81bc 043f 2c3b e03f a163 8d3e
00000270: b6d6 453f e432 543f 64cd 073e 38bb 493f
00000280: 6a2f c23e ccb3 3b3f f2c3 1540 90a7 033f
00000290: 8901 933d af89 a13f be4d 3b3f d0be c63f
000002a0: e13b 1f3f caea 963f e278 d73f 2d3f 0c3e
000002b0: 0a80 143f 2b1d a43e 02b8 563f ea7d 453f
000002c0: e837 233f 2086 cc3e de8f cd3f 4e12 db3e
000002d0: 623b 893f ae3f c83f 2410 823e 5850 263e
000002e0: abf6 143f 1a30 863e 17e9 493f 7655 1d3f
000002f0: bd4c b53f 5d3d fc3e 1f5f 4f3f 878c 473f
00000300: 0e24 a53e e776 a33f 3597 d03f ff37 233f
00000310: 27ad df3e 39d7 1e3f bf4a 8f3f df39 5c3f
00000320: c0d0 f53c 7420 db3b c187 f43f dd09 233f
00000330: 83dc 753f 899a 5d3c 2a5c 6e3e a7ac d93d
00000340: a521 333f a7e1 8d3f 993a 023f 700f 193f
00000350: adbd 003f 270f 9e3d cbb8 763f c444 093f
00000360: 0d84 803f f4aa 503f 00db 623e 4e3c 7b3f
00000370: fd42 7b3f 95e6 613f bf7e a13f 5328 1d3e
00000380: 90ed d038 9b10 523f 2814 f23f 8583 c23c
00000390: 934e 563e 5186 bf3f ca8b 413d febf 133f
000003a0: 34ea 923e 93ff 263d 9a21 de3f c745 073e
000003b0: 4f0b 1340 ff1e 9c3f ab04 813e d8f5 1d40
000003c0: 4685 bb3e 8b6c 383f 7c45 863e 4366 543f
000003d0: 9776 a33f 2398 2d3f 288d 7a3e 9540 1f3f
000003e0: 3033 503e 225b 453f 412f 273f 386d dd3d
000003f0: 4e09 763f b77f d73c f372 ec3e cc3e 9b3f
0.1216788 0.805636 0.27145526 0.16263284 0.9073083 5.9823247e-05 0.13221109 0.9809906
6e-45 0.3321958 0.20534989 0.060931195 0.54137933 1.0227339 0.00031051258 0.06627714
0.028955296 0.0218903 0.83584577 0.5124694 0.774935 1.1508057 0.013347242 0.119183175
1.5119824 0.49353537 1.7024869 0.35247964 0.5020243 2.421167 0.3487319 0.1212845
0.53894025 0.24762206 1.3186743 0.089548044 0.11763904 0.06373064 0.19093658 0.6777412
0.5650699 0.6846453 0.64076155 0.16508642 1.1053686 0.77225673 1.2112827 0.9323546
0.2215349 0.48126328 1.1931648 0.18267392 1.2056688 0.15846092 0.7632801 0.5186676
0.7676221 0.20097482 0.9334889 0.07815204 0.6513515 0.70945525 1.896261 0.00095798005
0.57621264 1.124295 0.2221278 0.011202482 0.29122698 1.01353 1.6654637 0.18572597
1.7483567 1.7781703 2.5873444 0.627395 0.41329822 0.35088867 0.16101067 0.23463543
0.1425742 0.8143765 0.6153927 0.6173643 0.38939834 1.2030137 0.29052192 0.29257837
0.17429413 0.26767442 0.94958764 1.6395383 0.3479804 0.4799674 0.06562106 1.1265023
1.3460759 1.6031392 1.7326182 0.4792563 0.6321246 1.8822119 0.68467575 0.11930624
0.37664163 0.25997382 0.6695914 0.5529429 0.06259331 0.4395501 1.4019816 0.388809
0.41635 0.26939094 0.45938516 1.7799459 1.5902354 1.5105233 1.3617909 0.057146516
0.33050594 0.11568366 0.022655023 0.47635454 0.31088513 0.046246864 0.0042117187 0.54160315
1.4557314 0.43838438 0.28045046 0.15362303 0.52456933 1.080605 0.026995808 0.050049227
0.16997457 0.11239324 1.0240855 0.85053444 0.045505747 0.90083903 0.45545122 0.00034370605
2.3445501 0.01857235 0.35732973 0.2789619 0.49185666 0.20879921 0.19192055 0.8173522
1.299868 0.51850134 1.7518058 0.27615073 0.7728075 0.8289015 0.13261944 0.788013
0.379268 0.73321223 2.3400846 0.51427555 0.07178027 1.2620143 0.731655 1.5526981
0.6220074 1.1790402 1.6833766 0.13695975 0.5800787 0.32053503 0.83874524 0.77145255
0.6375718 0.3994608 1.605953 0.42787403 1.0721247 1.5644433 0.2540294 0.16241586
0.58188885 0.26208574 0.7887129 0.6145853 1.4164044 0.49265566 0.8100452 0.779488
0.3225407 1.2770661 1.6296145 0.6375732 0.43686792 0.62047154 1.1194686 0.86025804
0.030006766 0.0066872183 1.9103929 0.63686925 0.960396 0.013525614 0.23277345 0.10628634
0.6997321 1.1084489 0.5087066 0.5978918 0.5028942 0.07717734 0.9637572 0.53620553
1.0040299 0.81510854 0.22153854 0.9813889 0.9814909 0.88242465 1.2616805 0.15347414
9.962462e-05 0.8205659 1.8912401 0.023744354 0.20928411 1.4962865 0.047252454 0.5771483
0.28694308 0.04077108 1.7354004 0.13210212 2.2975652 1.2196959 0.25198874 2.46813
0.36625117 0.72040623 0.26224887 0.8296854 1.2770566 0.6781027 0.2446791 0.6220792
0.20332026 0.7709218 0.6530648 0.108118474 0.9610795 0.026306016 0.4618145 1.2128539
