p3_collab-compet/checkpoint_actor_agent_1.pth (torch_old, 164047 bytes, 10 tensors)

fc1.weight f4 [256, 24]
000000 f3 a8 42 bd b9 aa f4 3b 68 53 5e bd b9 b4 1a 3d
       -0.047524404 0.007466641 -0.05427876 0.037770007
000010 22 a8 99 3d 44 ff 83 3c f3 15 a7 3b 7d 70 a1 3b
       0.07502772 0.016112931 0.005099052 0.0049267397
000020 42 6e 0b 3d 3b 85 8c bb 4c e7 18 3c fc 4b 45 3d
       0.034040697 -0.0042883432 0.009332489 0.048168167
000030 0d 88 f7 3c c8 1c 18 bd 9c 17 2a 3c ed a9 86 3d
       0.030216241 -0.037136823 0.0103816055 0.065753795
000040 84 be 8a bd 9f 3a 9f bd 6d 19 ca 3c f5 8f 98 3d
       -0.06774619 -0.07774853 0.024670327 0.074493326
000050 39 81 fc 3d 11 f1 c1 3d ca 1b bf 3c 35 66 fe 3c
       0.12329335 0.09469808 0.02332868 0.031054595
000060 54 cd 48 bd b7 6b 0a bb f8 e9 d5 3c e2 fc 78 bc
       -0.04902394 -0.0021121332 0.026112542 -0.015197011
000070 84 29 5f 3d 9d 89 02 be c1 78 d1 3c 76 8d 53 bd
       0.05448295 -0.12747808 0.025570275 -0.05164858
000080 87 db ee 3c 3b 4b 5c bd ee 02 51 3d 3c 9c ba 3c
       0.029157413 -0.053782683 0.051028185 0.022779576
000090 90 d5 1e bd 01 74 9d bd a7 eb d0 3c 84 84 29 bc
       -0.038777888 -0.076881416 0.025502993 -0.010346536
0000a0 8a 89 21 3d 0e 87 76 bd bf db 83 bb 96 a5 29 3c
       0.039437808 -0.060187392 -0.0040239985 0.01035442
0000b0 ff 79 59 3c de 6e 62 3c a5 eb 8c 3b b6 80 ea 3d
       0.013273715 0.013820378 0.004300552 0.11450331
0000c0 c6 5b 43 bd 78 8b 6f bd 81 35 10 3d 17 a2 20 bd
       -0.047694944 -0.058482617 0.035207275 -0.03921708
0000d0 1f f7 64 3d 3e 6b 37 3d 06 20 06 bd a6 c0 6c 3d
       0.055899736 0.04478001 -0.032745384 0.05780091
0000e0 51 f2 3b bc 95 33 51 bd 98 20 01 bc 80 7e 3c 3d
       -0.011471347 -0.051074583 -0.007881306 0.046019077
0000f0 46 b1 62 3d 1b b6 da 3b b2 fd 8e bc 99 09 29 3d
       0.055344842 0.0066745407 -0.017454956 0.04126892
000100 90 75 58 3d a0 0f bd 3b 68 aa 6a bd b7 2c 6d 3d
       0.05284649 0.005769685 -0.05729142 0.05790397
000110 3f 24 c0 3d 79 2e ce 3d 14 a3 29 bc 2d c7 3b 3d
       0.093819134 0.10067458 -0.010353822 0.045844246
000120 ee 49 4a 3e cd aa af 3d bf b2 fc bc 35 da b1 3c
       0.19754764 0.085774995 -0.030846952 0.021710495
000130 a5 7b 84 3d 93 4f 0e bd 8d ba 0a 3d 72 38 c1 3c
       0.06468896 -0.034743857 0.033869315 0.023586486
000140 c8 3b 24 3e 5b e5 89 3d 61 db 28 bd 60 80 32 bd
       0.1603843 0.06733199 -0.04122484 -0.04357946
000150 6b c5 b5 bc 99 a5 c3 bd 6f 71 f4 3c c7 a6 f1 3b
       -0.022188863 -0.095530696 0.029839246 0.0073746177
000160 b4 ca b2 bc a7 ce 6c 3c 5b 6b 29 bd ac e0 15 3d
       -0.021825172 0.014453567 -0.041362148 0.036591217
000170 11 a8 00 3d 99 d6 a0 bd f2 81 98 3c 7d 8f 89 3d
       0.03141028 -0.07853431 0.01861665 0.06716821
000180 a6 94 00 bc 69 eb cf bd ee 8e 67 bc ea 66 31 bd
       -0.007847941 -0.10152323 -0.014133198 -0.043311037
000190 fd 2d 5b 3d c6 f1 8c 3d e7 e0 34 3d 05 b5 03 3d
       0.053510655 0.06882052 0.044159796 0.032155056
0001a0 e0 e6 9d 3c 8a 15 a4 bc 04 d2 20 bc 2c c6 f6 bc
       0.019275129 -0.020029802 -0.009815697 -0.030123793
0001b0 a5 4b 22 bd b9 22 bb 3c d0 59 02 3c 11 59 7d 3d
       -0.03962292 0.022843705 0.007955983 0.06185252
0001c0 6a b1 2d bd 58 f6 0f 3c fd d2 0c 3d 6f dc 06 3d
       -0.042405523 0.00878676 0.0343809 0.032925066
0001d0 f5 5a 1a be bb 9c 60 3c f4 a1 32 bc b3 01 af 3d
       -0.1507376 0.013709242 -0.01090287 0.08545246
0001e0 43 66 54 bd 67 4a 1d bd 22 d4 14 bd 19 1c e1 bc
       -0.051855337 -0.038401034 -0.036335118 -0.027479218
0001f0 4b b4 cf bc 6b af 95 3c bf a3 a5 bc 27 db c0 3c
       -0.025354525 0.018272122 -0.020219682 0.023542
000200 d5 bf 81 bd 29 93 e0 bc 36 fd 86 bc ac 5b b9 b9
       -0.06335417 -0.027413921 -0.016478162 -0.0003535425
000210 6f 33 45 bd 53 5f 57 bd 95 e6 4c 3c 66 73 82 bc
       -0.048144754 -0.052581143 0.012506147 -0.015924167
000220 fb 33 d1 bc 53 ab d3 3c 7e d1 7c bd ba 80 dd bc
       -0.025537482 0.02583853 -0.061723225 -0.02703892
000230 e1 4e c8 bd 2e 8d 98 bd 08 40 19 bc b7 25 ba 3c
       -0.0978067 -0.07448803 -0.009353645 0.022723062
000240 a0 2a 39 3d be 6b 72 3d 37 9f 28 3c 76 d1 0e bd
       0.045206666 0.059184782 0.010291866 -0.034867726
000250 83 e8 8a 3d 35 26 0d be 75 a6 19 bc 5a 2a 2f bc
       0.06782629 -0.13784106 -0.009378065 -0.01069125
000260 84 b1 3e bd 35 56 6a 3d ca 93 5b 3d bd 80 b2 bc
       -0.04655601 0.05721112 0.05360774 -0.021789903
000270 13 09 30 3d 07 fc f9 bc 58 b9 32 bd 97 5b 3a 3d
       0.042977404 -0.030515684 -0.04363379 0.045497503
000280 b2 8a 34 3d 26 c8 ad 3d 6e a0 9d 3c c7 a6 03 bd
       0.044077583 0.08485441 0.019241538 -0.032141473
000290 53 ac e5 bc 82 f0 4e bd c8 b1 c0 bc 8b ca 92 3d
       -0.028036272 -0.050522335 -0.023522273 0.07167538
0002a0 80 12 46 bb 38 3c b9 3d fa c6 ae bc fe 80 ad bb
       -0.003022343 0.09044689 -0.021335114 -0.005294918
0002b0 ef b1 9a 3c 28 1c 85 bd cb 8a a7 3c 48 d0 57 bc
       0.018883673 -0.06499511 0.020451924 -0.013172217
0002c0 89 4e 97 bd a3 c5 cd 3d 28 b7 e4 bb 44 19 52 3c
       -0.07388026 0.10047462 -0.0069798417 0.012823407
0002d0 37 4e c0 3b 0a 6f 4f bd 1b 73 b7 3b 67 3e f1 3b
       0.005868699 -0.050643004 0.0055984384 0.0073621753
0002e0 61 e2 92 bd ae 79 1c 3c 27 36 e4 3c b8 2c 74 3d
       -0.071720846 0.009550495 0.027857853 0.05961296
0002f0 3a 11 ad 3c 47 da 31 be bb 83 1d bd dd 6c 01 bd
       0.021126378 -0.17368422 -0.038455706 -0.03159796
000300 1e 82 cc 3b ba 7d f2 3d 0a 27 03 3d df 1f 0b 3b
       0.006241097 0.11840387 0.032019652 0.0021228713
000310 f7 3a 84 bc d6 4f 2a bd c6 85 1d bd eb e6 23 bd
       -0.016141398 -0.041580044 -0.038457654 -0.040015142
000320 4f 79 9d bd f6 33 03 3e 72 e4 5b 3b 5c 22 3e bc
       -0.076891534 0.1281279 0.0033552912 -0.011604872
000330 5e fb 98 3c 7e 2c d3 bd 8e da 1b 3b 8a 9e 14 bc
       0.018674549 -0.103112206 0.0023781392 -0.009071002
000340 d1 6c 68 bd 80 af de 3d e8 90 82 bc e3 3b a5 3b
       -0.0567444 0.10873318 -0.015938237 0.0050425394
000350 12 ab 68 bb 75 dd e0 bd db ee 4b 3d 7d 63 33 bd
       -0.0035502356 -0.109797396 0.049788337 -0.04379605
000360 31 dd 56 bd da 6c f3 3d a2 49 f6 3c 6c 55 a4 bd
       -0.05245704 0.11885996 0.030064408 -0.080241054
000370 1c 1a 8c 3d 0b 8a b5 3d 4f ee 92 bb 71 a8 fb 3c
       0.068409175 0.0886422 -0.004483975 0.030719968
000380 83 0c e2 bd 9a fd 07 3e 91 06 1b bc 91 c3 4a 3d
       -0.11037543 0.13280335 -0.009462015 0.049502913
000390 ab 85 2e 3d bb 8c 31 bd 76 0c 4c 3d 2b 1c ba 3d
       0.042607944 -0.0433471 0.04981657 0.09087404
0003a0 d2 cc 46 bd 87 40 6d 3b c0 ba dd bb 9c db 28 3d
       -0.048535176 0.0036201791 -0.006766647 0.04122506
0003b0 98 c2 07 3c b7 96 74 3d 92 97 2b 3c 85 84 16 bd
       0.008286141 0.059714045 0.010473149 -0.036747474
0003c0 45 e4 38 3d 83 78 52 3d c3 fe 0f 3c 1e 66 1d bd
       0.04513957 0.05138446 0.008788767 -0.038427465
0003d0 f1 6c ea bb df 36 32 bd fd 4e 4c bb bd 88 5c bd
       -0.0071541 -0.04350936 -0.003117501 -0.05384134
0003e0 ea 68 eb 3c b6 58 a3 3c 31 ea d2 3c 3b 20 63 3b
       0.02873655 0.019939762 0.025746437 0.0034656662
0003f0 6c fd e1 3c 36 3f 37 3c 99 30 54 bc fb 42 23 bd
       0.027586661 0.011184504 -0.01295104 -0.0398588

fc1.bias f4 [256]
000000 bc 73 83 3c 53 fc 54 3c 92 0c 61 3e 68 ba a1 3b
       0.016046397 0.012999612 0.21977451 0.0049355514
000010 b6 3e bd bd a8 e0 4d be 9e cf 66 3d ea 99 69 be
       -0.09240477 -0.20105231 0.056350343 -0.2281262
000020 3a 8f 11 be 3f 51 1a 3e ab 34 59 be 79 55 77 be
       -0.14214793 0.15070055 -0.21211497 -0.24153699
000030 06 fb de bd aa ec 90 3d 0c 9e 56 be 11 10 d9 3d
       -0.10887723 0.0707639 -0.20958728 0.105987675
000040 d5 05 4a 3c 73 c1 28 3e 54 b5 05 be b2 63 19 3e
       0.012330492 0.16480045 -0.13057452 0.14979437
000050 e1 b3 81 bd a9 07 07 3d 17 0a 85 3d c4 bf 61 3e
       -0.06333137 0.03296629 0.06496065 0.22045809
000060 a1 5d a0 3c 0d 4b 09 3e 6e a1 c0 bd b7 23 16 be
       0.019575896 0.13407536 -0.0940579 -0.14662062
000070 ba 10 5f 3e 69 56 58 be 9e 70 20 be eb 3f 2f 3d
       0.21783724 -0.21126713 -0.1566796 0.042785566
000080 e9 df 12 be 4e 92 e0 ba 0d ec 7c be 32 5d e4 38
       -0.14343227 -0.0017133446 -0.24699421 0.00010889246
000090 b8 ad b4 bc b0 f9 86 bd 92 8e ed bd 6d be 3d bd
       -0.022055492 -0.06590593 -0.11599459 -0.046324182
0000a0 cd 58 69 be 7f fa 8c bd b7 f9 6f 3d 83 32 0b be
       -0.22787781 -0.06883716 0.058587756 -0.13593487
0000b0 45 d8 5c be ab 0b 0b be ea 3a 30 3e 73 22 92 be
       -0.21566875 -0.1357867 0.17209974 -0.28541908
0000c0 fb a8 de bc f2 0e f8 bd ab 33 8f be 18 a1 b7 bd
       -0.027180186 -0.121122256 -0.27969107 -0.08966273
0000d0 44 25 ef bd a7 4d 37 be 11 91 a7 3c b5 3f 57 3b
       -0.1167703 -0.17900716 0.020454915 0.0032844369
0000e0 3b 38 ae 3c 2f f4 b9 bd 42 e1 83 be 4f 6c b7 bd
       0.021267047 -0.090797774 -0.25757796 -0.08956205
0000f0 01 e2 21 3e 6a eb 27 3c e2 be 01 3e b5 46 e4 3c
       0.1580887 0.010248998 0.12670472 0.027865747
000100 ce 4c 4c be 6d b7 71 be 1e 7c 58 3d a7 2a 6e be
       -0.19951174 -0.23605128 0.052852742 -0.23258458
000110 ee 6a 91 be da 26 1b 3d bb 5f a1 3d 79 94 70 bc
       -0.28401893 0.03787885 0.07879587 -0.014683836
000120 54 17 2a bd 6f 7e 63 3e 47 d9 98 3d 10 cd 45 be
       -0.041526154 0.222162 0.07463317 -0.19316506
000130 bd 30 cc bd 27 4d ca 3d 28 fe 44 3d fa e7 1e be
       -0.099702336 0.09877997 0.048093945 -0.1551818
000140 86 2b 09 be c2 57 59 be a4 04 eb bd e3 22 ea bb
       -0.13395509 -0.21224883 -0.114754945 -0.007145272
000150 6e 6d 3b bd ed f8 70 bd f2 db be bd 88 60 43 bd
       -0.045758657 -0.058831144 -0.09319295 -0.04769948
000160 92 d0 f9 3d 72 51 c5 3c e1 40 47 be 51 e9 85 be
       0.12197985 0.024086688 -0.19458343 -0.2615457
000170 39 12 e5 3b db ed 35 bc 8f 29 1d be 41 dc 37 be
       0.0069906977 -0.011104072 -0.15347885 -0.17955114
000180 66 6b 0e be 04 b3 05 be ba 22 10 be 0b 21 55 bc
       -0.13908157 -0.1305657 -0.14075747 -0.013008366
000190 7e 75 04 bd e2 00 98 3e 83 95 e6 bc 9e 1a 6e be
       -0.03233861 0.29688174 -0.028147465 -0.23252341
0001a0 a9 26 82 bc d6 aa 30 be 89 89 f3 bb f3 e7 e3 bd
       -0.015887575 -0.17252669 -0.007432167 -0.11128225
0001b0 5d d8 64 bd 7d 91 59 3d f1 be 37 3e 91 a0 97 be
       -0.055870403 0.053117264 0.17943932 -0.2961469
0001c0 2c 12 85 be 3f 63 f9 bd 42 31 f6 bd 03 22 3f 3e
       -0.25990427 -0.12177133 -0.12021114 0.18665318
0001d0 48 40 be 3d 38 87 df bc 04 54 7d be 57 5f 85 bd
       0.092896044 -0.027286157 -0.2473908 -0.06512325
0001e0 80 11 00 be 34 7e e6 3d 4b a1 19 3d d4 61 c8 3d
       -0.12506676 0.1125454 0.037507337 0.09784284
0001f0 3f 2c 2b be ed 84 37 be b4 03 0f be 50 29 d2 bc
       -0.16716097 -0.17921801 -0.13966256 -0.025654465
000200 5c 6e ff bd bd 77 80 3b c1 31 1c bd 04 9d 4e bd
       -0.12472221 0.003920524 -0.038133387 -0.05044271
000210 bc c9 4f be ec dc 16 be c0 b3 91 be 53 81 e7 bd
       -0.202918 -0.14732713 -0.2845745 -0.113039635
000220 3e af d1 bd 1a b9 07 be 20 dd 9c 3c 72 4d 1d bd
       -0.10238503 -0.13254204 0.01914841 -0.038403936
000230 32 28 32 3d 4b 86 19 3e da de fe bd 96 ec 3c be
       0.043495364 0.14992635 -0.12444849 -0.18449625
000240 72 f6 a7 bc e7 fd 82 bd e1 6d 13 3e af 11 99 bd
       -0.020503256 -0.06396084 0.14397384 -0.07474076
000250 0c 5d 8f be 0d b9 9b bd 51 51 5a be fb e7 04 bd
       -0.28000677 -0.07603655 -0.21320082 -0.032447796
000260 2e f4 14 3c 59 cb 1c bc eb 7b b6 bd 5c 7f cf 3d
       0.00909142 -0.009569966 -0.08910354 0.10131714
000270 15 21 6d bd 6b 02 ef bc 3d be 8c be c8 6b 08 3c
       -0.057892878 -0.029175958 -0.2748889 0.008326478
000280 1d 90 1d be cd a2 47 be ff 8a a5 3d 0c 69 54 be
       -0.15387006 -0.19495697 0.08083152 -0.20743197
000290 ea 61 9b be f7 86 c4 bd b9 1d ee 3d b1 bd 35 be
       -0.3034814 -0.09596055 0.11626763 -0.17748143
0002a0 7d 43 7b be 4c e1 d3 3d 9e 93 57 be 3b d7 f1 bd
       -0.24537463 0.10345706 -0.21052405 -0.1180863
0002b0 73 de e7 3b 4d 25 66 be e6 10 ec bd 64 68 32 be
       0.0070760786 -0.22475167 -0.115266606 -0.17422634
0002c0 79 eb 15 be 3d 51 37 be 33 23 e7 3d 40 3b 01 be
       -0.14640607 -0.17902084 0.112860106 -0.12620258
0002d0 d1 4d 57 3e 2e c8 97 bd 4c c1 46 be ae 60 c3 3d
       0.21025778 -0.07411228 -0.19409674 0.095399246
0002e0 f7 c6 a8 bd 38 1e aa bc 11 32 a2 3d 36 de e4 3c
       -0.082410745 -0.020766363 0.07919706 0.02793799
0002f0 62 30 3a be 8f 90 49 be ad 6f 13 3e 7a 7b 34 bd
       -0.18182519 -0.19684051 0.1439807 -0.04406307
000300 94 58 95 bd 92 e6 ba bd 9e 8e 54 bd 29 63 35 be
       -0.072922856 -0.09126009 -0.051893823 -0.17713608
000310 2e 69 05 be a5 4e 81 bc c8 a0 d6 3d d4 56 11 be
       -0.13028404 -0.015784571 0.10479885 -0.14193279
000320 db 4a 7b bd df 63 ed bc fe 1a 9b bd 73 8d bb 3d
       -0.061350685 -0.028978286 -0.07573508 0.09157839
000330 1c 58 c8 3d e9 b7 9a bc 3f 88 8d bd 5b ef 62 3c
       0.097824305 -0.018886523 -0.069107525 0.013851012
000340 cc 57 4f be 39 c9 2b be df c4 e0 3d fb ae 57 3d
       -0.20248336 -0.16775979 0.1097505 0.05265711
000350 92 9b df 3d 06 07 a1 bd ba 65 66 be f2 ae 47 3e
       0.109183446 -0.07862668 -0.22499743 0.1950033
000360 63 ef f8 3d 4a e0 7a be bd 0d 81 3c dc 74 36 3d
       0.121550344 -0.24499622 0.015753621 0.04454504
000370 a0 f9 3e bd b3 76 1f bd 9b 16 93 3d d0 2d 97 3d
       -0.04662478 -0.03893156 0.07182046 0.07381785
000380 3f 81 89 ba 30 c5 f8 bd 9c 6b 69 bd 01 ea b3 bd
       -0.0010490789 -0.121469855 -0.05698739 -0.08784867
000390 de ce 8c 3b a3 59 0d 3e fc 16 14 3d 76 b9 06 be
       0.0042971214 0.13803725 0.036154732 -0.13156685
0003a0 7c 78 7d be e3 7f 84 3c 27 f8 25 bd 89 d0 e9 bd
       -0.24752992 0.016174262 -0.04051986 -0.11416728
0003b0 96 af 83 bd ab 35 88 3c 95 11 01 3e 15 1d 64 be
       -0.06429975 0.016627153 0.12604363 -0.22276719
0003c0 ca ee 6c be 46 88 01 3e 36 77 b4 bd d4 97 58 be
       -0.23137966 0.1264964 -0.088118 -0.21151668
0003d0 97 5f c0 3d c0 20 59 bb 95 12 27 be 96 2c fc 3c
       0.09393232 -0.0033131093 -0.16315682 0.030782979
0003e0 9d e6 f5 bd 23 08 74 3c 23 b8 2d be 46 c9 17 be
       -0.120068766 0.014894518 -0.16964774 -0.14822873
0003f0 db ee ea 3c 24 59 3a 3e ff 45 19 bc 2b c5 6d be
       0.028678348 0.18198067 -0.009355067 -0.23219745

fc2.weight f4 [128, 256]
000000 64 93 cc 3d 07 88 8b 3d e8 19 32 3d e9 03 24 3d
       0.0998905 0.068130545 0.043481737 0.04004279
000010 b7 64 38 3d ad 70 0c 3e 10 de 31 be bc 1b fd 3d
       0.045017924 0.13714857 -0.17369866 0.123588055
000020 a7 f5 6b 3d 94 ee b1 3c 30 ca c7 bd f8 09 e5 3d
       0.05760732 0.021720208 -0.09755361 0.11183542
000030 7b 4a c3 3c 78 38 94 3d 52 ad 0c 3c 6b f9 7c bd
       0.023839226 0.07237333 0.008586245 -0.0617613
000040 6f 07 d9 3d 9c 93 39 3d 6b 0f b4 bc d8 04 48 3e
       0.10597121 0.045306787 -0.021980008 0.19533098
000050 f7 88 2d 3e 5f ed 2a be 60 64 65 bd 74 12 56 3a
       0.16946779 -0.16692112 -0.05600393 0.0008166202
000060 26 dd 86 3c 1a bb 67 3b 5f 73 cf bd 8e e2 a2 3d
       0.016462874 0.0035359324 -0.10129427 0.07953368
000070 ce f7 57 3d 51 9a ab 3d 23 21 74 3d ef 07 b4 3d
       0.05272656 0.08379043 0.059601914 0.08790576
000080 9b 7b 01 3d 5a e8 1c 3b 1a d4 d9 bc 08 ab 0d be
       0.03161202 0.0023942203 -0.026590396 -0.13834774
000090 b6 e6 49 be 0a ac c2 bd fc 1a 3b bd ba 4f 12 be
       -0.19716915 -0.0950547 -0.04568003 -0.14288226
0000a0 f8 7a 53 bc f8 ab b2 3d 00 df 0a bd a8 99 0d 3d
       -0.012907736 0.08724207 -0.033904076 0.034570366
0000b0 08 ab 8f 3d 45 33 58 bc 38 16 76 be d2 db 2b bd
       0.070150435 -0.013195817 -0.24031913 -0.041957684
0000c0 ca c4 90 bd 20 cb 04 3d a2 f1 cf 3d 7f 97 24 bd
       -0.070687845 0.032420278 0.1015351 -0.04018354
0000d0 f1 55 5e 3e 62 26 e9 bd d6 42 42 3d b6 be 1a 38
       0.21712472 -0.11384274 0.04742702 3.6894075e-05
0000e0 7e db 6d bd b3 17 34 3c 71 ea 00 be ee 50 5d be
       -0.058070652 0.010991978 -0.12589432 -0.21612903
0000f0 9c 33 97 3d 8c 68 47 be 68 43 04 3e 58 3a 2f bd
       0.073828906 -0.19473475 0.12916338 -0.04278025
000100 06 a7 97 3d 3e 0f e5 bc fc 34 28 be 9c 2c 13 be
       0.07404904 -0.02796137 -0.16426462 -0.14372486
000110 9c 93 da 3d c7 69 b2 bb a4 76 cd bd 69 36 c8 bd
       0.106726855 -0.0054447385 -0.100323945 -0.09776003
000120 4f ae 05 3e cb c2 f2 bc 9a 2d b5 bc 4e a6 19 3e
       0.13054775 -0.0296339 -0.022116471 0.15004846
000130 23 c7 26 3d 99 b1 ad bd 20 40 0c 3e c8 88 21 3e
       0.040717255 -0.0848114 0.13696337 0.15774834
000140 69 6d eb bd 2c f4 ae 3d 04 a5 0e be 46 9e 21 3d
       -0.11495478 0.08542666 -0.13930136 0.039457582
000150 4b 79 4f 3d 1d 8d 20 bd 04 ce 7a 3d ab a3 21 be
       0.050652783 -0.039197076 0.061231628 -0.1578509
000160 10 b8 17 3e 01 75 fe bb c1 f4 1f be 2e d2 c8 3d
       0.14816308 -0.007765413 -0.1562071 0.098057136
000170 59 00 af bc 27 15 51 3d ff 3d ff 3c 1f f8 e0 3d
       -0.02136247 0.051045563 0.031157492 0.10984825
000180 84 9d 34 bd 16 7a a6 3d 2b 1e 5d 3c 5a 00 fe 3d
       -0.04409553 0.08128755 0.013495962 0.12402411
000190 74 bf 0e be 78 f3 a6 bd 91 88 61 bd 6c 91 0c bd
       -0.13940221 -0.08151907 -0.05506188 -0.034318373
0001a0 16 e4 58 be 27 58 e3 bc 6a 66 1c be 6e 54 44 3d
       -0.21180758 -0.027751995 -0.15273443 0.04793208
0001b0 15 4d 0a 3e 78 ac eb 3c 64 49 9b 3c ed ac a4 3d
       0.13505967 0.028768763 0.018955894 0.080407955
0001c0 34 6a b5 3d 49 84 a8 bc 03 5b 88 bd 5a 75 5f 3d
       0.08858147 -0.020570891 -0.06657984 0.054555275
0001d0 22 9a 18 3e 46 6a 18 bd 51 1a 2c bd 8c 70 07 3e
       0.14902547 -0.037210725 -0.042017285 0.13226527
0001e0 f0 05 d3 bc 34 2d 4b bd 47 1a 57 3c 97 72 6b bb
       -0.025759667 -0.049603656 0.013128824 -0.0035926455
0001f0 40 cf 28 be 57 ce 0f 3e 58 46 86 bc 58 bd 95 3b
       -0.1648531 0.14043556 -0.016390964 0.0045696907
000200 ed cb ab 3d 79 bc b2 bd 8f a3 03 be ae 52 4e be
       0.08388505 -0.087273546 -0.12855361 -0.20148727
000210 fa 64 2d bd f6 48 37 3e d6 6c 8f 3c 03 58 2e 3d
       -0.042332627 0.17898926 0.017507952 0.042564403
000220 58 94 57 bd ee c3 d8 bd 29 a1 ba 3d 5b dd 11 3e
       -0.052631706 -0.105842456 0.0911277 0.14244597
000230 50 a3 23 3e 53 4d e6 3d c3 55 13 3e c0 b5 55 3b
       0.15980268 0.11245217 0.14388184 0.0032609552
000240 ec 88 ed 3b 11 d7 96 bd af 31 31 3d 35 d2 de 3d
       0.0072489884 -0.073652394 0.043260273 0.108799376
000250 4f 9a 8c 3c 11 de 92 3c c3 4a 01 be ac 42 94 bc
       0.017163424 0.017928155 -0.12626176 -0.018098198
000260 60 b3 05 3e 89 5d ac 3c 57 be 59 3d da 35 d4 bd
       0.13056707 0.021040695 0.053160038 -0.10361834
000270 ba 18 07 3e de da 3e bc ef 37 ff bd f0 6b c0 bd
       0.13193026 -0.011648862 -0.1246184 -0.093955874
000280 13 5c 1c bd 2f be 05 3e 31 2f 0d bc 5b 6f 73 bb
       -0.038173746 0.1306083 -0.008617208 -0.003714523
000290 0f 2e 26 bd 5a 8b ca 3c 55 31 e3 3d fe b2 ea 3d
       -0.04057127 0.024724651 0.11093394 0.11459921
0002a0 f7 90 48 bc 4e f5 03 bd 07 5d 0d be 9c 23 2f be
       -0.012241594 -0.032216363 -0.13805018 -0.17103428
0002b0 be 05 5a bd cd 08 57 3d a2 06 c5 3d 27 fa b9 3d
       -0.053228132 0.052498627 0.09620406 0.09080916
0002c0 2c 5a 9d 3d fe 2c 5f 3d 2c 4f 89 3d 4c 0f 38 3e
       0.076832145 0.054486267 0.06704554 0.17974585
0002d0 e7 0e e7 bd a6 f8 40 3c 76 49 62 bd d2 b0 50 bd
       -0.11282139 0.011778032 -0.05524584 -0.05094988
0002e0 6f 74 d3 bb fb f3 6e 39 42 b6 be bd aa 1e 82 bc
       -0.006453089 0.00022788339 -0.09312107 -0.015883762
0002f0 19 b2 4d bc df 23 6d 3d 95 07 f5 bc 5c 34 2b bd
       -0.012554669 0.057895537 -0.029910842 -0.04179798
000300 04 cd 89 bd f5 88 71 bb 69 3f b1 bd 15 d0 29 3d
       -0.06728557 -0.0036855314 -0.08654673 0.041458208
000310 ee cb 83 bc 7f b5 7a 3d ad c8 2a be 3e 74 2b bd
       -0.016088452 0.061208244 -0.16678114 -0.041858904
000320 54 ee 0a 3d 6b af 41 bc fc f9 2b 3d 9a 2e f0 bd
       0.033918694 -0.011821608 0.04198645 -0.117276385
000330 b9 99 5b 3d fd 61 20 bb 82 cc a0 bd c7 19 9e 3c
       0.0536134 -0.0024472468 -0.07851507 0.019299401
000340 96 91 ae bd 53 db 62 bd f8 cd ae bc 46 23 2b 3e
       -0.08523862 -0.055384945 -0.021338448 0.16712674
000350 6e b7 d9 bc 3b 24 29 3e 19 ea af 3d 4c 0b f9 3b
       -0.026576724 0.16517727 0.085895725 0.0076002236
000360 dd fe c1 3c e8 f8 b0 bd 8e 6e 5f bd 70 1c ce 3d
       0.023681099 -0.08641225 -0.054548793 0.10064018
000370 aa 66 d0 3d 41 5a 16 3d 81 48 3b 3e 2f c9 95 3d
       0.101758316 0.036707167 0.18289377 0.07313763
000380 4e e2 5a bd 40 cc 88 bd f0 7b 8d 3d 9a 4e a6 bd
       -0.053438477 -0.066795826 0.06908405 -0.08120461
000390 a5 42 2a bd 0b 39 0f 3e ef b1 a2 bd fa 98 4f bd
       -0.041567463 0.13986604 -0.079440944 -0.050683
0003a0 65 ec 42 bd be 47 b5 bd 60 95 df 3d fd 79 90 3b
       -0.047588725 -0.08851574 0.10917163 0.0044090734
0003b0 16 6a de bd 57 52 e6 bd 14 5b 03 bd c8 7d a7 3d
       -0.10860078 -0.11246174 -0.03206928 0.08178288
0003c0 16 62 1e be c7 d2 e7 3c 38 f0 c3 3d 32 92 90 3d
       -0.15467104 0.028298749 0.095673025 0.070591345
0003d0 1e 66 b0 3c df b6 8a 3d 62 f8 51 3d 82 60 2f 3e
       0.021533068 0.06773161 0.051262267 0.17126659
0003e0 ef dd de 3d 7e f6 aa 3d 44 44 8f 3c 03 4c 58 be
       0.10882174 0.08347796 0.017488606 -0.21122746
0003f0 41 6f cc 3d 71 09 fe 3c 4b 71 0d 3d 00 62 c8 bd
       0.099821575 0.031010361 0.034531873 -0.09784317

fc2.bias f4 [128]
000000 ed f8 8b 3c 10 4f 8f 3d 8f 85 9b 3d 83 8d 60 3b
       0.01708647 0.06997502 0.07593834 0.0034264035
000010 cd fa 69 3d 04 d0 47 b9 63 fc 43 3d 70 9e b8 3c
       0.057123948 -0.00019055611 0.047848117 0.022536486
000020 6a c9 82 3d 6e 51 ff 3c 75 fb 81 bc df 1b 0c 3c
       0.06386073 0.031166758 -0.015866974 0.008551567
000030 c6 ba 38 bd 78 5c 42 3d a4 8b 9c bb bb 2e 3d 3d
       -0.045099996 0.047451466 -0.0047773886 0.046187144
000040 e6 bf 98 3a 10 ac cf 3d 49 99 4b 3d e6 50 82 3d
       0.001165387 0.1014024 0.04970673 0.063630864
000050 62 8e 0b 3e 05 cc 72 3d f6 19 2f 3d a8 c3 6d bc
       0.13628533 0.0592766 0.042749368 -0.01451198
000060 3a bc 7d bc c2 da d1 bc d6 5c 92 3d 76 a0 b3 3d
       -0.015486771 -0.025617007 0.07146613 0.0877084
000070 84 d3 4d 3d b5 05 bb 3d 9a 95 2b 3d b7 a1 75 3d
       0.050250545 0.09131948 0.041890718 0.059968676
000080 93 4c 62 3d 8f ce 1d bd 46 c2 60 3d 56 a8 1b 3d
       0.055248808 -0.038527068 0.054872774 0.038002335
000090 a2 11 03 3d 47 92 89 3d 97 c8 4c 3d 2c 99 f1 bc
       0.031999238 0.06717353 0.049995985 -0.029491983
0000a0 91 20 c1 3c b0 8b 5a 3d 10 63 0a 3d 9c 02 99 3d
       0.0235751 0.053355873 0.03378588 0.07471201
0000b0 3f b3 ac 3d 8c 26 49 3d 59 10 5b 3d e2 a9 0b 3d
       0.08432626 0.049109027 0.053482387 0.03409756
0000c0 5e d4 16 3a 87 22 6c 3d 0f 19 86 3d 2f 7b ad 3c
       0.0005753691 0.057650115 0.06547748 0.021176903
0000d0 8f 03 99 3b 55 a1 83 bc 98 76 a7 3c 2f cb 19 3e
       0.0046696137 -0.01606814 0.020442292 0.15018915
0000e0 bb 6b 6d bc 64 00 a0 3d d8 bf a2 bb 95 6d e0 3d
       -0.014491017 0.078125745 -0.004966717 0.10958401
0000f0 47 8e c4 bc 6b 01 7e 3d 6c e4 96 3b b1 53 7a 3a
       -0.023993624 0.06201307 0.0046048667 0.0009549214
000100 fe 3c 53 3c 6e e4 00 3d 13 e2 59 3d 76 0e 9d 3d
       0.01289296 0.031467848 0.053194117 0.07668774
000110 e1 b2 cb 3c c5 53 75 bd 55 a2 5b 3d bb 16 09 3c
       0.02486557 -0.059894342 0.05362161 0.008367236
000120 f2 cc a7 3c 13 73 76 3d 85 ae 82 3d 41 4f 04 3d
       0.020483468 0.060168337 0.06380943 0.032302145
000130 7e 2c 92 3d 44 db 34 3d 3f ba 36 3d 74 18 ec 3d
       0.071373925 0.04415442 0.044611212 0.115281016
000140 02 36 b3 3d df 9b e4 3d 72 9b 2d ba 77 7f 5e bd
       0.087505355 0.111625426 -0.00066225894 -0.05432078
000150 bf 23 70 3c 42 05 8f 3d f7 d7 4e 3d 80 10 34 bc
       0.01465696 0.06983425 0.05049893 -0.010990262
000160 35 45 b4 bd ba b6 4d 3d d5 c1 2b 3d 48 c9 3c 3e
       -0.08802263 0.05022309 0.0419329 0.18436158
000170 73 4b ec 3b ca 90 5b 3d 86 38 c9 3c 0d f1 94 3d
       0.0072111427 0.05360488 0.024563085 0.07272539
000180 2a 57 be 3d d7 22 8d 3d 3a 8d 22 3c 9e 05 a4 3d
       0.09293969 0.06891411 0.009921366 0.08008884
000190 b7 3a f6 3d 81 1a 8a 3d 8f b5 6f 3d c3 23 ca 3d
       0.12022918 0.067433365 0.058522757 0.09870102
0001a0 c0 94 34 3c dc 64 bb bc f2 db 2d 3d 9e 5d 06 3e
       0.011021793 -0.022875242 0.042446084 0.1312165
0001b0 af dc 26 3d cb c2 99 3d 38 60 f1 3d 36 88 23 bd
       0.040737804 0.07507857 0.117859304 -0.039924823
0001c0 48 1a 39 bc b0 01 9e bc 2f eb 69 3c 48 60 2d 3c
       -0.01129777 -0.019287914 0.014277264 0.010582037
0001d0 8d 85 74 bb 21 75 00 3e 5c f8 34 bd 52 a4 ad 3c
       -0.0037311048 0.12544681 -0.044182166 0.021196518
0001e0 b7 65 1f 3d d3 44 81 3c 4a 6f 4a 3c 5f 06 e1 3d
       0.038915362 0.015779888 0.012355635 0.10987543
0001f0 cc e8 06 3c fe 4d 74 bd 51 d5 42 3d 4e b6 3d 3d
       0.008234214 -0.05964469 0.047566716 0.046316437

fc3.weight f4 [2, 128]
000000 5e ba 86 3e 93 f3 9b bd 06 1a a7 3e 2f 84 af bd
       0.26314062 -0.076148175 0.32637042 -0.08570134
000010 9f a6 97 3e 35 3c 41 be d6 30 e2 bd 5d 91 ab bc
       0.2961931 -0.18870623 -0.11044471 -0.020943338
000020 4a 57 af bc d8 33 08 be 44 36 3c be 69 19 64 3c
       -0.021403927 -0.13301027 -0.18380076 0.013922074
000030 1a 8f 0f be 2f 78 40 bd ef 9c ac bd 64 74 5f 3b
       -0.14019433 -0.046989616 -0.0842837 0.0034096474
000040 c1 f5 f7 3d 99 65 7a bc 75 df 82 bd a4 34 8e 3d
       0.12107421 -0.015283012 -0.06390277 0.06943634
000050 42 ad 2b be 05 38 b9 3d 20 3a ed bc f6 24 a8 bd
       -0.16765311 0.09043888 -0.02895838 -0.08210175
000060 f7 76 03 3e 4d c1 a4 bd 2f 10 7f 3d 6f 1f 80 3e
       0.1283835 -0.08044682 0.062271293 0.25023982
000070 ae d3 99 bd 30 f2 c2 3c 20 7b 5f 3c 00 dd 0f 3e
       -0.07511078 0.023797125 0.013640195 0.14049149
000080 1a da 39 3e ff a7 70 bc d0 ab 2a bc 5d 22 09 3e
       0.18149605 -0.014688491 -0.01041694 0.13392015
000090 b0 23 c5 bb 7f 2f 54 3e e8 06 6f 3d bf dc 08 be
       -0.006016217 0.20721243 0.058356196 -0.13365458
0000a0 79 94 f3 3d 0c 50 b0 bd e3 6b 14 3e 1f 8c aa 3e
       0.11893553 -0.08609018 0.1449428 0.3331003
0000b0 2c a0 04 be 0b 3a a3 bd af 05 48 3e 79 52 8a bd
       -0.12951726 -0.07970055 0.19533418 -0.06754012
0000c0 b5 a0 a1 3b f2 99 a9 bd 41 4f b0 3d 07 4d df 3d
       0.004932488 -0.08281316 0.086088665 0.10903364
0000d0 5f 9d 90 bd e4 73 c3 bd b0 19 4c be 69 b6 3c 3e
       -0.07061266 -0.09543589 -0.19931674 0.18428959
0000e0 38 73 90 bd 5a e4 bc bd 24 2b a3 bd 01 c1 56 bd
       -0.07053226 -0.09223242 -0.07967213 -0.052430157
0000f0 14 2b c8 3d 8d eb 39 bc fb a1 61 3e 8c 5f fb bc
       0.097738415 -0.011347664 0.22034447 -0.030685209
000100 b6 18 b7 bd 5c ba 0e be ba 4f 04 bd c4 b4 9c 3d
       -0.0894026 -0.13938278 -0.032302596 0.07651666
000110 2b e9 f3 3d 8c be 23 bd 69 31 f6 3d 52 08 81 3e
       0.11909708 -0.03997664 0.12021143 0.2520166
000120 cb 6b 0b be 1f 16 1e 3e f1 eb 6f bd 41 8b ab bd
       -0.13615339 0.15438126 -0.05857462 -0.0837617
000130 1d 66 b4 3d d4 e5 e5 3d 41 e1 0d 3e 46 3b 92 ba
       0.08808539 0.11225477 0.13855459 -0.0011156581
000140 05 2b 07 be 1e 13 4c be 3c d8 1a bd 56 3e 9f bd
       -0.13200004 -0.19929168 -0.037803873 -0.077755615
000150 c1 34 51 3e 50 3c 21 3d 3c 30 9d bc 37 8a 71 bd
       0.2043028 0.03936416 -0.019188039 -0.058969703
000160 a7 d9 37 3d df 72 f7 bd 15 be 93 bd c6 46 df 3d
       0.044885304 -0.12082457 -0.0721399 0.10902171
000170 fe 7a 3a bd 6d 0c cd bd a0 0a 2f be 83 a5 2f bd
       -0.04552745 -0.10012136 -0.17093897 -0.042882454
000180 f3 af 0c 3e 1c 4c f5 bd 45 98 44 3e 01 dd bd 3d
       0.13738994 -0.11977407 0.19198711 0.09270669
000190 9d 1d 07 3c 8e f9 4f be 63 7a 57 3e f4 18 b3 bd
       0.008246806 -0.20310041 0.2104278 -0.08744994
0001a0 94 36 c5 bd f5 fb e7 bd 11 81 51 3e 38 43 17 3e
       -0.096295506 -0.11327354 0.20459391 0.14771736
0001b0 aa 91 b6 3d 89 08 09 3e 99 fe 63 3e 0e de 31 be
       0.08914502 0.13382162 0.2226509 -0.17369863
0001c0 78 57 e9 3d 56 81 8a bd 28 b3 4a be c7 85 1e be
       0.113936365 -0.0676295 -0.19794905 -0.1548072
0001d0 b5 d9 12 be c1 14 f3 3d 84 1a 38 be 00 b2 f4 bb
       -0.14340861 0.11869193 -0.17978865 -0.0074675083
0001e0 f3 e7 42 be 42 27 4d bc 8f 74 8e bd da 7d 06 3e
       -0.19033794 -0.012521567 -0.069558255 0.13133946
0001f0 61 51 c6 3d f9 38 7a 3d 39 35 09 be 65 1b 93 bd
       0.096834905 0.06108949 -0.13399209 -0.071829595
000200 b7 1a 65 bc 0e 4f 99 3e 75 05 09 bd 5f 7d 0d 3e
       -0.01398342 0.29943126 -0.03345247 0.13817357
000210 6a 86 5c bd e1 4c 86 3d d5 f1 3a 3e 32 29 3d 3e
       -0.053839125 0.06557632 0.18256314 0.18472746
000220 48 96 75 be 7f 36 71 3d 58 96 14 be 68 83 9f be
       -0.23983109 0.058889862 -0.14510477 -0.31154943
000230 39 09 ce bd 27 ff 80 be db 56 06 3e 32 44 73 be
       -0.10060353 -0.25194666 0.1311907 -0.23756483
000240 ea 29 65 bb 4d bc 90 be 7e 49 26 3e 50 93 32 be
       -0.003496761 -0.28268662 0.16238973 -0.17439008
000250 d7 44 48 3e e9 31 98 be 25 47 cf 3d 73 b5 41 3e
       0.1955751 -0.29725578 0.101209916 0.18916874
000260 97 d2 71 3c e9 09 3c be e1 c0 5a 3e 5f cf 4e 3d
       0.014759681 -0.18363155 0.2136264 0.050490733
000270 7a d9 53 3e 84 98 88 be 19 df ab be cb a3 c5 b8
       0.2068843 -0.2667886 -0.33568648 -9.424201e-05
000280 5e 1b b9 bd f3 8d 25 be 53 76 a5 3e 59 bd a1 3d
       -0.09038423 -0.1616743 0.32316837 0.07897443
000290 b2 7a 6c 3e a6 f9 4f be 70 6c 4b 3d c7 46 22 3d
       0.2309368 -0.20310077 0.04966396 0.03961828
0002a0 50 6c 50 be 11 31 15 3e bd 29 55 3d 8e 16 5d bd
       -0.20353818 0.14569499 0.052041758 -0.053976588
0002b0 f3 19 0f 3e 70 d2 85 3e 88 52 e2 3c bc 26 2e be
       0.13974743 0.26137114 0.027627245 -0.17006963
0002c0 ac e9 5a be 80 51 a4 3e d8 65 9a be 9e 70 77 3c
       -0.21378201 0.3209343 -0.30155826 0.015102534
0002d0 50 00 09 3e 0e 50 ca 3d 87 67 31 be ce 24 21 be
       0.13379025 0.098785505 -0.17324649 -0.15736696
0002e0 cb b5 4e be a8 16 27 3e ac 10 70 3e 85 b6 9b 3e
       -0.20186536 0.16317236 0.2344386 0.3041269
0002f0 3e 3f 0f 3e 67 a1 a2 3e a7 b8 39 3d e9 2e 68 be
       0.13988969 0.31763765 0.045342114 -0.22674145
000300 fe 69 59 3e fe 99 93 3d ee 81 6e be 29 63 8c bd
       0.21231839 0.07207106 -0.23291752 -0.06854851
000310 e5 70 94 be 5e e2 0c 3e ab 45 7c bc 02 c9 c1 bd
       -0.28992382 0.13758227 -0.0153974695 -0.09462167
000320 26 41 fb 3d 34 52 4a bd 53 65 4c 3e 40 d3 d5 3d
       0.122682855 -0.0493948 0.19960527 0.10440683
000330 15 7c 90 be 57 18 72 3c 05 13 98 bd b8 2e 90 be
       -0.28219667 0.014776311 -0.07425503 -0.28160644
000340 d9 12 98 3d 8f a0 42 3e da ed 6e be de 51 d1 3d
       0.0742547 0.1900656 -0.2333292 0.10220693
000350 d2 86 27 bd 25 f8 57 be 8d cd 8a be ab f3 81 be
       -0.04090006 -0.21090753 -0.27109948 -0.25381216
000360 fe b7 91 3e 27 c4 37 bc 2b 1c 73 3e 7a 93 85 be
       0.28460687 -0.0112162 0.23741214 -0.26089078
000370 72 c7 73 3e af 93 68 3e 78 33 15 3d 35 28 77 3e
       0.23806551 0.22712587 0.036426038 0.24136432
000380 a5 79 ef 3d 3e 28 6c be 93 9c 37 3d 3b 2c d0 3d
       0.11693124 -0.23062226 0.044827055 0.10164686
000390 4d dc 5d be 87 de d5 3d 7f c8 b5 bc 40 02 43 3e
       -0.2166607 0.10442834 -0.02219033 0.19043827
0003a0 7c 3a 30 3e 9a 12 6b be 53 7b 16 3d f8 37 32 3d
       0.1720981 -0.22956315 0.036738705 0.043510407
0003b0 ca 2a bb 3d 3d 3a 09 3e a6 58 a9 bd 82 36 b0 3a
       0.09139021 0.13401122 -0.082688615 0.0013443979
0003c0 9f ca 3f 3e c6 6e 55 be a7 f7 e3 bc d2 66 0b 3b
       0.18729638 -0.20843038 -0.02782805 0.0021271002
0003d0 ca a8 e0 3c b5 26 96 be 3b 2d c9 3d 1c f7 b8 3e
       0.027424235 -0.29326406 0.0982308 0.3612603
0003e0 ea e3 98 3d 16 53 8c 3e 91 5d 53 be 15 dc 20 3d
       0.07465346 0.2740714 -0.20641162 0.039272387
0003f0 91 0d 2a 3e e3 af 55 3e a8 f1 ce 3d 47 05 33 3e
       0.16606738 0.20867877 0.10104686 0.17482482

fc3.bias f4 [2]
000000 e1 97 ea bc e5 c9 9f bc
       -0.028636875 -0.01950545

bn1.weight f4 [256]
000000 1b 42 fd 3e 39 27 b6 3e a7 04 91 3e 2c fc b5 3e
       0.49464497 0.355768 0.28323862 0.35543954
000010 c3 4b 74 3f f6 b0 bd 3e 19 2a f5 3e 48 fe 0c 3f
       0.95428103 0.37049073 0.4788368 0.550755
000020 1b a2 cf 3e 33 ed 69 3f 55 70 8b 3f 56 5f 44 3f
       0.40553364 0.9137756 1.0893656 0.7670797
000030 6a 86 0a 3f ad fe cd 3e 6b f3 40 3f c9 db 5b 3f
       0.5411135 0.40233365 0.75371426 0.8588224
000040 a3 e2 50 3f bf 21 88 3e a6 d8 2b 3f 93 11 3b 3e
       0.8159582 0.26588246 0.67127454 0.18268423
000050 c9 c7 11 3f 70 bd 86 3f 2d 43 30 3f 7d c3 26 3f
       0.5694547 1.0526562 0.688525 0.6514204
000060 f9 23 c8 3e 5a 4b 40 3f ea 2c e2 3e 36 9d 8f 3f
       0.39089945 0.7511498 0.44174892 1.1219852
000070 6c b4 a2 3e c4 f8 d8 3e ef 53 5a 3f 81 ce 7b 3e
       0.31778276 0.42377293 0.8528432 0.24590494
000080 79 cf 91 3e e0 83 93 3f 15 41 70 3f b3 e1 8c 3f
       0.28478602 1.152462 0.9384931 1.1006378
000090 6f ed fc 3e cf bb 5e 3e bb aa 05 3f 69 b4 a0 3f
       0.49399897 0.21751331 0.5221364 1.2555057
0000a0 33 8a e9 3e 60 f9 85 3e 55 96 11 3f d6 32 68 3f
       0.4561325 0.2616682 0.56870013 0.9070257
0000b0 69 1a 88 3e e7 e7 65 3f f0 fd 8a 3e 98 f7 6e 3f
       0.2658265 0.8980698 0.27146864 0.9334655
0000c0 92 c6 6d 3f c6 d3 81 3f f0 34 7d 3f cc 9a 39 3f
       0.9288112 1.0142753 0.989089 0.72501826
0000d0 7c 39 14 3f 9f c4 28 3e ec a0 2c 3f 46 6c e2 3e
       0.57900214 0.16481255 0.6743305 0.4422323
0000e0 0b eb 8b 3f f3 54 6c 3e 4b cd 6c 3e 96 eb 4b 3f
       1.0931104 0.2307928 0.23125188 0.7965635
0000f0 fb d5 f1 3e 63 91 54 3f 8b 18 6f 3f 89 fc 05 3f
       0.47233567 0.8303434 0.93396825 0.52338463
000100 5f 7a 72 3f e2 a0 8a 3f 92 72 90 3e 81 94 b9 3e
       0.94717973 1.0830348 0.2821241 0.36246112
000110 95 e1 e5 3e 7b be 6d 3f 5b 46 f6 3e df 07 87 3e
       0.44898668 0.92868775 0.48100552 0.26373193
000120 f3 cc 37 3f cd fc 5b 3f 69 2a 86 3f 55 f4 8a 3f
       0.717971 0.8593262 1.0481693 1.0855814
000130 57 7d 89 3f fc 5c f5 3e 61 2b b5 3e e2 50 87 3f
       1.0741376 0.47922504 0.35384658 1.0571558
000140 2e cb 35 3f 79 fd 4f 3f 7a c9 d8 3e 58 70 e7 3e
       0.7101315 0.81246144 0.42341214 0.452029
000150 55 90 03 3f 51 4c 82 3f 46 b0 59 3f f4 18 69 3f
       0.5139211 1.017954 0.85034597 0.910537
000160 81 69 1a 3f 87 d5 4c 3f ef 0b d9 3e 13 60 f5 3e
       0.60317236 0.80013317 0.42391917 0.4792486
000170 8b 68 4b 3f 10 f7 1e 3f f0 45 54 3f e6 00 86 3f
       0.79456395 0.6209574 0.82919216 1.0469024
000180 19 c9 81 3f d6 f5 83 3f 16 ac 8b 3f 6d e7 80 3e
       1.0139495 1.0309398 1.0911891 0.25176564
000190 f4 70 7d 3f 36 8f 6f 3f b6 89 01 3f 9b 86 25 3f
       0.9900048 0.935779 0.50600755 0.64658517
0001a0 aa 32 61 3f b2 b4 8e 3e 9b e4 37 3f d9 6c 81 3f
       0.8796793 0.27872235 0.718332 1.0111343
0001b0 aa ec 8d 3f 13 7f 7e 3f d3 e2 7f 3f e0 92 74 3e
       1.1087849 0.9941265 0.9995548 0.23884153
0001c0 3c b1 b5 3e 4f 0e 8c 3f 31 c4 7d 3f 10 7f 56 3f
       0.35486782 1.0941867 0.9912749 0.8378763
0001d0 6f 76 8c 3f d0 2f 65 3f ea 53 8e 3f 03 39 85 3f
       1.0973643 0.8952608 1.1119359 1.0408024
0001e0 a8 8f 43 3f 2a e5 21 3e 4c 70 1c 3f 43 de 5a 3f
       0.7639108 0.15810075 0.6110885 0.85495394
0001f0 f6 35 1b 3f 6b fd 6d 3e 3b ae 13 3f c8 01 fd 3e
       0.6062921 0.23241203 0.5768773 0.4941542
000200 d3 d5 07 3f 57 f9 54 3f 25 cc 6b 3f 99 f5 55 3f
       0.53060645 0.8319296 0.92108375 0.8357788
000210 14 20 b4 3e e8 a0 d0 3e c2 78 fd 3e ca 9e 8d 3e
       0.35180724 0.40747762 0.49506193 0.2766021
000220 a6 5a 1f 3f e8 1a 83 3f fc a3 24 3f 9c 9a cc 3e
       0.62247694 1.0242586 0.6431272 0.39961708
000230 a4 7a 05 3f ed de d6 3e b0 9c f5 3e 1d 9a 2d 3e
       0.5214026 0.41966954 0.47971106 0.16953321
000240 50 06 97 3f bc c9 07 3f 52 9e 84 3f 7f a9 89 3e
       1.1798801 0.530422 1.0360816 0.26887128
000250 70 85 c8 3e e0 a6 fa 3e 6d b4 e7 3e 91 f9 1e 3f
       0.39164305 0.4895544 0.4525484 0.6209956
000260 32 63 ff 3e b6 21 58 3f e5 b3 13 3f dd fe 66 3e
       0.49880368 0.8442644 0.5769637 0.2255816
000270 ef 33 07 3f e4 bf 71 3f 90 fc fb 3e 72 18 0a 3f
       0.5281362 0.94433427 0.49216127 0.5394355
000280 e6 96 c5 3e ea c4 8f 3f 6f 72 db 3e d4 fd ab 3e
       0.3859169 1.1231968 0.42860743 0.33592093
000290 d6 08 15 3f 02 d3 81 3f ca 40 9c 3f b3 12 45 3f
       0.5821661 1.014252 1.2207272 0.7698166
0002a0 da 45 bc 3e 0d 3f 34 3f 90 01 43 3f 4c c0 0c 3f
       0.36772043 0.7040871 0.7617426 0.5498092
0002b0 a7 61 61 be ce 37 b4 3e d1 49 78 3f 21 19 d9 3e
       -0.22009908 0.35198826 0.96987635 0.42401984
0002c0 95 df 8f 3f a9 c4 c7 3e 97 f7 b5 bd 49 a5 8a 3f
       1.1240107 0.39017227 -0.08885115 1.0831691
0002d0 d2 16 3a 3f 55 d8 8a 3f 86 55 2f 3e 72 6d b0 3e
       0.7269107 1.0847269 0.17122468 0.344585
0002e0 b2 86 26 3f aa c8 43 3f 5d 45 72 3f b7 40 5c 3f
       0.6504928 0.76478064 0.9463709 0.86036247
0002f0 38 b4 25 3f 4a e9 63 3f 19 57 ed 3e 79 2a 62 3f
       0.64728117 0.89027846 0.46355513 0.8834606
000300 fe 5b 84 3e a0 c5 cb 3e 13 a2 6d 3f 9b 52 93 3e
       0.25851434 0.39799213 0.9282543 0.2877396
000310 56 67 2b 3f 63 e5 00 3f 39 71 72 3f 9e ec 76 3f
       0.66954553 0.50350016 0.94704014 0.964548
000320 44 a6 2f 3f f1 be 0d 3f 29 ed 64 3f d7 f9 7d 3f
       0.68613076 0.5536948 0.8942438 0.9920935
000330 51 1c 8b 3f 06 82 1d 3f f6 30 85 3f 3f ad d9 3e
       1.0868016 0.61526525 1.0405567 0.4251499
000340 12 bb 1b 3f 07 5e 44 3f 2f 67 36 3f f8 bc 1f 3f
       0.6083232 0.76705974 0.71251196 0.6239772
000350 32 51 83 3f c3 1a 0e 3f 5e 94 4e 3f 16 ad fe 3e
       1.0259154 0.55509585 0.8069514 0.4974143
000360 1b cc 70 3f 9c 4e 77 3f cb 26 59 3f 2f bb 43 3f
       0.9406144 0.96604323 0.8482482 0.76457494
000370 4d fa 1f 3f ad e8 fa 3e 6e d8 82 3f ee 74 84 3e
       0.62491304 0.49005643 1.0222299 0.2587046
000380 15 c8 2e 3f d7 8e 31 3f 9c 54 4e 3f ed 1b 5e 3e
       0.6827405 0.6935858 0.80597854 0.2169034
000390 22 80 12 3f 12 12 1a 3f d3 1e 9e be 13 86 83 3f
       0.57226765 0.60183823 -0.30882892 1.0275291
0003a0 0e 07 37 3f 5a 13 fd 3e f6 5d 5c 3f a5 3a 2a 3f
       0.7149514 0.49428827 0.86080873 0.66495734
0003b0 2e ee 0f 3f 70 40 88 3f 71 e5 81 3e 0c f4 01 3f
       0.5622281 1.0644665 0.25370362 0.5076301
0003c0 b2 65 41 3f ad 0d 14 3f 58 5c 90 3f 38 9f 58 3f
       0.755458 0.5783337 1.1278181 0.8461795
0003d0 34 21 5b 3f 19 3f 80 3f eb b9 8d 3f 01 ac 88 3f
       0.8559754 1.0019256 1.1072363 1.0677491
0003e0 9c 7b cc 3e 81 6b 65 3f a8 d9 e3 3e 3f 28 ae 3e
       0.39938056 0.8961716 0.44501996 0.3401508
0003f0 9e bc 55 3e fd 22 8a 3f b2 77 81 3f 49 46 20 3f
       0.20872733 1.0791928 1.0114653 0.62607247

bn1.bias f4 [256]
000000 53 76 d9 3c ed 78 33 3d 61 2c 58 3d 26 87 a6 bd
       0.02654568 0.043816496 0.052776698 -0.08131246
000010 f5 63 92 3d c0 1b bd bd 25 e5 b4 3d 39 c8 93 bd
       0.071479715 -0.092338085 0.08832768 -0.07215924
000020 3f 26 4c bd b6 83 10 bd 9a 27 72 3c b2 95 8e bd
       -0.04984116 -0.03528186 0.01477995 -0.06962146
000030 9f e3 07 3d 57 07 86 bd e8 b3 07 3e d3 6e 23 bd
       0.03317606 -0.06544369 0.13252223 -0.039900612
000040 84 b7 93 bd 5b 59 98 3d 14 82 c3 bb a3 05 33 bb
       -0.07212737 0.07438918 -0.0059664343 -0.0027316592
000050 73 34 f4 bd 1e 30 86 3d c6 b3 f0 bd d0 1e 38 bd
       -0.119240664 0.065521464 -0.11753039 -0.04495126
000060 6a d8 c2 3c be 54 8e bd be 82 7f bc 09 a4 8a bd
       0.023784835 -0.06949757 -0.015595136 -0.067695685
000070 54 9c 25 3e e5 c3 5e bd d2 91 9c 3a db b6 35 3d
       0.16172916 -0.05438604 0.0011945313 0.044363838
000080 f9 8f b7 bd b1 1d 02 3d 01 92 a9 bd 1f 45 66 3d
       -0.089630075 0.031766597 -0.08279801 0.056218263
000090 92 9a 53 bd ec 5e 62 3d 53 61 f4 bd 27 1c d1 bd
       -0.05166108 0.055266306 -0.119326256 -0.10210448
0000a0 6c b0 86 bd aa 52 52 3d 80 fc eb bd a8 ee b0 3c
       -0.065766186 0.051348366 -0.1152277 0.021598175
0000b0 e4 5a 6f bc f6 86 50 bc d6 8a b1 3d be ec 4f bc
       -0.014609072 -0.01272749 0.08669059 -0.012690721
0000c0 fb d0 11 3d f7 6a 71 bd a0 c4 4c bd fa d2 a7 bc
       0.03559969 -0.0589399 -0.049992204 -0.020486344
0000d0 02 78 98 3d 39 67 58 3d f0 34 1c bb 43 bb b5 bd
       0.07444765 0.052832816 -0.0023835264 -0.08873608
0000e0 41 70 69 bd 0d 52 b7 bd d7 47 52 bd 8f 9a 26 bd
       -0.05699182 -0.08951197 -0.051338043 -0.040674742
0000f0 fb 1b 83 bd e4 50 a4 bb 20 9f 6e bd c2 75 2c bd
       -0.06401821 -0.0050145257 -0.058257222 -0.04210449
000100 9f e6 2a bd 9e 0f 68 3b 44 5a 3c 3d 3d d8 1e 3d
       -0.041723844 0.00354097 0.04598452 0.03878044
000110 a5 c8 24 3d d8 b2 af bd 21 bd 76 bb 6e aa 20 3d
       0.040230412 -0.085790336 -0.003764935 0.039225034
000120 7f 48 f8 bc c9 8a d6 3c 46 cf 2f 3c 63 13 22 bd
       -0.030308006 0.026189225 0.01073057 -0.03956927
000130 8a 73 87 bc ec 3a 9b 3b 07 19 b3 bd b9 56 9b bc
       -0.016534586 0.0047372486 -0.08745008 -0.018962251
000140 12 2e 9c 3d c4 3a 11 bd 2b bd b2 3d 36 00 86 3d
       0.07625975 -0.035456434 0.08727487 0.06543009
000150 b2 3f 4d ba e2 ea 76 3d b7 f9 4f bc ba 3a d4 3d
       -0.0007829621 0.060282595 -0.012693814 0.10362764
000160 38 03 e9 bd 66 81 0d 3d ec 3c 77 bd 5f c0 9f bd
       -0.11377567 0.034547232 -0.060360834 -0.07800364
000170 e2 aa 0f bc ec cc 74 bd ba f0 d3 3c 15 3f 8e bd
       -0.008768769 -0.05976574 0.025871623 -0.06945626
000180 db dd ba bb 45 3f 2a bd 01 1a 73 bd 63 f8 8d bc
       -0.0057027168 -0.041564245 -0.05935097 -0.017330354
000190 3f d8 1d 3d 28 bf c9 bc 0e 65 83 3d 64 9d f4 3c
       0.038536306 -0.024627283 0.06415759 0.029860206
0001a0 e5 f5 78 bd 09 1d 80 bd 95 f5 1a 3c 1c 48 e9 bd
       -0.06078138 -0.06255538 0.009457965 -0.11390707
0001b0 d8 18 39 bd 75 8d 9f ba 38 3d ae 3d 0b b6 be 3b
       -0.04518971 -0.0012172895 0.0850777 0.005820041
0001c0 04 10 dc 3c ae 80 4d bc 19 e1 b7 3c ea 64 7c 3d
       0.026863106 -0.012542887 0.022446202 0.061619677
0001d0 69 80 6a 3d 8e 75 ab bd 0f f0 8a bd c0 01 88 bc
       0.057251368 -0.08372031 -0.06784069 -0.016602397
0001e0 b5 f7 fa 3c a4 0f 6f bd 04 eb 63 bc bf f4 ca bd
       0.030635694 -0.058364525 -0.013911013 -0.09909963
0001f0 61 f7 9b 3c ab 4c 2a 3a b5 fb 0f bc 72 a9 72 bd
       0.019038858 0.000649641 -0.008788039 -0.059243627
000200 f8 be f5 3b 62 29 36 bc 6e d8 b6 bd 25 cb bf bc
       0.007499572 -0.011118265 -0.089279994 -0.023412297
000210 d4 bb 80 bc 69 af 5f bd eb 13 33 3d 09 14 ff bd
       -0.015714563 -0.054610644 0.043720167 -0.12454993
000220 ad ab 2c 3c 07 dd ca 3c cf f7 96 3c 5f 8c 08 bd
       0.010538978 0.024763597 0.018428711 -0.033336993
000230 fb fb 9f 3d 74 8a 15 bd 6e f1 02 3d 67 23 da 3d
       0.07811733 -0.036508992 0.031968527 0.10651284
000240 ba 63 09 3c 57 db 85 3b 4d c3 75 3c f2 2a bf 3d
       0.008385593 0.0040849852 0.015000177 0.09334363
000250 68 1c 2a 3e 2b 64 be 3d 9b b0 82 bd 01 0f b6 bc
       0.16612399 0.09296449 -0.06381341 -0.022223951
000260 62 04 3c bd fe f1 46 bd 4c c4 9b 3d cf 6f 26 3e
       -0.045902617 -0.048570625 0.076058 0.16253589
000270 5d da f4 bd ed 24 a0 bd 41 56 5f bd 8c aa 24 3d
       -0.11955712 -0.07819543 -0.054525618 0.04020171
000280 cc 5b 86 3d b2 48 c4 3c f5 d7 98 3d 6e 3f 99 bc
       0.065604776 0.023960445 0.074630655 -0.018707003
000290 a2 12 80 bd 83 11 3f 3d 2b da 37 3d dd 1b 4d 3d
       -0.06253554 0.04664756 0.044885796 0.0500754
0002a0 44 6e a0 bd ab d3 13 3b 89 42 90 3c be f7 77 3d
       -0.078335315 0.0022556584 0.017609851 0.060539
0002b0 f8 8c 47 3d 2e 13 c4 3d d3 4e 6e bd f3 dc df 3d
       0.048718423 0.09573971 -0.05818064 0.109308146
0002c0 e5 4d 72 3c 7a 1d 6a 3c ef 6f 03 3e 93 2e c0 3b
       0.014789079 0.014289254 0.12835668 0.005864927
0002d0 06 62 09 bd 49 9c bf bd 53 23 b9 3b f7 eb e2 bb
       -0.033540748 -0.09355981 0.005649963 -0.006925102
0002e0 90 c3 5e bc 90 b3 dc bb 48 0f b3 bc 48 1f 19 bd
       -0.01359643 -0.0067352727 -0.021857873 -0.037383348
0002f0 97 56 3e bd 57 a2 e9 3d f5 fc 27 be 84 5c 91 bb
       -0.046469297 0.11407917 -0.16405089 -0.0044360776
000300 6a 4c 47 bc 5c 39 1f bc 1c 24 4c bd 3b 2b 4c bd
       -0.012164215 -0.009718265 -0.049839124 -0.049845915
000310 89 8a 79 bb 2c 29 44 3d 41 2f 92 3d ee ff 4a bc
       -0.0038076958 0.047890827 0.07137919 -0.01239012
000320 80 6d 19 3d 2c 78 f2 bc ce 2c 69 bd 6e 84 a8 bd
       0.037457943 -0.029598318 -0.056927495 -0.08228384
000330 05 74 db bd 18 9e 81 bd 43 b6 d5 bc 7a df d6 3c
       -0.10715488 -0.06328982 -0.026087886 0.026229609
000340 13 f7 ee bc 30 84 7e bd fa d1 2d 3d 60 90 8e bd
       -0.029170549 -0.062137783 0.042436577 -0.06961131
000350 9b 0b a2 bc da b9 1f bc 9f 28 24 be bf bd e1 bd
       -0.019780925 -0.0097489 -0.1603112 -0.11022519
000360 ba bc 79 3c 0a b7 81 bc 18 c2 80 3b 20 ee 20 bd
       0.01524275 -0.01583435 0.003929388 -0.039289594
000370 05 7e 9d bd 4d 0d ca bd d6 8d 19 bd f7 cb b3 bd
       -0.07690052 -0.09865818 -0.03748878 -0.087791376
000380 31 8b 95 3d 1b 73 0d bd 2e 15 87 bd 30 f2 4d bd
       0.07301939 -0.0345336 -0.065958366 -0.050279796
000390 39 1d c1 bb 25 f2 68 bd 1f e7 94 bc 73 68 05 bd
       -0.005893376 -0.056871552 -0.018176613 -0.032570314
0003a0 b3 f9 a3 bc d6 31 97 bd b0 c2 0e bd 62 07 8f 3d
       -0.020016527 -0.07382552 -0.034853637 0.0698383
0003b0 a1 6b d8 3d 92 54 cf bb 6e 01 e0 bd 3d 8f ae 3d
       0.105674036 -0.0063272202 -0.10937773 0.08523414
0003c0 fd 74 08 be 42 b7 9b bd 2a 6c b7 3d 12 9b 62 3d
       -0.13325877 -0.07603313 0.089561775 0.055323668
0003d0 43 cc 9e bc 87 9d 10 3d bc 91 90 3d 0a c2 57 bd
       -0.019384509 0.03530648 0.070590466 -0.052675284
0003e0 29 69 cc bc 86 6f 64 bc 5c c8 81 bd c2 fb 84 bc
       -0.024952488 -0.013942605 -0.06337044 -0.016233329
0003f0 79 60 62 bd b9 a2 9e bd 81 d3 06 3b 61 d0 7e bd
       -0.055267785 -0.07745881 0.0020572843 -0.062210444
