double_dqn/p1_navigation/checkpoint.pth (torch_old, 62657 bytes, 8 tensors)

fc1.weight f4 [128, 37]
00000000: a9b1 c13d 38bb a03d 13a1 813b 376e b2bd
00000010: 1121 58be 7434 293d 6944 bf3d 73f4 db3d
00000020: d83e 333e aaf7 c4bd b28f dcbd bdf7 86bd
00000030: b0d8 d5bd 15d1 5d3d c9fa b83d 72ca a83c
00000040: 537f d3bd 4103 b1bd 01cc d23c b0aa 98bd
00000050: adac fbbd 5594 8bbd 6cd1 eebc 9356 853d
00000060: 9a28 42bd cb8a a53e b49c a9bd 7c14 08bf
00000070: 4e46 8ebe 0350 96bf 86ac 18be 9fbf 173e
00000080: 9169 babd 2d1f fd3d 91d3 bf3e cdf0 8b3c
00000090: 5769 8e3b 4e34 603e e18f 01bd 5697 d5bd
000000a0: 3228 6abe a4b2 29bf e34d 8a3d 44df 5abe
000000b0: d5b4 43bd 7ac3 c43e 5f34 50be 9414 e2bd
000000c0: 903e 73be 44c6 823d 1438 a23e 602d 293e
000000d0: dae3 223e ad20 55bd 8470 44be 9aa8 adbd
000000e0: 18db aabd 516f 053e df59 99bd ebfc 8abe
000000f0: dd73 673e 740b 69be f243 333e 2321 7bbe
00000100: a45b 5e3d 0150 0bbe 33ff 26be 6059 323b
00000110: fcbf 3abc 5f35 52be cd2c c33d e28b 54bc
00000120: a4f9 09bd 60f4 94bd be64 d6bd d44f 86be
00000130: c1b6 603e 0757 423e e5d9 39be 608f a6bd
00000140: 3309 3bbe 1571 2f3e 603b 46bd 3a0b 8bbd
00000150: 433c 9f3e c9c0 4dbe 2cd9 d83d e398 87be
00000160: 9731 7dbf 496c 403e 825e 80be eda0 fcbc
00000170: 5772 813c cdb3 dd3d 0fae 85bd 3fd0 09bd
00000180: 0c91 98bd 5add 053e c9a8 85bc 6138 873d
00000190: cea2 843b a2b2 e8bd c599 72bd c73c 83bc
000001a0: 4ffd 223d 4c7a 623d 80c5 613e 463b 223e
000001b0: fc47 34be 1dc4 40be 2f29 93bd 58ec 6fbd
000001c0: e3e9 24bd 1eba c1bd 635b 89be 8212 9f3e
000001d0: 8049 013e 9300 013c cc22 75bd 0e77 56be
000001e0: e798 c33e d68c 2a3e 5924 e7bd 970a 81be
000001f0: 0424 d33d 6f8f 5a3e 1ae3 83be 336f 48be
00000200: eb91 323e 8f4d 27be 661e 52be d770 dcbd
00000210: 342c 823d 77b8 6bbe 9274 b03d c650 1c3d
00000220: e564 f7bd d836 053e c3fa d13c d6e0 723d
00000230: 6eaa 38be f32e 433d 75b4 d0bc 9b6a 0dbe
00000240: 95e5 3b3d d107 323e a97b e9bd a397 a4bd
00000250: d4ef d4bd 6da7 743c 953e 0f3e 8d82 23bd
00000260: 5aae b03e 90aa 36be 9753 aabe 5e2a a7bd
00000270: 73c3 543e 36c7 dc3e ae53 00be 41d3 6abd
00000280: effc 2d3c 2e62 19be d3c3 753d 8c5e b93d
00000290: 04f1 67bd 6826 0b3e aa99 cdbd f226 1fbd
000002a0: ef52 64bd 2932 c9bd 406a fcbc 8ae5 efbd
000002b0: 62c6 66bd e77e 46be a686 ce3d 6794 46be
000002c0: 2622 b0bc a1cb 12be 8e73 f03d 21db 99be
000002d0: 6f3a 4bbe 22b5 36bb 17e7 ba3e 05b5 edbd
000002e0: 1945 e33d bbab 41be 5d42 ef3b fb46 dabd
000002f0: 31d8 3b3d c130 c1bd 093c 78be 25f4 1e3e
00000300: e2c3 773e 33c0 393d f1b0 f63d 1dc2 b43d
00000310: 0bba 54be 173c ee3d ae03 463e bf2f 2a3e
00000320: 026e 543d ee26 88bd 0390 2e3c 9543 16bd
00000330: 2d99 62be ad86 f43c dfcd c3bd 62af 2dbd
00000340: aacc bc3e b52d b13d 42c9 80bd 47e0 3f3d
00000350: f600 04be c807 58bb b6a6 c5be 27ee b93d
00000360: fc53 91bd 6cf9 273e 6674 e33d 41c1 cc3d
00000370: 3b4f 3f3d d014 ebbb f9f9 7ebe 2eb0 db3b
00000380: db75 6b3e cd75 c3be 8bbf 33be f265 623d
00000390: a646 4f3d d693 47be a69b b3be 363b 2c3d
000003a0: f2fd bd3d 9da8 0cbe 1ef1 c9bd f815 a2bd
000003b0: 3979 a2be 598a 90bd d1a9 123e ddc0 91bd
000003c0: 8d37 913d b246 eebd c532 ad3c cc95 7ebe
000003d0: bf50 2cbe 0fb2 9ebd 9b95 883e 13e0 573e
000003e0: 6e71 a23d 54ae 87be 36b5 7bbe d77e e73d
000003f0: 0d28 1dbd 2114 ebbe fdb1 053d d4f8 06be
0.09457714 0.07848209 0.003955969 -0.08712428 -0.21106364 0.04130979 0.0933922 0.10739984
0.17504442 -0.09617551 -0.10769595 -0.06590221 -0.104417205 0.054154474 0.090322085 0.020604346
-0.103270195 -0.08643199 0.025732042 -0.07454431 -0.12288795 -0.068154015 -0.029152595 0.06510653
-0.047402002 0.32332453 -0.08281842 -0.53156257 -0.27788013 -1.1743168 -0.14909562 0.14819191
-0.091021664 0.12359462 0.374661 0.017082596 0.0043460536 0.21894953 -0.031631354 -0.10429256
-0.22866896 -0.6628821 0.06753137 -0.21374232 -0.047779877 0.38430387 -0.20332478 -0.11039081
-0.23754334 0.063854724 0.3168341 0.16521215 0.15907231 -0.052033115 -0.19183546 -0.08479424
-0.0834257 0.13030745 -0.07487845 -0.27146086 0.22602792 -0.22758275 0.17506388 -0.2452436
0.054286614 -0.13604738 -0.16308288 0.0027213916 -0.011398312 -0.20528172 0.095300294 -0.012972804
-0.03368534 -0.07273173 -0.10468434 -0.2623278 0.21944715 0.18978511 -0.18149526 -0.08132815
-0.18265228 0.17132981 -0.04839647 -0.06789251 0.31100664 -0.20093073 0.10588297 -0.2648383
-0.98903793 0.18791308 -0.25072104 -0.030838454 0.015801592 0.1082531 -0.0652734 -0.033645865
-0.074495405 0.1307272 -0.016315835 0.0660255 0.004047728 -0.113621965 -0.059228677 -0.016020192
0.039792355 0.055292413 0.22047997 0.15842924 -0.17605585 -0.18824811 -0.071855895 -0.058575004
-0.040262114 -0.09459327 -0.26827535 0.31068808 0.12625694 0.007873672 -0.059847638 -0.20943853
0.38202593 0.16655287 -0.1128623 -0.25203392 0.10309604 0.21343778 -0.25759202 -0.19573669
0.17438476 -0.1633818 -0.20519409 -0.1076371 0.06356087 -0.23019587 0.08615984 0.03816297
-0.12079791 0.13009202 0.025632268 0.05929645 -0.18033764 0.047652196 -0.025476674 -0.13810198
0.045873243 0.17385794 -0.114005394 -0.08036735 -0.10397306 0.014932496 0.13988717 -0.039919425
0.3450802 -0.17838502 -0.332669 -0.08162378 0.20777683 0.43120736 -0.12531921 -0.057330374
0.010619386 -0.14978859 0.060001206 0.090512365 -0.056626335 0.1358887 -0.10039075 -0.0388555
-0.055743154 -0.098240204 -0.030812383 -0.11713703 -0.056341536 -0.19384347 0.10084276 -0.19392549
-0.021500658 -0.14335491 0.1174079 -0.30049995 -0.1984651 -0.002787896 0.36504433 -0.11606792
0.11097164 -0.18913166 0.0073016123 -0.1065807 0.045860473 -0.09433127 -0.24241652 0.15522821
0.24195817 0.04534931 0.12045468 0.08826087 -0.20774095 0.11632555 0.19337341 0.16619776
0.051862724 -0.0664805 0.010654452 -0.036685545 -0.22128744 0.029849375 -0.09560751 -0.042403586
0.36874896 0.08651296 -0.06288387 0.046844747 -0.12890992 -0.0032963622 -0.38603753 0.09078627
-0.07096097 0.1640374 0.111061856 0.09997798 0.04670642 -0.007174112 -0.24900045 0.006704352
0.22994177 -0.38175812 -0.17553537 0.055273004 0.050604485 -0.19489989 -0.35079688 0.042048655
0.09276952 -0.13736196 -0.098604426 -0.079143465 -0.3173311 -0.07057638 0.14322592 -0.07116864
0.070906736 -0.11634578 0.021142373 -0.2486183 -0.16827677 -0.07748806 0.2667664 0.21081571
0.07931791 -0.2650019 -0.24580845 0.1130349 -0.038368274 -0.45913795 0.032640446 -0.13180858

fc1.bias f4 [128]
00000000: 1381 653e a9fb cbbd 6f70 10be 63af ec3b
00000010: db93 9ebd 5ab2 46bd f1c2 9fbd 14db f6bd
00000020: b965 acbd 3b1c 1f3e 119a 323e eca9 54be
00000030: cadd 003e 0b78 193e c4e4 21be da9d 05be
00000040: 4bf9 d7bd f262 37be 9dfe 10bd 52e1 0abe
00000050: 685f 62be 7ff0 ccbc d0c3 1b3d 638e 6d3d
00000060: d04a c83b cf46 80bc 2722 d9bd 9bd0 b63d
00000070: d063 e8bd 92cf 913d 8e7b 78bd cd05 783d
00000080: e02a 15be 4ba1 89bd a6a9 23bc ae23 083e
00000090: bd46 8dbd 716a 5d3d 89d1 703d 3294 023e
000000a0: 6243 1e3e cdff 3bbd afc8 e9bd 949b 0abc
000000b0: b3d9 92bc 1a2e 3e3e c93b e1bd 603b bdbd
000000c0: af1c 2bbd 6e58 c73b a0bd b3bc 093d 833c
000000d0: 975a febc 3b64 afbd ef02 9c3d 78fe 0d3e
000000e0: 6144 263d 9e28 5dbd 5aa6 e73d 2ca4 2dbd
000000f0: c121 12bd 325f f3bd d6c1 ca3d 47eb 02be
00000100: 292d 8cbd fddb e4bd 10b9 14be f608 0dbe
00000110: a23b e9bd 138a 13be aad6 18bd 5ebd 20be
00000120: 757e 68be 8103 093c dee7 b43c d23d 06be
00000130: 644b c9bd 1b5a 463d 30ac f6bd 605b fb3d
00000140: 148c 16bd 285d 5d3c 92de 9e3d aa65 cabd
00000150: ba14 a1bd b2c3 1abe 87e8 2bbd 09d1 263e
00000160: 81df d6bd 7bc9 e83d c8fa 5fbd 3587 df3d
00000170: 0b2b 7f3b 0df6 153e 8a32 e3ba ed41 4fbd
00000180: 6846 9abc 23a2 533e 95e5 77bd 073f 3ebd
00000190: 1367 383e 8c5e b73d 23ee 51bd db1f 75be
000001a0: 469f 6f3d 1984 6a3c 3363 bcbd 29e0 0a3e
000001b0: df56 213e 6e51 8dbd 7cc5 c9bd 200b fbbd
000001c0: 1b0c c43d 5780 bd3c 2b74 57be 18fa acbd
000001d0: b679 fcbd 478c 823d cb2b 423d 522f 8dbd
000001e0: 512d 86bd 8dde 883d 74d1 a23d fda5 053e
000001f0: df7c 46be 3e3e 3fbe 39a7 e0bd e86e 18be
0.22412519 -0.0996011 -0.1410539 0.007223056 -0.07743045 -0.048509933 -0.07800854 -0.120535046
-0.084178396 0.15538113 0.17441584 -0.20767945 0.12584606 0.14987199 -0.15809923 -0.13048497
-0.10545596 -0.17908838 -0.03539907 -0.13562515 -0.22106707 -0.025017021 0.03802854 0.05799712
0.006112434 -0.015658764 -0.10602217 0.08926507 -0.11347163 0.07119669 -0.060664706 0.060552407
-0.14567137 -0.06720217 -0.009989178 0.1329486 -0.06898258 0.05405659 0.05879358 0.12751845
0.15455392 -0.045898248 -0.114152305 -0.008459944 -0.017926073 0.18572274 -0.10997731 -0.092398405
-0.0417754 0.0060835397 -0.021941006 0.016020315 -0.031049056 -0.08564039 0.07617747 0.13866603
0.040592555 -0.053993814 0.11311026 -0.042392895 -0.03567672 -0.118833914 0.099002525 -0.12785064
-0.06844551 -0.11174772 -0.1452372 -0.1377295 -0.11388327 -0.1440814 -0.037314095 -0.15697238
-0.2270449 0.008362652 0.02208322 -0.1310952 -0.09828833 0.048425775 -0.12044561 0.12273288
-0.036754683 0.01351098 0.07757296 -0.09882672 -0.078652814 -0.15113714 -0.041969802 0.16290678
-0.10491849 0.11366554 -0.054682523 0.109144606 0.0038935568 0.14644642 -0.0017333787 -0.05059998
-0.0188324 0.20667319 -0.06052168 -0.046446826 0.1800807 0.0895358 -0.051252495 -0.23937933
0.058501504 0.014313721 -0.09198608 0.13562073 0.15755795 -0.06900297 -0.0985212 -0.12257981
0.095726214 0.023132486 -0.21040408 -0.08446139 -0.12327902 0.06374412 0.047405045 -0.06893791
-0.06551612 0.06683073 0.07950106 0.13051601 -0.19383572 -0.18676087 -0.10969395 -0.14886057

fc2.weight f4 [64, 128]
00000000: eee7 11be 506c 84bd 8df7 41be 90d6 81bc
00000010: e382 89bd 8aef de3d 698f c13d b9d7 cbbd
00000020: 5eda 51bd 01f7 16bd 5a48 4d3c 2d93 a2bd
00000030: 9c2c 4f3d a34b bd3c ff85 00be 68dd 57bc
00000040: a1b0 ba3c 0c2d 1e3e c0fd 463e 6ff8 bd3d
00000050: 8223 02bd 0cbf b9bb 9e91 15be 7cd7 103e
00000060: 74da 483e 3eed 10be f3b3 14be 0b3f bcbc
00000070: 4f61 e9bd 441a e73b 0ba5 273d 410e 05bb
00000080: 1aa4 083e 538e 8f3b 6a65 f2bd 05d6 4c3c
00000090: 04f8 85be 786d 55be f2bc 073e 00c2 ee3c
000000a0: 2ccd 253e cbf2 7e3d f6ab e4bd 0f8b 693e
000000b0: 9dc7 683d f352 aa3c f98e 133d 8c6a 4e3d
000000c0: b096 32be b53c 01be b08c e83c 6bba ee3b
000000d0: 8d5b 94be 3638 0fbd de05 7cbd 412f 173d
000000e0: 5bba abbd 8d4e 013d 451b 323e 0227 213e
000000f0: 8200 80bd 7ed1 9b3d 1767 aabd 7034 c3bb
00000100: 31fd 013e 459c 4c3e b434 5dbd 995d 1cbc
00000110: 6fc6 173e 4625 6cbe fba5 393e 0664 29bd
00000120: d81b ddbd 9612 ccbd 0c5a 18bd 769e 2abe
00000130: 3ca3 39bd dd01 9fbd 3f9e c63d 75a4 a93c
00000140: 1249 edbd b958 d13d 8f65 6f3d 1c54 993b
00000150: 594a 303e f6fd 7fbd 151a 8e3d 6523 e1bd
00000160: 128e 02be f280 a03d f7ba b73e 7c67 483e
00000170: 68df 96ba 2c8c 393d 6444 bf3c 59e8 2dbc
00000180: 7556 42be 74d2 1f3d ff48 06bd 21f1 16be
00000190: 104f 163e 6399 ee3c bfec 8d3d ee32 243e
000001a0: e226 a9bd b75a 783d 1c94 2c3c 79e4 cd3d
000001b0: 692a 25be 1ea1 47be 4f93 b1bc 1f8f 55bd
000001c0: b082 063d 509b 213e 4f54 a7bd d1ac 9ebd
000001d0: c375 81be 0d0b 8ebe 516f 2ebd 1807 08bf
000001e0: d21d 06bd 2911 6c3e 7060 ccbd 696c e13c
000001f0: 0400 4d3e d8f5 14be 2e4b 70be 5d6d b2bd
00000200: 57a7 8ebe a9b4 20be 346a e23d 55c8 033e
00000210: 60d0 6abe 7769 10ba 2ee7 cbbd a87f 9d3d
00000220: 03e1 fa3d 09e7 af3d f015 b73d e3f3 913d
00000230: 8a25 c83b 1647 8dbc 2f2a 5abd a5d9 ccbd
00000240: 943a cd3d 9336 d63c ee48 f33d 9561 16be
00000250: 1f09 bebb b0ea 9bbe b5ee 623d 9f47 823d
00000260: 4db7 843d bb08 d03c 60c4 edbd 3af3 8a3b
00000270: ec18 ffbb 4c8e 21bd 99af 713c f804 54bd
00000280: 7b3f a93b 5b8e 24be 24ce 86bd 52af df3d
00000290: dbee 3fbe 91b9 d93d 59d6 4bbe 52fd 743d
000002a0: d60e a83d f72d 84bd 7d18 c83d aaf7 8e3d
000002b0: d98c 2ebe dfd1 623d 0e40 4dbd 4fca 423e
000002c0: ac38 5bbe 299f bd3d f16b 87bb 7af5 08be
000002d0: 2564 f03c 00a7 febd 7064 2ebd 5aa8 4ebd
000002e0: fafd 9f3d ed0f 48be f682 20bd 5984 e4bd
000002f0: ca81 dbbd 3ad4 b3bd 9524 953d addd 15be
00000300: 4c9c 30be 9eb8 053e 9a2c 61be 8123 083d
00000310: dcc7 793d 0b96 db3d ff89 aa3b 30b1 fa3d
00000320: f634 0ebd b59c f0bd 5ab4 b53d 84c4 823d
00000330: 5011 743d 5720 0fbe 5b0f b6bd aa6f 433d
00000340: c2f3 b83d a936 0c3d e22c e13d 5e25 733d
00000350: cf49 5bbc 3e6b 2b3e 3ebd 1bbd 22db fd3d
00000360: 7890 45be a240 70be 5978 65bc c838 05bd
00000370: a12f 86bd 968b f83d 045c b0bd 5d86 0fbd
00000380: 67e0 86bd fbe4 193d a6c0 febd 20ac e03d
00000390: 66a6 8abd de13 94bd 8a79 0d3d f194 b13d
000003a0: bcf9 bd3d 93b3 1fbe 599f 13be fd39 113d
000003b0: 6aed 993d 8c8a db3c 7ed4 8cbd 18df 9dbe
000003c0: ee5f b83d 6dff 7ebd 8f3a 103c 93a0 6bbd
000003d0: 03a6 d7bd 8247 f23d 2c97 b13d 26ab a13d
000003e0: d769 933d c099 42be f683 efbd a843 21be
000003f0: 9de2 603d 341b 823d 285e 133e ec3f 013a
-0.1424863 -0.064659715 -0.1894209 -0.015849382 -0.06714418 0.10885532 0.094511814 -0.09953255
-0.05123364 -0.036856655 0.012529457 -0.07938228 0.050579652 0.023107355 -0.12551115 -0.013175346
0.022789301 0.15446872 0.19432735 0.092759006 -0.031772144 -0.0056685265 -0.1460633 0.14144701
0.19614583 -0.14153 -0.1452177 -0.02297928 -0.11395513 0.0070526917 0.04092888 -0.0020302685
0.1334385 0.00438098 -0.118357494 0.012502198 -0.26165783 -0.2084254 0.1325567 0.02914524
0.16191548 0.062243264 -0.111656114 0.22806953 0.05683099 0.020791506 0.03602502 0.05039458
-0.17440295 -0.12620814 0.028387398 0.0072854063 -0.28976098 -0.034965716 -0.061529033 0.0369103
-0.08385154 0.031569052 0.17393215 0.15737537 -0.06250097 0.07608317 -0.08320444 -0.005957179
0.12694241 0.19981487 -0.05400534 -0.0095438 0.1482179 -0.23061094 0.18129723 -0.041355155
-0.107963264 -0.099644825 -0.03719525 -0.1666201 -0.045321688 -0.07764027 0.09698152 0.020708302
-0.11586203 0.10222001 0.058446463 0.004679216 0.17215861 -0.062498055 0.069385685 -0.10993079
-0.12749508 0.07837094 0.3588483 0.19570726 -0.0011510672 0.045299694 0.02334804 -0.010614478
-0.18978293 0.039019063 -0.03278446 -0.14740421 0.14678597 0.029125875 0.06929921 0.16035053
-0.082593694 0.060633387 0.010533359 0.10053343 -0.1612946 -0.19495055 -0.021676688 -0.052138444
0.032839477 0.15781903 -0.081703775 -0.07747806 -0.25285158 -0.27742806 -0.04258663 -0.53135824
-0.032743283 0.23053421 -0.099793315 0.027517514 0.20019537 -0.14546907 -0.23466179 -0.08712266
-0.27862045 -0.15693916 0.11055413 0.1286939 -0.22931051 -0.00055088795 -0.099562034 0.07690364
0.12249949 0.08588988 0.08939731 0.07126596 0.0061079906 -0.01724581 -0.053262886 -0.1000245
0.100209385 0.02614907 0.118791446 -0.14685662 -0.005799427 -0.3045249 0.05540343 0.06361317
0.06480274 0.025394788 -0.11609721 0.0042404206 -0.0077849533 -0.039442345 0.014751338 -0.05176255
0.005165038 -0.1606993 -0.06582287 0.109221116 -0.1874346 0.10631097 -0.19905986 0.059811898
0.08205955 -0.064540796 0.09770296 0.06980832 -0.17045917 0.05537593 -0.050109915 0.19022487
-0.21408337 0.09258873 -0.0041327407 -0.13374892 0.029344628 -0.124341965 -0.042576253 -0.05045352
0.07812114 -0.19537325 -0.039187394 -0.11158056 -0.10718115 -0.087807134 0.07282368 -0.14635344
-0.17247123 0.13058707 -0.2198967 0.033236984 0.060981616 0.10721978 0.0052044387 0.12240827
-0.034718476 -0.117486395 0.0887229 0.06385139 0.059586823 -0.1397718 -0.088896476 0.047713913
0.09030868 0.034231815 0.10994889 0.059361808 -0.013384297 0.16740128 -0.038022272 0.12395312
-0.19293392 -0.23462155 -0.014005744 -0.032524854 -0.06552053 0.12135999 -0.086113006 -0.03504025
-0.0658577 0.03757189 -0.124390885 0.1097033 -0.06770019 -0.07230352 0.034539737 0.086709864
0.09276149 -0.15595846 -0.14416255 0.035455693 0.07515986 0.026799463 -0.06876467 -0.3083427
0.09002672 -0.06225531 0.008803024 -0.057526182 -0.10529711 0.11830045 0.08671412 0.07893972
0.07197922 -0.19003963 -0.116950914 -0.15748465 0.054903615 0.06352845 0.14391387 0.00049304846

fc2.bias f4 [64]
00000000: 9c6d 7d3c 9e6b e33d a87d bc3d ab24 90bd
00000010: fb14 573d d0d2 bf3d c3b1 e7ba 258e 94bd
00000020: 6206 853d 75c3 12bd 5174 7bbd 9788 bf3c
00000030: 7f80 253d aa32 153e 821a 80bc 9a22 183e
00000040: e4d1 1cbd 82bb f5bd 89fd 39bb 53b7 e0bd
00000050: 3f6b 133d 1f0d a13c e61a b0bd e0fb e93d
00000060: 684b 1fbd dd3d a63c 04e3 fa3c ee92 aa3b
00000070: 9e04 75bb 76b0 7dbd 6072 533d a36c bbbc
00000080: f2ea 7c3c 5636 0abe 88c5 b43d bfcb c03d
00000090: 1f74 40bc 3b1c 453e 477a c33c 1f3b 923d
000000a0: 6cca b63c e35b 99bd b799 093d 454d bbbb
000000b0: c350 68bd f085 be3c 36bb 253e a2b3 ce3d
000000c0: 6cad 96bd 9276 aa3d 6d69 84bd 9808 eb3b
000000d0: 2487 a33d 2737 813d 371d 3abd 42b8 9fbd
000000e0: ed4b f2bb b185 023e 6df7 d63d aeaf 533d
000000f0: 2821 ccbd 5ec0 183e 93e1 f3bd 0613 893c
0.015468027 0.11104511 0.092036545 -0.07038244 0.052510243 0.09366381 -0.0017676878 -0.072536744
0.06495358 -0.035830934 -0.061390225 0.02338056 0.040405747 0.14570108 -0.01563764 0.1485695
-0.038286105 -0.11998655 -0.0028379878 -0.10972466 0.03599095 0.019659577 -0.085988805 0.114249945
-0.038890272 0.02029317 0.030625828 0.0052055037 -0.0037386785 -0.061935864 0.05162275 -0.02287895
0.015436875 -0.1349729 0.088267386 0.094138615 -0.011746435 0.1924905 0.023862017 0.07140183
0.02231332 -0.07488229 0.03359386 -0.0057159984 -0.056717645 0.023257226 0.16184697 0.10092856
-0.07357296 0.08323397 -0.06465421 0.0071726553 0.079847604 0.063093476 -0.045438018 -0.07798816
-0.007394305 0.12746312 0.104964115 0.051681213 -0.099672616 0.14917132 -0.11908259 0.016732704

fc3.weight f4 [32, 64]
00000000: c91d c33d 5311 953d 3794 58bd 7d13 72bd
00000010: 8be2 17bd 4959 4b3e b718 5eba f476 e93c
00000020: 5255 053d 6068 f83d e768 16bc 829a 67be
00000030: ca6d 5d3d c2a4 54be 3612 5abe 9059 193e
00000040: 8d72 0abd c0e0 943d 131c 88bc de96 123d
00000050: 435b 0ebe 82df 413e 5640 353e 1577 153e
00000060: 7394 9d3b 8f5e 90bc a8a4 5dbe 7690 95bd
00000070: 56eb 3dbe 6046 a9bd b2f8 773e 8f40 3cbe
00000080: bfcd 723e 7a60 923d 2b36 10be 4c1f c13d
00000090: a6f4 213e b5ba f5bb 2957 f7bc 724c 3abe
000000a0: f0db 83be c4d7 963e f5a6 96bd 57d2 00be
000000b0: e71e 28be 4419 a73c 0ca8 42be 8734 ee3d
000000c0: 1f76 ae3d 68c1 2abc c3c3 963d e553 cb3c
000000d0: 41d3 e4bd 4da0 98be 4b24 dabd d8c2 863e
000000e0: 4863 e9bc e183 883e f545 413d 213f 30be
000000f0: 6ae8 7ebd 8b0f 903c ee9f bbbd ace5 8a3e
00000100: 166f b43d d622 83be 07ad 9f3c 9171 9ebd
00000110: d2a6 71be 6007 b13d edd1 97bc 0cd2 f03d
00000120: 5920 ae3d 1ba9 47be 51bf 1eba bf9b 993d
00000130: 8618 4c3b 0a02 9cbd e6af 73bc db40 d4bc
00000140: 78f2 103e 3f6c cdbc 2bd3 533d a9a9 b2be
00000150: 96da c7bd 3656 893c d2e1 b7bd bf36 ae3e
00000160: abe8 3abe 8787 893e f05a 57be 0b3d 4c3d
00000170: fdcd e93d 469e 3c3e 860c 283d 7ad7 42bd
00000180: 167f 013d 9934 da3d 964a 7abc 8e38 30be
00000190: 5945 25be cec1 e3bd b80e 8d3e 696f 463e
000001a0: 1c33 5b3e 1e8a ccbd c68c b9be d3d3 ab3c
000001b0: 6dd6 53be f3f3 b73e c28c 5dbe aee9 eabc
000001c0: 5f35 8bbe 7677 743b 08df 6ebc f766 ddbc
000001d0: b96c 293e b6da d93c 86dd 16be 8224 a23d
000001e0: 9374 323e 3465 0cbe f473 f9bd a32b 793e
000001f0: 07d3 a4bd fe2b adbc 3555 4b3c 5242 bc3d
00000200: 0e43 2fbe 8ad4 873b 401d 583e 037e 5abe
00000210: 773e 283d 91be 8dbe 3bc5 6bbe ba19 b2bd
00000220: 882d 52be 3f23 0dbe eec1 ffbc 12ab 9a3e
00000230: d839 013e d53e 1a3e ef37 d43d 6934 953e
00000240: 78fe 173e e94f d2bb 9970 18bd 5b3e 11be
00000250: f25f d93d 884a a63d 6975 ccbe ec70 183e
00000260: 43ae a63d 515f 063e b7f1 433a 6670 b93c
00000270: 5349 703e cec1 bdbb 6aeb c4bd 38d2 bc3e
00000280: 87d0 3b3d 7609 bebd 4dd0 a6bd 363e 36be
00000290: 6a30 8b3b a54a 273e d904 46be 5737 0c3e
000002a0: 1d53 383d c5f3 a53c 4ad4 71be 288c 40be
000002b0: 13b9 283e 36fb b2bd 3608 673d a7fa 793e
000002c0: 0c05 9bbd 7d53 fcbd a6ea 04be 829d 003d
000002d0: db72 f53d a5f0 fb3d 7bfc 043e ba8b 13be
000002e0: a26a 81be fcc6 553d 424e f63c e6d6 35bd
000002f0: f54a 3cbd 044e c73d e169 9c3e 6179 3e3e
00000300: 7ca5 25be 5999 6abe 9f12 09bc 99eb 7fbe
00000310: 977f 113e f038 0a3e 19d0 a6bd 8a77 363c
00000320: ea0f 87bd fcce 0c3c eff9 963d 0ceb ed3d
00000330: 9f39 8f3d a996 163b b56c 18be 4e01 24be
00000340: f1bf c33d 2610 34bd fffd 8ebd 2a6b 4dbc
00000350: 3a3b 173e 778a 953c 39f6 6f3e 0c7a 893e
00000360: 3a55 423e 86e7 5abe 1e62 d43b e716 7f3e
00000370: e85a 5abe e908 cf3b 9953 663e 7a3c 38be
00000380: e2df ce3b 8ed9 af3d 0f21 ec3d 5eb1 9ebc
00000390: c940 f9bd a5b3 b0bc 23f1 2a3e 64d0 a1be
000003a0: e965 da3d ea99 d03e d2ce 913d 22c4 d03c
000003b0: e55d d43b f7b4 6a3d ea91 a23d bf8b b73c
000003c0: 7ee6 95be 4ee3 8fbd bb95 1b3d 2849 49bd
000003d0: a964 b0bd b256 233e e484 543e dea6 893d
000003e0: 8dda 013d 966b 99bc f91a 3d3d 878d 25be
000003f0: ed02 783d 6111 9ebc 7463 ac3e f39b 2f3d
0.095271654 0.07278695 -0.052875724 -0.059100617 -0.037081283 0.19858278 -0.0008472311 0.028499104
0.03255207 0.12129283 -0.009180284 -0.22617534 0.05405978 -0.20765975 -0.2129601 0.14975572
-0.03380065 0.0726943 -0.01661495 0.03578841 -0.13902001 0.18932918 0.17700323 0.14596207
0.0048089563 -0.017623214 -0.21644843 -0.07302944 -0.18546805 -0.08265376 0.24215963 -0.18384002
0.23711298 0.07147308 -0.14083163 0.094297975 0.15815982 -0.007499064 -0.030192928 -0.18193224
-0.25753736 0.2946149 -0.07356063 -0.12580238 -0.16418038 0.02039779 -0.19009417 0.116311125
0.085186236 -0.010422088 0.07361557 0.024820277 -0.11173106 -0.298098 -0.106514536 0.2632053
-0.028489724 0.26663116 0.047185857 -0.17211582 -0.062233366 0.017585536 -0.091613635 0.2712835
0.088102505 -0.25612515 0.019491686 -0.07736505 -0.23598793 0.08643985 -0.018532718 0.11758813
0.085022636 -0.19498102 -0.000605573 0.07500409 0.0031142547 -0.076175764 -0.01487348 -0.025909832
0.14154994 -0.02507603 0.051715057 -0.34895065 -0.09758489 0.016764741 -0.08978619 0.34026143
-0.18252818 0.26861212 -0.21030784 0.049862903 0.11416242 0.18419752 0.04102757 -0.047568776
0.03161534 0.106545635 -0.015276572 -0.17209074 -0.16139735 -0.1112095 0.27550292 0.19378437
0.21406215 -0.09987281 -0.36240214 0.02097503 -0.20687266 0.35928306 -0.21635726 -0.02867588
-0.27189156 0.003730265 -0.014579542 -0.027026637 0.1654538 0.026593547 -0.14732942 0.079171196
0.17427282 -0.13710481 -0.121803194 0.24333052 -0.08048063 -0.021139141 0.012410452 0.09192337
-0.17115423 0.0041452097 0.21104908 -0.21337132 0.041075196 -0.27684453 -0.23024456 -0.08696313
-0.20525181 -0.13782977 -0.031220403 0.3020864 0.12619722 0.15063031 0.10362231 0.29141548
0.14843166 -0.0064182174 -0.037216756 -0.14183943 0.10614003 0.081196845 -0.39933327 0.14886826
0.081387065 0.13122298 0.0007474678 0.022636604 0.23465471 -0.0057909256 -0.09615214 0.36879134
0.045853164 -0.09279148 -0.08145199 -0.17797169 0.0042477148 0.16337068 -0.19337787 0.13692985
0.045001138 0.02025784 -0.23616138 -0.18803465 0.1647685 -0.08739321 0.056404315 0.24412023
-0.07569322 -0.123206116 -0.12980136 0.03140021 0.119847976 0.12301759 0.12986939 -0.1440877
-0.25276667 0.05219172 0.030066613 -0.044394396 -0.045969922 0.09731677 0.3054953 0.1860099
-0.16176409 -0.2291006 -0.008366256 -0.24992217 0.14208828 0.13498282 -0.0814516 0.011136899
-0.06594832 0.008594271 0.0737189 0.11617097 0.06993412 0.0022977984 -0.14885218 -0.16016123
0.09558094 -0.043960713 -0.0698204 -0.012537757 0.14768687 0.018254502 0.2343377 0.26850927
0.18977824 -0.21377382 0.006481423 0.2491108 -0.2132374 0.006318201 0.22492827 -0.1799182
0.00631331 0.08586417 0.11529743 -0.019371685 -0.1217056 -0.021570036 0.16693549 -0.31604302
0.10663969 0.40742427 0.07119526 0.025484148 0.0064809197 0.057301488 0.07937987 0.022405503
-0.29277414 -0.07025777 0.03798459 -0.049142033 -0.086129494 0.1595104 0.20753819 0.067212805
0.031702567 -0.018728059 0.0461683 -0.1616727 0.060549665 -0.019295396 0.33669627 0.042873334

fc3.bias f4 [32]
00000000: f301 5bbd f1a5 1cbd 0d3b 7b3e f546 f7bb
00000010: 618c b1bd 38f2 49bc 5b7c 0b3d b69e 3b3e
00000020: ce0c 05bd 421a 3a3e 906b 15be 3487 453e
00000030: f7d5 3bbd 7f11 dcbd ce50 983d 540e a13e
00000040: c52c bd3d b0c0 13be 0897 d83d 114a a73d
00000050: ae8d e5bd 36ec b33d bcb3 27bd e652 023e
00000060: 5574 00be 992e c73c 18d9 6b3e 764e 3cbd
00000070: 5d17 b93d daf1 8b3e c890 273e 6df1 463e
-0.053468656 -0.03824419 0.24534245 -0.0075463005 -0.08669353 -0.012325816 0.03405414 0.18322262
-0.032482915 0.18174079 -0.14591813 0.19289857 -0.04585835 -0.107455246 0.07437287 0.31456244
0.09237055 -0.14428973 0.10575682 0.08168424 -0.11208664 0.08785288 -0.040942892 0.12726936
-0.12544377 0.024314212 0.23032033 -0.045973264 0.09037659 0.27332956 0.16363823 0.19428034

fc4.weight f4 [4, 32]
00000000: 9d14 273e 198c 01be cb18 5d3e 361a 9f3b
00000010: 922e 58be d8ba e83c cce2 b8be 0a1e 073e
00000020: 4dac c1be 1d61 153e 4bec 5bbe 302b 843e
00000030: 310d 4cbd 0f9e d1bd 48ae 803d b0cb f53d
00000040: 339e 8b3e 6d90 0abd 9dfe 9abe e27c 4ebe
00000050: ecae 413d d2ce e23c 0d93 f1bd 6192 273e
00000060: a3ed 0bbc 90a0 113d c081 ca3e 86ad b2be
00000070: 8655 363d 1847 bb3d 77ac b13d e874 863e
00000080: 541f 143c e987 9a3e 0b9b 673e d72b b73b
00000090: d43c d2bd 61ac 9abe f6bc 49be c8e0 ba3e
000000a0: aa55 fbbd 8161 edbc 6379 17be 85ee 1d3e
000000b0: ed7d 8abe c609 f13e aa59 b1bd e000 4e3e
000000c0: 143c 943d 2214 abbd 7eaf f7bd 82ff 1abb
000000d0: 09b4 313c 4cb7 8d3e 556a 8ebb 781c 1e3e
000000e0: e5d3 773e 264e cc3e 487f 663e c420 143e
000000f0: d7be eabd 053d d23d 1708 bbbb d3da 1c3e
00000100: ba33 5c3e bb7a 96be 5575 293e e6d0 e2bd
00000110: 3062 91be 0cca 19be 4e6d 59be 33db d73e
00000120: 4741 a9bd 9010 e73d c1db 793e d363 c33e
00000130: a0a0 ab3d eb87 92be 80fb bf3d 2e19 3b3e
00000140: ff92 823e fb7f 043e cec6 36be 644c cc3d
00000150: 7ae7 ad3d 229b 0bbf d520 cbbe 2246 93bd
00000160: 0331 41bb 3658 383d 80b1 2d3e 5c6c 373e
00000170: d1a1 493e cd40 653e 3215 12bf e619 6cbb
00000180: f9eb b13e fe38 94bd aa2a 8c3e 09b2 3e3e
00000190: 2d06 69be fdb5 303d b5db d0bd 19b7 2ebd
000001a0: 5bc0 593e 93b7 ab3e 4a8e f9bd 5e70 b9bd
000001b0: c9d6 07bd f83e 653d 0b69 c5bd 5986 543e
000001c0: 7e0d 063e 9cea fbbd 0a7c a3be ea8c c3bc
000001d0: 9e95 9fbd 2adb 93be ba07 bb3e b1b7 67be
000001e0: 5ed1 ab3e ad9a 823e 7321 eabd 59fa ebbd
000001f0: 24be ecbe 0fc8 843e 10d8 abbd 3ed8 623e
0.16316457 -0.126511 0.21591489 0.0048554195 -0.21111515 0.028409407 -0.36110532 0.13195053
-0.37826768 0.14587827 -0.21476857 0.258142 -0.049817268 -0.102352254 0.062832415 0.12001741
0.27269134 -0.03382914 -0.3027238 -0.20164827 0.04728596 0.02768651 -0.11795626 0.16364433
-0.008540544 0.035553515 0.39552116 -0.34898013 0.044515155 0.091444194 0.08675473 0.26261067
0.009040672 0.30181816 0.22617738 0.005589943 -0.10265508 -0.3020964 -0.19700989 0.3649962
-0.122721985 -0.028977158 -0.14792399 0.15423019 -0.270492 0.4707777 -0.0865968 0.20117521
0.072380215 -0.083534494 -0.12094019 -0.002365083 0.010846146 0.27678907 -0.004346172 0.15440547
0.24201925 0.39903373 0.22509491 0.14465624 -0.11462181 0.10265545 -0.0057077515 0.1531785
0.21504107 -0.2939051 0.16548665 -0.110750005 -0.28395224 -0.15018481 -0.21233103 0.42159423
-0.08264404 0.11282456 0.24400236 0.38162097 0.08380246 -0.28619322 0.09374142 0.18271324
0.25502774 0.12939446 -0.17849275 0.09975508 0.08491416 -0.5453359 -0.39673486 -0.07191111
-0.0029478676 0.045006 0.16962242 0.1791243 0.19690634 0.22388001 -0.5706359 -0.003602618
0.34750345 -0.07237433 0.273763 0.18622603 -0.22756262 0.043142308 -0.10198156 -0.042655084
0.21264784 0.33538494 -0.121853426 -0.090546355 -0.03316382 0.055968255 -0.09639176 0.20754375
0.13091084 -0.123006076 -0.31930572 -0.023870904 -0.07792209 -0.28878146 0.36529332 -0.22628666
0.33558172 0.25508633 -0.11432161 -0.115223594 -0.46238816 0.25933883 -0.0839082 0.22152802

fc4.bias f4 [4]
00000000: 89d8 cb3e 3f44 883e dfd6 783e c339 203e
0.3981364 0.26614568 0.24300717 0.15647034
