p2_continuous-control/checkpoint_actor.pth (torch_old, 174295 bytes, 10 tensors)

fc1.weight f4 [256, 33]
-0.0031051438 -0.05283388 -0.039238703 0.12611811 -0.30319133 0.19573344 -0.00098929 -0.014167845
-0.016609449 -0.032681625 -0.014858799 0.036222547 0.01223558 0.029389638 0.08532538 0.056837298
-0.07241169 -0.07798259 -0.16040759 0.053747125 0.008177125 -8.64853e-05 0.02112024 0.0077278987
-0.007845172 0.019726738 -0.048289947 0.18352498 -0.104105376 0.048113935 -0.08187649 0.027838401
0.22335453 0.07647791 0.020854937 0.05062996 -0.21915522 0.1259797 -0.099909484 -0.051700998
0.0020741706 0.043741606 0.041544285 0.019450597 -0.011151323 -0.03027751 -0.07159526 -0.05615402
-0.042267572 -0.055450242 -0.00074857956 0.09092587 0.083692685 0.01236698 0.043330863 0.048388105
-0.045480315 -0.0071064546 0.007950315 -0.04550933 0.06980846 -0.078175575 0.028211713 -0.070923135
-0.018551007 0.21961117 -0.023691868 -0.0124590425 0.02552448 0.033589635 -0.021527003 -0.091126435
0.046839453 0.105296336 -0.085445985 -0.0110060545 0.025819626 -0.07158224 -0.008350672 -0.021752799
-0.09691614 0.011601425 -0.13026117 0.035198703 0.3207097 -0.14115857 -0.025368154 0.007508928
-0.06133026 -0.0986887 -0.063604414 -0.065388195 0.008040863 0.15847139 -0.0238953 -0.05222831
-0.066317126 0.03003043 -0.29375342 0.0715356 -0.06578101 0.026962472 -0.04293098 0.06935874
-0.07035139 -0.038375713 -0.060673434 -0.04668571 0.10466517 0.06176023 -0.0026263234 -0.0032595014
0.050074633 0.02460686 0.0454081 0.05647257 0.11363834 -0.10768161 -0.3549652 -0.007051485
0.052729655 0.028175665 0.025738988 -0.017960543 0.045870323 -0.088649675 -0.04967486 -0.023835478
-0.026940055 0.0897985 -0.010354072 0.09697736 -0.10071824 0.026700763 0.029372737 -0.11494197
-0.0077841156 0.24829873 0.14967749 0.00912808 -0.031875845 -0.052537788 -0.009800719 0.06334704
-0.02543657 0.033204433 -0.043587618 -0.035896104 0.115538485 0.13632733 -0.13406613 -0.005109498
-0.038337845 -0.041405473 -0.012620761 0.036928296 0.018273087 -0.0013105798 0.07986877 0.025151249
0.11193966 -0.014978066 0.0139955515 0.00052351505 -0.061786514 -0.013760832 -0.003430873 0.02921449
-0.0036342454 0.15256183 0.18878062 -0.14824167 -0.01630622 -0.07529599 0.09655811 -0.010400721
0.023893926 0.02561708 -0.07648854 -0.029786306 0.011274945 -0.113371015 -0.13393229 -0.12454507
-0.0019799126 0.010539916 -0.03092885 -0.012424767 -0.026225766 -0.026213663 0.0067975726 0.015877461
0.14115216 0.023961222 -0.03272377 -0.12536436 0.022225186 -0.38973215 -0.00704742 0.07973628
-0.001649205 0.060121242 0.05589396 0.26435742 0.16147953 0.052344363 0.06020083 -0.05974655
-0.0065897694 -0.0033880593 0.0022273117 -0.03001915 -0.12711513 -0.052446984 0.14610542 -0.16430259
0.1599087 -0.23947176 0.0055156695 -0.04360105 -0.042887475 -0.013145417 -0.061871946 -0.01577013
0.007461233 0.10995334 0.034212526 0.019476086 -0.12896027 -0.006958641 -0.14290918 0.048447322
0.0068857493 0.0535387 0.02274101 -0.1371554 0.024178738 -0.1655745 0.018222233 0.08386721
-0.08186384 0.028654568 0.055038232 -0.006777459 0.053451624 0.05613587 0.018585464 0.11198807
0.19349387 -0.28688076 0.08126009 0.018041287 -0.014885857 -0.023764178 0.045689248 0.0063475175
00000000: ab7f 4bbb 5768 58bd c3b8 20bd 1b25 013e
00000010: e53b 9bbe 596e 483e 10ab 81ba 4020 68bc
00000020: 8a10 88bc 2bdd 05bd 5272 73bc 185e 143d
00000030: be77 483c 8ac2 f03c 13bf ae3d 3ace 683d
00000040: 954c 94bd 56b5 9fbd e341 24be f225 5c3d
00000050: 59f9 053c 715f b5b8 5b04 ad3c 503a fd3b
00000060: 0989 00bc f899 a13c aecb 45bd f9ed 3b3e
00000070: 3335 d5bd 1e13 453d dcae a7bd 5c0d e43c
00000080: 0db7 643e 73a0 9c3d f9d7 aa3c 5c61 4f3d
00000090: 3a6a 60be d300 013e 589d ccbd 6dc4 53bd
000000a0: cfee 073b 662a 333d 572a 2a3d dc56 9f3c
000000b0: 0ab4 36bc 8a08 f8bc 89a0 92bd c201 66bd
000000c0: c320 2dbd cb1f 63bd 533c 44ba 5837 ba3d
000000d0: 1267 ab3d e09e 4a3c b47b 313d 9b32 463d
000000e0: 9149 3abd 43dd e8bb 0a42 023c fe67 3abd
000000f0: bdf7 8e3d 841a a0bd 401c e73c 2640 91bd
00000100: 48f8 97bc c0e1 603e 7315 c2bc 0321 4cbc
00000110: b718 d13c 4995 093d 6659 b0bc 7fa0 babd
00000120: bada 3f3d 9ba5 d73d 4efe aebd bd52 34bc
00000130: ae83 d33c b699 92bd 42d1 08bc ed32 b2bc
00000140: f87b c6bd e713 3e3c 2f63 05be 842c 103d
00000150: 1034 a43e df8b 10be e0d0 cfbc 740d f63b
00000160: 7035 7bbd 4d1d cabd 0843 82bd 3fea 85bd
00000170: d3bd 033c 5346 223e 14c0 c3bc 5aed 55bd
00000180: 46d1 87bd 6002 f63c d966 96be 4281 923d
00000190: 32b8 86bd 67e0 dc3c 65d8 2fbd f40b 8e3d
000001a0: 6414 90bd da2f 1dbd b584 78bd 8439 3fbd
000001b0: b15a d63d 4cf8 7c3d 651e 2cbb 5c9d 55bb
000001c0: 0f1b 4d3d 5394 c93c d8fd 393d c84f 673d
000001d0: 38bb e83d 2d88 dcbd 00be b5be 2510 e7bb
000001e0: 0dfb 573d a7d0 e63c 92da d23c fd21 93bc
000001f0: 85e2 3b3d f68d b5bd de77 4bbd 9f42 c3bc
00000200: 64b1 dcbc 47e8 b73d 20a4 29bc 119c c63d
00000210: 5d45 cebd 8fbb da3c 189f f03c b266 ebbd
00000220: e511 ffbb 0642 7e3e 0e45 193e f18d 153c
00000230: 3f90 02bd dd31 57bd 3293 20bc 18bc 813d
00000240: 5b60 d0bc 5f01 083d ee88 32bd cb07 13bd
00000250: 719f ec3d 6499 0b3e a248 09be 936d a7bb
00000260: 2508 1dbd c998 29bd 4fc7 4ebc 2042 173d
00000270: 71b1 953c c3c7 abba 3d92 a33d fe09 ce3c
00000280: 9f40 e53d 9066 75bc 994d 653c 803c 093a
00000290: db13 7dbd 1d75 61bc 7fd8 60bb 3a53 ef3c
000002a0: 852c 6ebb 2b39 1c3e b54f 413e aacc 17be
000002b0: 9f94 85bc c934 9abd 42c0 c53d c967 2abc
000002c0: 32bd c33c e9da d13c 06a6 9cbd 6902 f4bc
000002d0: 8cba 383c 102f e8bd 8c25 09be 7c11 ffbd
000002e0: 6cc1 01bb 9daf 2c3c 805e fdbc 4091 4bbc
000002f0: 6bd7 d6bc 09be d6bc 2cbe de3b 7311 823c
00000300: 318a 103e 534a c43c 5c09 06bd 845f 00be
00000310: 9811 b63c f98a c7be 0bee e6bb c64c a33d
00000320: 232a d8ba b141 763d 11f1 643d db59 873e
00000330: e45a 253e 0b67 563d 2595 763d ccb8 74bd
00000340: feee d7bb 340a 5ebb 17f8 113b b8ea f5bc
00000350: 782a 02be a6d2 56bd a99c 153e f03e 28be
00000360: 1bbf 233e 1638 75be cabc b43b 0497 32bd
00000370: c7aa 2fbd e05f 57bc 706d 7dbd 5c30 81bc
00000380: 5c7d f43b 372f e13d 6f22 0c3d 508c 9f3c
00000390: 290e 04be 5005 e4bb c956 12be b370 463d
000003a0: daa1 e13b 654b 5b3d 5b4b ba3c 7772 0cbe
000003b0: 7d12 c63c 5d8c 29be cb46 953c 92c2 ab3d
000003c0: 3ba8 a7bd fcbc ea3c c56f 613d 7215 debb
000003d0: 17f0 5a3d baee 653d 8b40 983c 005a e53d
000003e0: 4223 463e 09e2 92be b16b a63d 52cb 933c
000003f0: cfe3 73bc 18ad c2bc a624 3b3d d6fe cf3b

fc1.bias f4 [256]
-0.12546462 -0.021585373 0.006856862 0.18221624 0.07798865 -0.05139808 -0.22289294 -0.009465719
-0.08544909 -0.1921407 0.023713758 0.20202775 -0.30064908 -0.08754486 -0.09457914 0.13898206
0.011310015 -0.056332026 0.11505343 -0.27326342 -0.176396 -0.020552646 -0.0005229988 0.0011124414
-0.19073209 0.07547441 -0.12762041 -0.19097288 -0.13616823 -0.26285672 -0.20664872 -0.06579924
0.033255544 -0.23950085 -0.1936525 -0.22852692 -0.060384367 -0.058460973 -0.10244007 -0.24744275
-0.26344347 -0.31197035 0.16140303 0.022722483 -0.06039264 -0.120373204 -0.06314131 0.2175968
-0.0025487053 -0.045848384 -0.19070055 0.014154146 0.20888974 -0.2457175 -0.092507094 0.19984968
-0.12725063 -0.04913931 -0.030957628 -0.17674035 -0.040657006 -0.017909808 -0.12432946 0.13637052
0.034502927 0.023035621 0.06160087 -0.091448195 0.13137314 0.0023832582 -0.019724987 -0.2761962
-0.15501146 0.058079727 -0.06756319 -0.31626675 -0.11753724 0.020321654 -0.0005665205 -0.12664239
0.058915365 -0.21427926 -0.07449012 -0.19475491 0.047773205 -0.22204114 -0.03692447 -0.14749832
0.085317545 -0.07309021 -0.09963493 0.049478482 -0.086592816 -0.22354952 -0.18603602 -0.12123349
-0.013182483 -0.18883333 0.04728685 0.03104768 0.0037257131 -0.012014052 0.05570104 -0.0046082237
0.0052743033 -0.16313648 -0.17793074 -0.120755486 -0.008468685 0.12194496 -0.1645324 0.028068596
0.027616803 -0.04079357 -0.09464926 -0.06147211 -0.16585244 0.11493937 -0.09044843 -0.0625438
-0.15553764 -0.08448937 0.012709585 -0.085323505 -0.16060315 0.003926397 -0.1840823 -0.15705438
-0.059025683 0.034649834 0.09469769 -0.2861078 -0.024357738 -0.19313227 -0.17161098 0.05076823
0.028116714 -0.10914777 0.06562942 -0.046179354 -0.0710951 -0.034755196 -0.21873829 -0.17619109
-0.36271772 -0.085549794 -0.065356076 -0.15592586 -0.2141644 -0.18076013 -0.021375682 0.08094437
-0.20369561 0.037394706 -0.19041616 0.18774755 -0.15395634 -0.03502284 -0.19227213 -0.123383716
0.049262527 -0.035267103 0.03132944 -0.067361474 -0.12788287 0.060165502 -0.23214602 -0.105450116
-0.29668295 -0.1505407 -0.13791904 0.1253463 0.10301309 -0.06958563 -0.12028357 -0.105067685
0.078976564 -0.16688372 -0.03349508 0.03764726 -0.1146506 0.03757642 0.096439205 -0.2612246
0.0092219245 -0.14073679 -0.071996264 0.12671764 -0.11728753 -0.111439236 0.009418755 -0.059687097
0.0132656 -0.20292683 0.1836677 -0.04482732 -0.023048958 -0.23801254 -0.16354306 -0.27145806
-0.25823274 -0.13119747 -0.24404953 0.15009333 -0.16374293 0.007232426 -0.09149367 -0.09791559
-0.0861244 -0.21687956 -0.0025929357 -0.027720409 -0.07966593 -0.19813354 -0.07805822 -0.16283219
0.06156393 -0.07111055 -0.052468013 -0.11159088 -0.10040147 -0.09563058 -0.24858019 -0.09254818
0.019717807 0.043465126 -0.07866271 -0.12612298 -0.058722194 0.09952673 -0.10461085 -0.09199979
-0.11376503 -0.30252337 -0.30919623 0.00084320054 0.028207587 -0.10598286 -0.26368293 -0.17794341
-0.08721707 -0.060968556 -0.15255703 -0.12520972 -0.17085333 -0.17789207 -0.25168258 -0.2990491
-0.1719604 -0.14428392 0.083690345 0.15085912 -0.16066578 -0.0718642 -0.18721674 -0.15069689
00000000: cc79 00be cfd3 b0bc 87af e03b e596 3a3e
00000010: 83b8 9f3d cb86 52bd 0c3e 64be 1a16 1bbc
00000020: efff aebd 88c0 44be 5b43 c23c 5de0 4e3e
00000030: adee 99be b84a b3bd b5b2 c1bd 5051 0e3e
00000040: a44d 393c 69bc 66bd 22a1 eb3d 2fe9 8bbe
00000050: 27a1 34be 065e a8bc db19 09ba 57cf 913a
00000060: 464f 43be 5492 9a3d edae 02be 658e 43be
00000070: af6f 0bbe 2895 86be b99b 53be c0c1 86bd
00000080: f736 083d b63f 75be d74c 46be f602 6abe
00000090: 9955 77bd c674 6fbd 19cc d1bd a261 7dbe
000000a0: 10e2 86be 94ba 9fbe d646 253e 8024 ba3c
000000b0: 465e 77bd 3a86 f6bd 3b50 81bd b2d1 5e3e
000000c0: 2e08 27bb 84cb 3bbd 0147 43be cbe6 673c
000000d0: 31e7 553e 5e9d 7bbe 5c74 bdbd 65a5 4c3e
000000e0: fd4d 02be 4d46 49bd da9a fdbc 6cfb 34be
000000f0: f687 26bd 97b7 92bc 72a0 febd b7a4 0b3e
00000100: f152 0d3d 33b5 bc3c 3251 7c3d 3149 bbbd
00000110: ae86 063e 7030 1c3b 4c96 a1bc 9769 8dbe
00000120: 53bb 1ebe 02e5 6d3d 925e 8abd b7ed a1be
00000130: 5db7 f0bd 9979 a63c 8c82 14ba 8bae 01be
00000140: 3d51 713d 066c 5bbe 478e 98bd d56d 47be
00000150: d6ad 433d c15e 63be 1d3e 17bd cd09 17be
00000160: f7ba ae3d 52b0 95bd 660d ccbd f3a9 4a3d
00000170: 9357 b1bd 2aea 64be 3a80 3ebe 4449 f8bd
00000180: 57fb 57bc 865d 41be dbaf 413d b457 fe3c
00000190: 182b 743b 96d6 44bc c626 643d 9500 97bb
000001a0: 10d4 ac3b 400d 27be 7a33 36be a74e f7bd
000001b0: 3dc0 0abc 47be f93d 2e7b 28be 1df0 e53c
000001c0: a23c e23c 2917 27bd 79d7 c1bd 2eca 7bbd
000001d0: 39d5 29be 5565 eb3d 073d b9bd f716 80bd
000001e0: 4245 1fbe c308 adbd dd3b 503c 17be aebd
000001f0: 2775 24be 01a9 803b 1280 3cbe ddd2 20be
00000200: eac4 71bd fcec 0d3d ddf0 c13d b97c 92be
00000210: e189 c7bc 77c4 45be caba 2fbe 59f2 4f3d
00000220: 0655 e63c de88 dfbd b868 863d 9026 3dbd
00000230: 4f9a 91bd 775b 0ebd eefc 5fbe 706b 34be
00000240: 23b6 b9be bb34 afbd 68d9 85bd 07ab 1fbe
00000250: ea4d 5bbe 2f19 39be 0e1c afbc 29c6 a53d
00000260: 9595 50be 312b 193d 74fc 42be e540 403e
00000270: bba6 1dbe 1c74 0fbd fce2 44be 9ab0 fcbd
00000280: 81c7 493d 3d74 10bd 4d53 003d d0f4 89bd
00000290: baf3 02be 1a70 763d b0b7 6dbe 3bf6 d7bd
000002a0: d4e6 97be 5727 1abe a63a 0dbe c85a 003e
000002b0: 87f8 d23d e982 8ebd 3b57 f6bd ba2d d7bd
000002c0: 77be a13d 91e3 2abe 2332 09bd 0334 1a3d
000002d0: efcd eabd bbe9 193d eb81 c53d 3bbf 85be
000002e0: 8e17 173c 4e1d 10be c772 93bd 45c2 013e
000002f0: 7234 f0bd 413a e4bd 1f51 1a3c 757a 74bd
00000300: f657 593c 0dcc 4fbe 6313 3c3e da9c 37bd
00000310: 2bd1 bcbc 8fb9 73be d577 27be 8dfc 8abe
00000320: 1537 84be a158 06be 1fe8 79be 11b2 193e
00000330: 3aac 27be fdfd ec3b 0961 bbbd f887 c8bd
00000340: fd61 b0bd ad15 5ebe 3eee 29bb e915 e3bc
00000350: e427 a3bd 85e3 4abe fddc 9fbd 7bbd 26be
00000360: 762a 7c3d 68a2 91bd b3e8 56bd c289 e4bd
00000370: 499f cdbd f7d9 c3bd ce8b 7ebe e689 bdbd
00000380: 3d87 a13c 7d08 323d ea19 a1bd 6226 01be
00000390: af86 70bd acd4 cb3d 373e d6bd 636a bcbd
000003a0: a4fd e8bd 58e4 9abe f84e 9ebe 3b0a 5d3a
000003b0: 9913 e73c 8b0d d9bd 7301 87be cc36 36be
000003c0: dd9e b2bd 2aba 79bd e937 1cbe fa36 00be
000003d0: 2df4 2ebe 5729 36be 8adc 80be f71c 99be
000003e0: 6316 30be 2abf 13be d865 ab3d d07a 1a3e
000003f0: 9285 24be 8a2d 93bd bfb5 3fbe 4950 1abe

fc2.weight f4 [128, 256]
-0.27900445 0.0682514 0.08712977 -0.019910362 0.05232387 0.06353934 -0.034910012 -0.117681205
0.058578543 0.058082953 -0.089336134 0.049470633 -0.12313887 0.024962114 -0.18673433 -0.058409866
-0.24370939 0.14120549 0.072985105 0.10025764 -0.12026431 0.1999965 0.066133946 -0.26265988
0.02370887 0.10405537 0.07939452 0.10589056 0.017218197 -0.19720641 -0.09874514 0.09138879
0.2581568 0.04331254 -0.035692655 0.035604633 -0.09456819 -0.0285729 0.0690159 -0.04031329
-0.13955714 -0.236143 0.024098953 -0.07278226 -0.17291681 0.17471196 0.060408477 -0.30603886
0.11429772 0.0783641 0.09979416 -0.11025858 0.044579852 0.010400304 0.009891954 -0.10516877
0.051840074 0.052798066 -0.07758971 -0.08244523 0.07536385 0.04689679 0.017153228 -0.030930115
-0.04716564 -0.13746676 -0.17367287 -0.14270449 -0.116895266 0.040756617 -0.03292672 0.08509682
-0.13846356 0.00620801 -0.079646096 -0.006770114 -0.057222188 -0.2001445 -0.0029200518 0.1353452
-0.044692956 0.044694263 -0.052751362 -0.105450034 -0.050117142 0.052614767 -0.025434343 0.11890199
0.14589731 -0.20840377 0.1005811 0.18194796 -0.085621946 -0.14846557 0.07815956 -0.2588491
-0.074283645 -0.1085745 -0.13130477 -0.18310581 0.14308636 0.082863666 0.07716273 0.08961822
-0.053597227 -0.085413255 -0.044375934 -0.12561834 -0.026076969 -0.07281847 -0.056524523 0.040395107
0.10117426 0.051025335 -0.33468863 0.04149201 -0.1327415 0.07625282 -0.32613906 0.100062236
0.001219318 0.0479079 -0.038402174 0.014916856 -0.032017507 -0.36857736 -0.104768 0.015158919
0.08416999 -0.13549867 0.12019065 -0.10583397 0.16416472 -0.1231965 -0.011164472 0.05230645
0.0037815014 -0.20123097 -0.09278138 -0.16224323 -0.025108684 0.120548956 0.041357137 0.14620082
-0.1522898 -0.2773382 -0.021015761 -0.024381578 -0.15623635 0.14020668 -0.1698548 0.3027186
-0.08553381 0.16791107 -0.03826966 -0.0410938 0.013078369 -0.1692716 -0.20411508 0.10490408
0.16731949 -0.2524563 -0.10977088 -0.028339546 0.010907231 -0.04970846 -0.25798836 -0.0962883
-0.082108885 0.16788076 -0.27389348 0.19015177 0.033854518 -0.02407372 0.07903026 0.020850562
0.087969184 -0.03823801 0.023003517 -0.30084834 -0.03812813 0.12238995 -0.08935843 -0.06529261
0.11018131 0.006285097 -0.19611086 -0.01827622 0.17103098 -0.10897338 0.12263375 0.04919104
-0.14286785 -0.3400132 -0.1651893 -0.020300366 -0.05056154 -0.03711275 0.0065599587 -0.12666456
0.0115118055 0.13474184 0.058880143 -0.020176535 -0.021791458 -0.0022872826 -0.062020294 -0.107640795
-0.017494593 0.10285739 0.033556122 0.04097543 0.05632085 0.054732893 0.013185672 7.705068e-05
-0.028091604 0.0846428 -0.065421075 0.018307667 0.020528154 -0.30324394 -0.06577576 -0.031194681
-0.16660288 -0.11541917 0.10681381 -0.13202733 -0.021549826 0.03903445 0.20986341 -0.020317728
0.02543234 -0.11106875 0.1866408 0.02825584 -0.020181403 0.038543317 -0.35334358 0.0019446495
0.06418404 -0.08309808 -0.0065888013 -0.24998876 -0.016683476 -0.07500528 -0.0757764 0.06385005
-0.019076595 0.14642404 0.1087779 0.04416006 -0.0075201252 0.047450993 0.09351074 -0.05807109
00000000: acd9 8ebe 64c7 8b3d 1871 b23d 0e1b a3bc
00000010: 8e51 563d ea20 823d cdfd 0ebd d802 f1bd
00000020: 0ef0 6f3d 64e8 6d3d ddf5 b6bd b8a1 4a3d
00000030: 3b30 fcbd 597d cc3c 4937 3fbe 2f3f 6fbd
00000040: f48e 79be 2c98 103e 3779 953d e153 cd3d
00000050: 224d f6bd e2cb 4c3e 3c71 873d 5b7b 86be
00000060: 1b39 c23c fb1a d53d 9899 a23d 26dd d83d
00000070: 2d0d 8d3c 7af0 49be e43a cabd 0c2a bb3d
00000080: 212d 843e 7d68 313d 7632 12bd 2ad6 113d
00000090: f8ac c1bd b711 eabc 3558 8d3d 8c1f 25bd
000000a0: 11e8 0ebe 78cf 71be 2b6b c53c de0e 95bd
000000b0: 1b11 31be b1e7 323e e16e 773d 20b1 9cbe
000000c0: ec14 ea3d 5b7d a03d e160 cc3d 40cf e1bd
000000d0: 5d99 363d 0966 2a3c dd11 223c b962 d7bd
000000e0: 4256 543d c942 583d 5be7 9ebd 0bd9 a8bd
000000f0: 5d58 9a3d d916 403d ed84 8c3c 2761 fdbc
00000100: c230 41bd 16c4 0cbe 4dd7 31be 2021 12be
00000110: c966 efbd 69f0 263d 2bde 06bd 3e47 ae3d
00000120: 64c9 0dbe 906c cb3b 7e1d a3bd d5d7 ddbb
00000130: d061 6abd aef2 4cbe 575e 3fbb ef97 0a3e
00000140: f60f 37bd 5511 373d d011 58bd 30f6 d7bd
00000150: a247 4dbd 9582 573d af5b d0bc e382 f33d
00000160: 1b66 153e cc67 55be 77fd cd3d 9150 3a3e
00000170: 8f5a afbd 5c07 18be 1f12 a03d df87 84be
00000180: 0622 98bd 4f5c debd c274 06be 1780 3bbe
00000190: 3b85 123e 6db4 a93d 7e07 9e3d c289 b73d
000001a0: c488 5bbd 25ed aebd 8ac3 35bd 18a2 00be
000001b0: 5e9f d5bc da21 95bd 4286 67bd 5775 253d
000001c0: 7334 cf3d f1ff 503d 4f5c abbe 87f3 293d
000001d0: 63ed 07be 702a 9c3d b3fb a6be 6eed cc3d
000001e0: 86d1 9f3a 133b 443d 994b 1dbd d465 743c
000001f0: ca24 03bd 2cb6 bcbe 9b90 d6bd 1d5d 783c
00000200: 5161 ac3d 2ac0 0abe 8426 f63d 7bbf d8bd
00000210: cc1a 283e 724e fcbd 31eb 36bc 4a3f 563d
00000220: 11d3 773b 7e0f 4ebe 2a04 bebd 1723 26be
00000230: bab0 cdbc 5fe2 f63d 1a66 293d abb5 153e
00000240: dbf1 1bbe 46ff 8dbe 3f29 acbc e0bb c7bc
00000250: 6cfc 1fbe 5792 0f3e 6bee 2dbe effd 9a3e
00000260: 5a2c afbd e1f0 2b3e a6c0 1cbd f951 28bd
00000270: a846 563c 8955 2dbe 8b03 51be f3d7 d63d
00000280: cd55 2b3e f441 81be 8ecf e0bd 5628 e8bc
00000290: 3eb4 323c 199b 4bbd 0d17 84be cd32 c5bd
000002a0: b428 a8bd efe8 2b3e c43b 8cbe 25b7 423e
000002b0: 09ab 0a3d 4036 c5bc 9eda a13d ccce aa3c
000002c0: 3029 b43d 769f 1cbd df71 bc3c cb08 9abe
000002d0: 3e2c 1cbd 95a7 fa3d 8d01 b7bd 22b8 85bd
000002e0: bda6 e13d 37f3 cd3b 49d1 48be 03b8 95bc
000002f0: bf22 2f3e 6f2d dfbd 6727 fb3d 8b7c 493d
00000300: f34b 12be 3616 aebe 6227 29be f44c a6bc
00000310: 9e19 4fbd 8a03 18bd ecf4 d63b 5bb4 01be
00000320: 039c 3c3c c4f9 093e 4e2c 713d 4349 a5bc
00000330: 0084 b2bc 3ce6 15bb fe08 7ebd c772 dcbd
00000340: d250 8fbc e5a6 d23d 2572 093d dad5 273d
00000350: b1b0 663d 992f 603d b808 583c 4596 a138
00000360: 5d20 e6bc 3459 ad3d 7cfb 85bd f6f9 953c
00000370: a92a a83c ca42 9bbe 71b5 86bd fd8b ffbc
00000380: f299 2abe e360 ecbd 33c1 da3d 2c32 07be
00000390: 4389 b0bc 96e2 1f3d 6fe6 563e 5d71 a6bc
000003a0: 7c57 d03c 0378 e3bd c41e 3f3e cb78 e73c
000003b0: 7853 a5bc 99df 1d3d 73e9 b4be 9ce3 fe3a
000003c0: ec72 833d 532f aabd dfe6 d7bb 0efd 7fbe
000003d0: c9ab 88bc 5e9c 99bd a830 9bbd d1c3 823d
000003e0: 8546 9cbc 2ff0 153e f3c6 de3d 2ee1 343d
000003f0: 626b f6bb f95b 423d 8f82 bf3d f4db 6dbd

fc2.bias f4 [128]
0.08700143 -0.070505306 0.0056139063 -0.097409815 0.013470525 0.039947283 0.07812105 0.041428186
-0.039778046 -0.026000777 0.12928273 0.10707052 0.022723796 -0.0848284 -0.031597137 -0.09004531
-0.018341864 0.13782744 0.013771546 0.019910458 0.15586445 -0.08342091 0.08342072 0.014683715
-0.13387926 -0.050049666 0.08375974 0.041933134 0.06613531 0.026932878 -0.09395032 -0.030216742
-0.15003744 -0.021999154 0.00233856 -0.0080145635 -0.04311597 0.021974668 0.121453285 0.14271127
0.036672097 0.0102864085 0.07054546 0.11532253 0.095469445 0.07749452 0.056881968 -0.029668236
0.016771223 0.030837415 0.085088484 -0.19313078 0.0009934957 0.11395966 0.04385464 0.038895555
-0.013547187 0.1293087 0.12640448 0.026285887 0.04389133 -0.1443261 -0.0026741188 0.13956018
0.06832392 -0.039217263 0.06473064 0.13726042 -0.0013644275 0.10895375 -0.038671363 0.06209404
-0.07882576 0.015674049 -0.06917102 -0.20220782 -0.10119944 0.01982698 0.070098825 -0.114204384
-0.01470357 -0.19233154 -0.1371499 0.081147574 -0.088259876 -0.030480731 0.08137461 -0.05354146
0.001122536 -0.06816754 -0.034072105 0.062311683 0.1391299 0.001517907 0.06766391 0.13256338
0.19154763 -0.13556625 0.0060596974 -0.09024898 0.02775289 -0.048687097 -0.16882437 -0.02003783
-0.029111138 0.04051135 -0.051714983 -0.030101148 -0.18958403 0.01321561 0.05152318 -0.011050924
-0.043208648 -0.04182414 0.0072046155 0.02337802 -0.028199226 0.047423556 0.12666623 0.003399084
-0.0042121806 -0.07631405 0.10672605 -0.23308927 -0.2720432 0.033611298 0.1248955 0.027461374
00000000: ce2d b23d 1665 90bd dcf4 b73b cc7e c7bd
00000010: 7ab3 5c3c c39f 233d eefd 9f3d 9ab0 293d
00000020: 4eee 22bd 95ff d4bc b162 043e ca47 db3d
00000030: 4127 ba3c 83ba adbd 006c 01bd ad69 b8bd
00000040: ad41 96bc a322 0d3e 0da2 613c 421b a33c
00000050: ee9a 1f3e 95d8 aabd 7cd8 aa3d f793 703c
00000060: a517 09be e100 4dbd 3a8a ab3d 14c2 2b3d
00000070: f371 873d 57a2 dc3c 0669 c0bd 1a89 f7bc
00000080: 6aa3 19be 9237 b4bc 8742 193b 844f 03bc
00000090: 5f9a 30bd 3804 b43c 80bc f83d e722 123e
000000a0: 7b35 163d 5388 283c 237a 903d 382e ec3d
000000b0: 7c85 c33d 72b5 9e3d 11fd 683d cd0a f3bc
000000c0: ce63 893c bf9e fc3c df42 ae3d 13c4 45be
000000d0: 2f38 823a af63 e93d eca0 333d f250 1f3d
000000e0: 05f5 5dbc 8069 043e 2d70 013e 8055 d73c
000000f0: 65c7 333d 39ca 13be 4540 2fbb dde8 0e3e
00000100: 69ed 8b3d 48a2 20bd 7f91 843d ff8d 0c3e
00000110: 97d6 b2ba 2523 df3d dd65 1ebd 5256 7e3d
00000120: 666f a1bd dd66 803c 89a9 8dbd 910f 4fbe
00000130: a741 cfbd 316c a23c f98f 8f3d fde3 e9bd
00000140: 3ee7 70bc 8ff2 44be 0671 0cbe b330 a63d
00000150: 98c1 b4bd bab2 f9bc bba7 a63d 4a4e 5bbd
00000160: 0f22 933a 6c9b 8bbd 318f 0bbd 893a 7f3d
00000170: 1278 0e3e 82f4 c63a 6093 8a3d b2be 073e
00000180: 1025 443e e1d1 0abe 6d90 c63b 75d4 b8bd
00000190: 075a e33c 1f6c 47bd 4ce0 2cbe 6026 a4bc
000001a0: 7b7a eebc 3bef 253d 17d3 53bd af96 f6bc
000001b0: 5122 42be 4986 583c f809 533d ef0e 35bc
000001c0: 8dfb 30bd ca4f 2bbd b214 ec3b 4383 bf3c
000001d0: 1002 e7bc 343f 423d cbb4 013e 2bc3 5e3b
000001e0: 5506 8abb 8a4a 9cbd 3093 da3d f4ae 6ebe
000001f0: 3f49 8bbe 00ac 093d 36c9 ff3d adf6 e03c

fc3.weight f4 [4, 128]
-0.28128108 -0.04655838 -0.2439678 0.47447634 0.049415436 0.14433394 -0.21844612 0.40415516
0.5287125 0.02217097 0.045175824 -0.15072046 -0.38797665 0.3183471 0.06151282 0.07171464
0.1844393 0.28796545 -0.14189415 -0.03551868 -0.062157646 -0.49584785 0.11335218 0.061575346
-0.25789893 -0.22191992 -0.08871681 0.005239634 0.22192632 0.1647673 0.036458816 0.4466084
0.0151100615 -0.047582433 -0.17608374 0.08920655 -0.25162786 -0.016684795 -0.0036363024 0.23976062
-0.19526972 -0.33575615 -0.2124041 -0.18618861 0.037454642 0.112467475 0.1023164 0.095323384
0.09792896 -0.18341823 -0.094545096 -0.06054862 0.21413296 0.084402435 -0.24186544 0.0049887793
0.18642884 0.1082595 0.09130879 0.24060245 0.035711125 -0.13394882 -0.20154414 0.17559282
0.08897248 0.09119215 0.05521854 -0.047428492 0.24763149 0.060271755 0.15564027 -0.17658572
0.36425465 -0.08875905 0.008210848 0.061957885 -0.224202 -0.2809631 0.13620453 0.15857762
0.17865974 0.20192777 -0.43882233 -0.049908917 0.06725182 -0.06975316 -0.06363182 -0.07044068
0.15227257 -0.16134183 -0.109927654 -0.08507088 -0.0116861705 -0.34845954 -0.28294882 0.13471581
0.14681663 0.15635969 -0.25971603 -0.04659559 -0.0726655 -0.34338453 -0.042718068 -0.21842109
-0.10230597 0.08003377 -0.36892554 0.05057073 -0.25919652 0.10246432 -0.11355443 0.36688796
-0.15444349 0.012476541 0.030368617 0.034491375 0.36196584 -0.0146151995 0.21027613 -0.3277463
-0.07400686 0.55733013 0.11980443 -0.62893826 -0.021105733 -0.27709147 0.06451399 -0.3934135
0.18414022 -0.09478091 0.1401423 -0.18735363 -0.18983315 0.31333402 0.15333463 -0.272922
0.039902326 -0.18785033 0.15622185 -0.41734535 -0.25256458 0.0069659217 0.111853614 0.10401681
0.20361944 0.11936635 0.02706825 0.035608474 0.10343789 -0.03815963 0.3907977 0.33937407
-0.040658355 -0.32830864 0.46707752 0.083396085 0.11300417 0.26905912 0.12978818 -0.08864839
-0.37340677 -0.2709185 0.124173224 0.26390582 0.05070484 0.32827377 0.243503 0.30651128
0.011749689 -0.27420402 -0.088822305 -0.047153197 -0.06474046 -0.07237695 0.052132424 0.21722023
-0.36074862 0.19415306 0.15347978 0.32134336 -0.050870247 -0.17400952 0.1441452 -0.2861796
0.12948747 0.08673832 -0.34886762 -0.22230373 -0.15763661 0.17075056 0.14478743 0.10594356
0.1970788 -0.41983688 0.16765964 -0.36973774 -0.020093111 -0.18082933 -0.18952766 -0.14398387
-0.057219476 0.04983515 -0.088335 0.11491643 0.3826485 -0.11480971 -0.25151592 0.28873962
-0.4184399 0.015310079 -0.11141968 0.0396104 0.063805304 0.046685454 0.49327576 0.08044752
-0.03447312 -0.016568236 -0.15560868 -0.034853395 -0.0033167999 0.20109738 -0.09549263 0.07226971
0.031929865 0.075826325 0.17102544 0.13854359 0.07660794 -0.02645007 -0.089110106 -0.12293648
-0.16576974 -0.34249893 0.10890189 -0.090337925 0.09439674 0.12586625 0.1145621 -0.016952194
-0.09856785 0.19221433 0.030646726 -0.034287594 0.10391272 0.24614447 0.13502128 0.24994296
-0.06225146 0.10552889 -0.37786442 -0.13020892 0.08407448 0.075569384 0.3582051 0.23072325
00000000: 1304 90be 00b4 3ebd b2d2 79be 90ee f23e
00000010: d767 4a3d 47cc 133e 57b0 5fbe 6ded ce3e
00000020: b459 073f e59f b53c 490a 393d 7756 1abe
00000030: e0a4 c6be 64fe a23e def4 7b3d 20df 923d
00000040: a8dd 3c3e 3570 933e b34c 11be 097c 11bd
00000050: 0499 7ebd c5df fdbe 3025 e83d 6e36 7c3d
00000060: 540b 84be fa3e 63be 29b1 b5bd 3cb1 ab3b
00000070: a740 633e c2b8 283e d755 153d dba9 e43e
00000080: 3190 773c cce5 42bd 4c4f 34be ecb1 b63d
00000090: 5ed5 80be 8dae 88bc 084f 6ebb cf83 753e
000000a0: c9f4 47be 3be8 abbe 7680 59be 3aa8 3ebe
000000b0: 0a6a 193d 5955 e63d 438b d13d e838 c33d
000000c0: fb8e c83d fdd1 3bbe dca0 c1bd d401 78bd
000000d0: ac45 5b3e 2fdb ac3d 93ab 77be ea78 a33b
000000e0: 34e7 3e3e 28b7 dd3d 1a00 bb3d 7d60 763e
000000f0: d445 123d e129 09be 9661 4ebe 9bce 333e
00000100: 3437 b63d f3c2 ba3d d62c 623d 6144 42bd
00000110: 1c93 7d3e 84df 763d 2a60 1f3e e3d2 34be
00000120: 967f ba3e 4ec7 b5bd cb86 063c 8dc7 7d3d
00000130: 3695 65be 65da 8fbe 3379 0b3e 2c62 223e
00000140: 94f2 363e 27c6 4e3e 52ad e0be 4b6d 4cbd
00000150: 52bb 893d bfda 8ebd 6651 82bd 3443 90bd
00000160: 57ed 1b3e cb36 25be c021 e1bd a439 aebd
00000170: 5a77 3fbc 4a69 b2be abde 90be f1f2 093e
00000180: 1957 163e c11c 203e 80f9 84be 04db 3ebd
00000190: a6d1 94bd 19d0 afbe 24f9 2ebd c7a9 5fbe
000001a0: cb85 d1bd bfe8 a33d cfe3 bcbe 4123 4f3d
000001b0: 68b5 84be d0d8 d13d 3a8f e8bd bdd8 bb3e
000001c0: 6f26 1ebe 686a 4c3c 9bc7 f83c d446 0d3d
000001d0: 9653 b93e 9774 6fbc a052 573e 5dce a7be
000001e0: e990 97bd 30ad 0e3f 065c f53d 1902 21bf
000001f0: eee5 acbc efde 8dbe e91f 843d 7f6d c9be
00000200: 418f 3c3e 7e1c c2bd 7781 0f3e a1d9 3fbe
00000210: 9f63 42be 516d a03e c103 1d3e 6fbc 8bbe
00000220: 9f70 233d d65b 40be 9ff8 1f3e 4aae d5be
00000230: 2550 81be 6342 e43b 8213 e53d c406 d53d
00000240: 9d81 503e 5876 f43d 3cbe dd3c 31da 113d
00000250: 3fd7 d33d 464d 1cbd a316 c83e 70c2 ad3e
00000260: 6089 26bd 1218 a8be c924 ef3e 91cb aa3d
00000270: bb6e e73d 1ec2 893e 31e7 043e 498d b5bd
00000280: 2c2f bfbe d4b5 8abe 884e fe3d aa1e 873e
00000290: e1af 4f3d 8013 a83e da58 793e 0cef 9c3e
000002a0: c481 403c 7864 8cbe 78e8 b5bd b623 41bd
000002b0: a596 84bd 5e3a 94bd cf88 553d fb6e 5e3e
000002c0: 0bb4 b8be 0fd0 463e ce29 1d3e 1e87 a43e
000002d0: 525d 50bd 8d2f 32be cd9a 133e 2286 92be
000002e0: 5d98 043e dca3 b13d c79e b2be 97a3 63be
000002f0: 7e6b 21be 3cd9 2e3e 2843 143e f0f8 d83d
00000300: 06cf 493e dcf4 d6be f8ae 2b3e 444e bdbe
00000310: 4f9a a4bc 532b 39be 8a13 42be 8270 13be
00000320: f85e 6abd f11f 4c3d fbe8 b4bd 4e59 eb3d
00000330: 81ea c33e 5a21 ebbd b2c6 80be aed5 933e
00000340: c13d d6be 20d7 7a3c 0030 e4bd 843e 223d
00000350: 5bac 823d 3f39 3f3d a48e fc3e abc1 a43d
00000360: b033 0dbd 1cba 87bc e257 1fbe 6fc2 0ebd
00000370: ab5e 59bb 79ec 4d3e a491 c3bd 2402 943d
00000380: e4c8 023d d54a 9b3d 4b21 2f3e 5fde 0d3e
00000390: a0e4 9c3d d1ad d8bc 5c7f b6bd 1fc6 fbbd
000003a0: 8bbf 29be 055c afbe f407 df3d 1703 b9bd
000003b0: 1453 c13d 15e3 003e 899f ea3d 54df 8abc
000003c0: f1dd c9bd d5d3 443e d80e fb3c 2671 0cbd
000003d0: 31d0 d43d 4c0d 7c3e 0543 0a3e 0cf1 7f3e
000003e0: 63fb 7ebd 881f d83d 7277 c1be 7d55 05be
000003f0: 3e2f ac3d 1fc4 9a3d a966 b73e b742 6c3e

fc3.bias f4 [4]
0.11541493 0.019147065 -0.06540688 -0.046459705
00000000: aa5e ec3d 4eda 9c3c 0bf4 85bd 884c 3ebd

bn1.weight f4 [256]
0.9175723 0.85885143 0.9251352 0.99647284 0.997911 1.0530881 0.8236308 0.80337363
1.1292433 0.9013098 0.7299182 0.9708743 0.74222654 0.39217827 0.8445576 0.38579938
0.4888126 0.572194 0.7085887 1.0917017 0.44681418 0.41755 0.6125055 0.5908349
0.47766536 0.89586353 1.1228799 0.49497384 0.5955291 0.95382065 0.39150196 0.9956065
0.4553753 0.8107798 0.7183618 1.0442069 0.4689235 0.9696482 0.43199438 0.6546461
1.0280946 -0.45072967 0.8599669 1.0681411 0.7934569 0.4145027 0.7570189 1.0723841
0.5355781 0.5709273 0.9451034 0.66488045 0.8849192 0.5337715 0.6171422 1.1338058
0.64141846 1.1334546 0.8875406 0.46156144 0.82118803 0.799812 1.1527517 0.96092886
0.3686147 0.5201894 1.0115474 0.50162905 1.1170435 0.3485701 0.53037703 1.0047312
0.98988444 0.6326722 0.5940722 0.41920087 0.5983445 0.5613927 0.818218 0.37556413
0.94540447 0.60365844 0.5044476 0.43921143 0.96255183 0.6375104 0.41087532 0.44246307
1.0121555 1.0601076 0.47552827 0.50144917 0.46191067 0.8115092 0.8144508 0.6144276
0.8528498 0.75981003 0.7791182 1.0638494 0.9727211 0.81263685 0.9520817 0.83020705
0.9209614 0.8129859 0.67310435 0.64931375 0.9983611 0.99826056 0.4854424 0.6889917
0.45391634 1.071423 0.69743925 0.64184195 0.92623824 0.4338332 1.02811 0.82925975
0.72198087 0.9515116 0.80668133 0.6447185 1.027346 0.796274 0.67060477 0.7490768
0.8339328 0.7380635 0.5168253 1.1118915 0.8668578 0.63579726 0.55802983 0.5078538
0.89901394 1.0160109 0.7993605 0.53264594 1.1460763 0.58244795 1.1376389 1.1152425
0.5082088 1.1135705 0.77949774 0.83898383 0.96318364 0.5750438 0.9922406 0.45527223
0.41612706 0.88750494 1.0248824 0.79066133 0.5205651 0.7171929 0.70356655 0.38467115
0.508538 0.47554827 0.88723695 0.644982 0.7058543 0.64030606 0.5069966 0.5560059
0.85293055 0.5867871 0.989695 0.6580661 0.9306079 0.65024066 0.62561476 1.2604291
0.6077787 0.66337335 0.7104643 0.5162786 1.015384 0.48858044 0.8656824 0.4803648
0.5592317 1.2193278 0.5299215 0.66710305 0.4074189 1.0915743 1.0479432 0.63385385
0.47607157 0.49043638 1.0587286 0.48674393 0.8380566 0.5051049 0.9651494 0.61022913
0.6334635 1.1437297 0.99444324 0.9083329 0.98964006 0.49818134 0.40912744 0.2747457
0.606848 0.5210299 1.1850466 0.68429023 0.57158256 1.0417246 0.7648297 1.0662656
0.9676771 1.1364629 0.53001046 0.76585066 0.48754483 0.9058376 0.9030262 1.051918
0.3639102 1.0108771 0.89192 0.95276934 0.48026487 0.39292488 0.41852254 0.6822368
0.86404896 0.80375093 0.42763248 0.7734984 0.5565732 0.7363754 0.4061687 1.0997697
1.1342319 0.6820328 0.5294579 0.3355936 0.6673748 0.89302605 0.41689345 0.71532804
0.43588784 1.1998212 0.6940413 0.8650871 0.8625017 0.9393656 0.93682796 1.0704266
00000000: 05e6 6a3f b0dd 5b3f a9d5 6c3f d818 7f3f
00000010: 1877 7f3f 97cb 863f 78d9 523f e5a9 4d3f
00000020: 0b8b 903f 3dbc 663f ebdb 3a3f 388b 783f
00000030: 8f02 3e3f 97cb c83e ed34 583f 7f87 c53e
00000040: a545 fa3e 4e7b 123f 1266 353f e2bc 8b3f
00000050: d4c4 e43e 1dc9 d53e 29cd 1c3f f540 173f
00000060: 8e90 f43e 5057 653f 87ba 8f3f 366d fd3e
00000070: 9874 183f 972d 743f f272 c83e 11e0 7e3f
00000080: f426 e93e 448f 4f3f 8fe6 373f 92a8 853f
00000090: be16 f03e dd3a 783f 5e2e dd3e e396 273f
000000a0: 9b98 833f 0ac6 e6be ca26 5c3f d9b8 883f
000000b0: fe1f 4b3f b339 d43e fecb 413f e243 893f
000000c0: a51b 093f 4b28 123f 4cf2 713f 9b35 2a3f
000000d0: 118a 623f 40a5 083f 08fd 1d3f 8c20 913f
000000e0: 0034 243f 0a15 913f dc35 633f c851 ec3e
000000f0: 6139 523f 7bc0 4c3f 5e8d 933f 6fff 753f
00000100: 11bb bc3e 222b 053f 637a 813f c36a 003f
00000110: 48fb 8e3f c877 b23e cac6 073f 089b 803f
00000120: 1169 7d3f cef6 213f 1e15 183f 7fa1 d63e
00000130: 1b2d 193f 6fb7 0f3f bc76 513f f149 c03e
00000140: 0706 723f 5c89 1a3f 7a23 013f 52e0 e03e
00000150: cc69 763f e233 233f 405e d23e 858a e23e
00000160: 508e 813f 9bb1 873f 7178 f33e f95e 003f
00000170: 8e7f ec3e 11bf 4f3f d97f 503f 214b 1d3f
00000180: 5d54 5a3f e982 423f 4a74 473f 382c 883f
00000190: 4004 793f f808 503f a0bb 733f 7388 543f
000001a0: 20c4 6b3f d81f 503f 9150 2c3f 6d39 263f
000001b0: 9894 7f3f 018e 7f3f e88b f83e c361 303f
000001c0: b967 e83e 6424 893f 618b 323f c14f 243f
000001d0: f31d 6d3f 631f de3e 1c99 833f 5e4a 543f
000001e0: bdd3 383f 4496 733f ab82 4e3f 460c 253f
000001f0: 1380 833f 9dd8 4b3f c1ac 2b3f 7fc3 3f3f
00000200: 9f7c 553f bbf1 3c3f aa4e 043f 7652 8e3f
00000210: 65ea 5d3f 9cc3 223f 0bdb 0e3f b502 023f
00000220: c725 663f a50c 823f e4a2 4c3f 7c5b 083f
00000230: a1b2 923f 4f1b 153f 279e 913f 44c0 8e3f
00000240: f919 023f 7a89 8e3f 2a8d 473f a5c7 563f
00000250: 3493 763f 1236 133f 7b03 7e3f 7119 e93e
00000260: 9b0e d53e 8633 633f 592f 833f c868 4a3f
00000270: c143 053f f499 373f f01c 343f 9ef3 c43e
00000280: 8c2f 023f 107b f33e f621 633f 8a1d 253f
00000290: deb2 343f 19eb 233f 87ca 013f 6756 0e3f
000002a0: a859 5a3f ae37 163f a75c 7d3f 0577 283f
000002b0: 523c 6e3f 2c76 263f 4a28 203f be55 a13f
000002c0: 6397 1b3f d6d2 293f fde0 353f d62a 043f
000002d0: 1af8 813f 3727 fa3e 5d9d 5d3f 60f2 f53e
000002e0: cf29 0f3f ef12 9c3f efa8 073f 44c7 2a3f
000002f0: 3699 d03e b5b8 8b3f 0123 863f 3f44 223f
00000300: a7bf f33e 7a1a fb3e 6b84 873f 8036 f93e
00000310: e18a 563f 8e4e 013f 0814 773f fa37 1c3f
00000320: aa2a 223f bc65 923f d593 7e3f 8188 683f
00000330: 0d59 7d3f a011 ff3e 2779 d13e 78ab 8c3e
00000340: 645a 1b3f 3762 053f 9baf 973f a52d 2f3f
00000350: 3c53 123f 3b57 853f e1cb 433f 647b 883f
00000360: b0b9 773f 9e77 913f c4ae 073f ca0e 443f
00000370: 7a9f f93e f9e4 673f ba2c 673f 40a5 863f
00000380: 7052 ba3e 6c64 813f de54 643f b1e8 733f
00000390: 47e5 f53e 732d c93e 9648 d63e 12a7 2e3f
000003a0: 5032 5d3f 9fc2 4d3f a5f2 da3e fe03 463f
000003b0: 957b 0e3f 1983 3c3f 58f5 cf3e 41c5 8c3f
000003c0: 832e 913f b499 2e3f 8e8a 073f edd2 ab3e
000003d0: 13d9 2a3f 5b9d 643f 0f73 d53e bd1f 373f
000003e0: b12c df3e be93 993f b1ac 313f 5976 5d3f
000003f0: e9cc 5c3f 447a 703f f5d3 6f3f bd03 893f

bn1.bias f4 [256]
-0.04236383 -0.10041203 -0.116890006 -0.149057 -0.077750936 -0.0035582082 -0.17197815 -0.023165582
-0.095642686 -0.041420765 0.030370688 -0.0075359847 -0.13892348 -0.073496975 -0.14820616 0.11185086
-0.034389168 -0.07023093 0.005843241 0.08018481 0.009339369 -0.020243756 2.5934416e-05 -0.1151659
-0.11328428 -0.0045684897 -0.025984103 0.03900239 0.16736677 -0.07194014 -0.079662606 0.14137
-0.07167962 -0.051481456 0.0044895294 0.11682468 -0.030426934 -0.12145227 -0.08422624 -0.1200065
-0.12454441 0.07620662 -0.08363303 0.0030356054 0.04423017 -0.021504646 -0.08251301 0.007969802
-0.018831907 0.017319975 -0.073780276 0.054903205 -0.07749071 -0.18401496 0.084499136 0.012117287
-0.0314322 0.08025351 -0.046796273 0.17715855 0.04485459 -0.055166196 -0.19597133 -0.14735602
-0.071580224 -0.006828167 -0.03638699 -0.046262994 -0.14812118 -0.103978395 -0.0063787955 0.09287368
-0.08163542 -0.021618972 0.07644729 -0.22024758 -0.03168067 -0.06055904 -0.01001523 0.012681296
-0.051321857 -0.08829567 -0.023376385 -0.057136845 -0.08039206 -0.11681267 0.02336463 0.06966189
-0.0062458063 -0.083136916 -0.15472366 -0.15721835 -0.06559284 -0.14973783 -0.08474089 0.021225117
0.02716379 0.10790025 0.057232663 -0.09081053 0.086751305 -0.046851438 0.13970883 0.10946071
-0.08892966 0.015996575 0.111148216 0.021008749 0.104069866 0.09931455 0.064597964 0.114751086
-0.075341515 0.15368718 -0.026338676 -0.0035319454 -0.09424282 -0.03368653 -0.1609271 -0.07659937
-0.017482033 -0.14076813 -0.13401276 -0.154776 -0.09625768 0.029442152 -0.054563362 -0.06909663
-0.029492063 -0.045161404 -0.032793686 -0.11380573 -0.016512295 0.023894466 -0.06721469 -0.01133042
-0.024765987 0.049254257 -0.11305962 0.020775845 0.02978263 0.03786573 -0.031771608 0.049543913
-0.04375086 -0.097789414 -0.013518382 -0.03192003 -0.0922229 -0.19574812 0.018773168 -0.120154366
-0.14228655 0.04832391 -0.14944065 0.031212706 -0.06679847 -0.0056643654 0.06733569 -0.13501601
0.14509378 0.029272314 -0.02064157 0.014260667 -0.06559291 0.009802489 0.034579694 -0.08163009
-0.12468453 0.006631417 -0.017042538 -0.031133676 -0.07614584 0.14226687 0.16410834 0.11683378
0.12673585 -0.051432952 -0.02415823 -0.013453619 0.027006269 -0.07290693 0.0513715 0.14277802
-0.09953862 -0.02446487 -0.019297546 0.08404875 0.10043132 -0.17674533 0.07285605 -0.06066921
-0.011228655 -0.048758812 -0.17431042 0.12066665 0.0038582021 -0.13842319 -0.14413987 0.26953277
-0.0870296 -0.090969406 -0.15010315 0.025576163 -0.04159893 0.0189034 -0.06316366 -0.04703589
0.041733094 -0.060830954 0.035109937 -0.08832737 -0.0386232 -0.038391043 0.11375561 -0.14449456
0.05851977 -0.020035667 -0.09621165 0.20195259 -0.21934107 0.07103827 -0.21514177 -0.0032701287
-0.008201461 -0.17237027 -0.13636023 -0.039329834 -0.075534485 -0.07202301 0.006737674 -0.1503517
0.08337388 -0.08353484 0.11115195 0.0051758294 -0.11655409 -0.015795078 -0.061081707 -0.12098188
0.014627353 -0.13040905 0.054344174 -0.15493429 -0.04407402 -0.12418531 0.032847952 0.075520545
0.10442402 0.008394747 0.034528226 -0.041958354 0.02107404 -0.09120201 -0.0011628392 0.04192797
00000000: b285 2dbd d3a4 cdbd 0764 efbd 66a2 18be
00000010: e23b 9fbd d430 69bb 0a1b 30be bfc5 bdbc
00000020: 50e0 c3bd d2a8 29bd f3cb f83c 6cf0 f6bb
00000030: f541 0ebe 9585 96bd 5bc3 17be 1012 e53d
00000040: a8db 0cbd 3cd5 8fbd a878 bf3b ef37 a43d
00000050: 2704 193c 3cd6 a5bc bc8d d937 19dc ebbd
00000060: 9701 e8bd 45b3 95bb 9ddc d4bc f8c0 1f3d
00000070: 3262 2b3e 5a55 93bd 2626 a3bd 4cc3 103e
00000080: c4cc 92bd 38de 52bd e71c 933b c741 ef3d
00000090: e841 f9bc f8bb f8bd cf7e acbd f8c5 f5bd
000000a0: 2411 ffbd 3712 9c3d cb47 abbd 02f1 463b
000000b0: b22a 353d 832a b0bc 95fc a8bd c693 023c
000000c0: 5f45 9abc 9fe2 8d3c 1d1a 97bd 2fe2 603d
000000d0: 73b3 9ebd 6b6e 3cbe e20d ad3d 9687 463c
000000e0: 0dbf 00bd f45b a43d 73ad 3fbd 0d69 353e
000000f0: 72b9 373d f3f5 61bd b5ac 48be 7fe4 16be
00000100: a798 92bd d1be dfbb 860a 15bd 447e 3dbd
00000110: 14ad 17be a0f2 d4bd 3705 d1bb 8e34 be3d
00000120: 7930 a7bd 451a b1bc 6690 9c3d 9588 61be
00000130: 97c3 01bd c20c 78bd eb16 24bc 36c5 4f3c
00000140: de36 52bd 5cd4 b4bd d57f bfbc 5308 6abd
00000150: 98a4 a4bd 7b3b efbd 2e67 bf3c e5aa 8e3d
00000160: 9fa9 ccbb b043 aabd e16f 1ebe d9fd 20be
00000170: 8a55 86bd e054 19be a28c adbd 4ce0 ad3c
00000180: 9986 de3c cefa dc3d cc6c 6a3d dffa b9bd
00000190: abaa b13d 4be7 3fbd d50f 0f3e f02c e03d
000001a0: c120 b6bd 400b 833c ada1 e33d 8a1a ac3c
000001b0: 9522 d53d 6d65 cb3d f04b 843d 9e02 eb3d
000001c0: a74c 9abd 2c60 1d3e 35c4 d7bc 3678 67bb
000001d0: 6102 c1bd e3fa 09bd 13ca 24be 21e0 9cbd
000001e0: 7b36 8fbc 8525 10be a43a 09be 9a7d 1ebe
000001f0: bf22 c5bd ab30 f13c d57d 5fbd 8982 8dbd
00000200: 5799 f1bc 2afb 38bd ac52 06bd fb12 e9bd
00000210: cb44 87bc 54be c33c dba7 89bd 3aa3 39bc
00000220: 0ae2 cabc d5be 493d cd8b e7bd 1b32 aa3c
00000230: b4fa f33c 1819 1b3d f222 02bd 8fee 4a3d
00000240: 1a34 33bd d145 c8bd 347c 5dbc 94be 02bd
00000250: 5cdf bcbd 3272 48be 30ca 993c 7e13 f6bd
00000260: 91b3 11be 4bef 453d f806 19be cab1 ff3c
00000270: a3cd 88bd 249c b9bb 4be7 893d a341 0abe
00000280: 7793 143e 7ecc ef3c 8318 a9bc 93a5 693c
00000290: 9355 86bd 9e9a 203c 70a3 0d3d ad2d a7bd
000002a0: 9a5a ffbd 5c4c d93b cb9c 8bbc 0d0c ffbc
000002b0: 5af2 9bbd 68ae 113e 040c 283e 8d46 ef3d
000002c0: 0bc7 013e 5cab 52bd 7be7 c5bc 916c 5cbc
000002d0: 403c dd3c 3b50 95bd ec6a 523d 6734 123e
000002e0: e7da cbbd 8d6a c8bc e315 9ebc c021 ac3d
000002f0: f0ae cd3d bafc 34be 8e35 953d 4780 78bd
00000300: 65f8 37bc 52b7 47bd 6e7e 32be 1420 f73d
00000310: e4d9 7c3b cfbe 0dbe 6799 13be 3300 8a3e
00000320: 933c b2bd 2b4e babd a4b4 19be 1a85 d13c
00000330: a463 2abd 4edb 9a3c f35b 81bd b5a8 40bd
00000340: 52f0 2a3d e129 79bd 70cf 0f3d fbe4 b4bd
00000350: 5c33 1ebd ed3f 1dbd b4f8 e83d 62f6 13be
00000360: 6db2 6f3d d721 a4bc 9d0a c5bd a9cc 4e3e
00000370: f29a 60be 837c 913d 204e 5cbe a84f 56bb
00000380: 6c5f 06bc d581 30be 04a2 0bbe 5218 21bd
00000390: d3b1 9abd cd80 93bd b5c7 dc3b ccf5 19be
000003a0: edbf aa3d 5014 abbd a2a3 e33d 019a a93b
000003b0: e9b3 eebd ae64 81bc d030 7abd 59c5 f7bd
000003c0: 91a7 6f3c f389 05be ff97 5e3d 18a7 1ebe
000003d0: f686 34bd de54 febd 938b 063d 84aa 9a3d
000003e0: 43dc d53d 1f8a 093c 786d 0d3d 86dc 2bbd
000003f0: 77a3 ac3c 1fc8 babd 696a 98ba aabc 2b3d

bn1.running_mean f4 [256]
0.066020176 0.20116657 0.23942424 0.51912653 0.34121656 0.079002865 0.0509601 0.05433714
0.042866465 0.0168292 0.057022482 0.6428117 0.0056929337 0.1641992 0.057751197 0.28152975
0.058923636 0.5872548 0.2826541 0.033106208 0.16273664 0.060898267 0.5852003 0.40809274
0.038965277 0.5261243 0.12292615 0.012501395 0.25272208 0.0006892706 0.17109343 0.17708398
0.4795757 0.053389635 0.057463862 0.15747835 0.10109069 0.010321947 0.03439208 0.016616067
0.0040477966 0.022884581 0.049107242 0.25767937 0.034058794 0.11196423 0.05610817 0.6643784
0.5986429 0.06922515 0.033539653 0.036376495 0.6639851 0.041295882 0.07487761 0.5629451
0.14898406 0.1414226 0.37717187 0.15227148 0.15036575 0.27649054 0.10181355 0.08353797
0.24811268 0.1605782 0.35587844 0.071672484 0.3041951 0.008183522 0.066679776 0.023595262
0.18001635 0.14386697 0.05604441 0.0008269544 0.022440884 0.15837511 0.18067178 0.01667374
0.4122394 0.059542876 0.053367022 0.1831999 0.043713912 0.029301798 0.48837692 0.05675132
0.093212284 0.049405087 0.3310992 0.0159782 0.027006906 0.002896377 0.22561824 0.20796666
0.12787184 0.22993478 0.09532942 0.03396917 0.29532048 0.47684675 0.15029304 0.07340795
0.0124340635 0.04595116 0.18046151 0.605718 0.3059974 0.2599528 0.015382591 0.34545168
0.019881314 0.17567492 0.084899746 0.2558573 0.04517642 0.6342855 0.038699407 0.4284115
0.031595565 0.050826505 0.1659222 0.07889009 0.13647982 0.08961978 0.055094775 0.0071125696
0.7926953 0.023042342 0.281724 0.036316562 0.21594654 0.021666735 0.08542081 0.46691823
0.17563647 0.099832036 0.21639624 0.23772606 0.19910412 0.027537355 0.07191805 0.310084
0.000277322 0.029368062 0.034170337 0.10039172 0.06354215 0.07999233 0.015792307 0.07824276
0.030188736 0.058941547 0.07535858 0.13643728 0.16127728 0.21353944 0.10814103 0.10910361
0.043546245 0.05259877 0.028574083 0.10439212 0.018429566 0.18498531 0.023737019 0.040446468
0.00393232 0.21331604 0.034929756 0.41461843 0.16308005 0.04501668 0.090975255 0.04303656
0.41466188 0.02420502 0.09694649 0.23421007 0.21633919 0.0351946 0.5368645 0.05877215
0.12100586 0.33954602 0.06745667 0.3425549 0.12996174 0.15364248 0.056585245 0.05275864
0.039102335 0.20389335 0.7915931 0.22641346 0.094249226 0.088465914 0.05101504 0.05050117
0.013745164 0.07902737 0.012180775 0.46098137 0.03846946 0.1407469 0.06007319 0.4479035
0.26700702 0.07657789 0.2000263 0.08948656 0.18041714 0.22633971 0.41201717 0.09862652
0.174859 0.15562847 0.08413431 0.056454543 0.15679193 0.16098383 0.004378487 0.12339825
0.646167 0.2022331 0.07000206 0.07101519 0.3726282 0.4396615 0.05089391 0.048993602
0.076439776 0.01739498 0.017832078 0.13452479 0.32757634 0.04233791 0.059227426 0.08514325
0.4024147 0.0396132 0.111032166 0.011523377 0.3316346 0.00044549291 0.065737754 0.05482538
0.0019204166 0.026868517 0.4790849 0.40315342 0.029074103 0.33782202 0.2375001 0.24920323
00000000: 9635 873d 9cfe 4d3e a12b 753e 7ae5 043f
00000010: f0b3 ae3e 41cc a13d 8abb 503d 9f90 5e3d
00000020: bf94 2f3d 64dd 893c 6890 693d 4f8f 243f
00000030: ca8b ba3b d623 283e 858c 6c3d ab24 903e
00000040: e959 713d 5556 163f 0ab8 903e 609a 073d
00000050: 6fa4 263e 7670 793d b0cf 153f 88f1 d03e
00000060: 0e9a 1f3d 15b0 063f b5c0 fb3d a7d2 4c3c
00000070: ca64 813e 2bb0 343a 1e33 2f3e 8155 353e
00000080: f28a f53e 17af 5a3d 3a5f 6b3d 0142 213e
00000090: a308 cf3d 621d 293c b6de 0c3d 6b1e 883c
000000a0: 61a3 843b 7278 bb3c ad24 493d 8dee 833e
000000b0: 3c81 0b3d 814d e53d aed1 653d b414 2a3f
000000c0: a940 193f eac5 8d3d e060 093d 85ff 143d
000000d0: edfa 293f df25 293d 6f59 993d 2c1d 103f
000000e0: 478f 183e 16d1 103e ac1c c13e 0eed 1b3e
000000f0: 7bf9 193e 2b90 8d3e 9f83 d03d f515 ab3d
00000100: 4011 7e3e 9d6e 243e b335 b63e 06c9 923d
00000110: 76bf 9b3e 2e14 063c 688f 883d da4a c13c
00000120: 3556 383e dd51 133e d38e 653d f8c7 583a
00000130: f2d5 b73c 162d 223e 0602 393e 5e97 883c
00000140: 0b11 d33e 3be3 733d 6197 5a3d c198 3b3e
00000150: 5c0d 333d 530a f03c 8a0c fa3e 1274 683d
00000160: 15e6 be3d fd5c 4a3d d685 a93e b7e4 823c
00000170: 963d dd3c 24d1 3d3b 7808 673e 36f5 543e
00000180: d6f0 023e 0674 6b3e 123c c33d 4223 0b3d
00000190: 3f34 973e 4225 f43e 6be6 193e e856 963d
000001a0: 3eb8 4b3c 4937 3c3d e7ca 383e 5610 1b3f
000001b0: b1ab 9c3e 8918 853e 4307 7c3c 0bdf b03e
000001c0: 23de a23c 20e4 333e ebdf ad3d baff 823e
000001d0: e90a 393d 8960 223f 4583 1e3d c158 db3e
000001e0: 5a6a 013d 742f 503d 82e7 293e 2191 a13d
000001f0: 5ec1 0b3e 938a b73d 0fab 613d 8f10 e93b
00000200: 14ee 4a3f 4bc3 bc3c 213e 903e adc0 143d
00000210: 1721 5d3e 707e b13c 1bf1 ae3d e80f ef3e
00000220: 0cda 333e bd74 cc3d fa96 5d3e 766e 733e
00000230: f3e1 4b3e 0596 e13c c549 933d 54c3 9e3e
00000240: 8765 9139 4a95 f03c 32f6 0b3d 2d9a cd3d
00000250: 6322 823d 05d3 a33d de5e 813c bd3d a03d
00000260: 5e4e f73c b16c 713d 9955 9a3d 37b6 0b3e
00000270: df25 253e 15aa 5a3e 0b79 dd3d b771 df3d
00000280: 8c5d 323d cf71 573d 3214 ea3c 89cb d53d
00000290: 9af9 963c ca6c 3d3e 2374 c23c 32ab 253d
000002a0: b1da 803b 856f 5a3e 8112 0f3d de48 d43e
000002b0: 75fe 263e 6963 383d 3c51 ba3d 1b47 303d
000002c0: 904e d43e 9b49 c63c e28b c63d c4d4 6f3e
000002d0: 0588 5d3e 3628 103d f46f 093f 11bb 703d
000002e0: ecd1 f73d fad8 ad3e b926 8a3d 5b63 af3e
000002f0: b114 053e 7454 1d3e eec5 673d 7219 583d
00000300: c529 203d 6bc9 503e d8a5 4a3f eed8 673e
00000310: bd05 c13d 9e2d b53d 26f5 503d 51da 4e3d
00000320: 6533 613c 1ad9 a13d e091 473c c005 ec3e
00000330: 2792 1d3d f51f 103e 4e0f 763d 9c53 e53e
00000340: 25b5 883e ded4 9c3d b2d3 4c3e bb44 b73d
00000350: 45bf 383e 99c5 673e eaf3 d23e b3fc c93d
00000360: 3d0e 333e 125d 1f3e 9c4e ac3d e13c 673d
00000370: 108e 203e f2d8 243e 6979 8f3b 39b8 fc3d
00000380: 336b 253f 3216 4f3e 3d5d 8f3d 6970 913d
00000390: 20c9 be3e 501b e13e 2276 503d 84ad 483d
000003a0: 758c 9c3d eb7f 8e3c 9414 923c dec0 093e
000003b0: 16b8 a73e 846a 2d3d 7598 723d 965f ae3d
000003c0: 4d09 ce3e 7341 223d d564 e33d 8ccc 3c3c
000003d0: 03cc a93e 0c91 e939 84a1 863d 9490 603d
000003e0: 7db6 fb3a 5d1b dc3c 9e4a f53e 206a ce3e
000003f0: d02c ee3c 02f7 ac3e 3a33 733e 222f 7f3e
