p2_continuous-control/checkpoint_critic.pth (torch_old, 174797 bytes, 9 tensors)

fcs1.weight f4 [256, 33]
0	0x3dc745b0	0.09730089
1	0x3cdaad1b	0.026693871
2	0xbccddc09	-0.025129335
3	0xbc9c6cf2	-0.019094918
4	0xbd349c74	-0.044094518
5	0xbe30e21c	-0.17273754
6	0xbd5278a3	-0.05138458
7	0x3ba1c81c	0.004937185
8	0xbc735b25	-0.0148532735
9	0x3c1970b8	0.009365253
10	0x3bc9bc23	0.006156461
11	0xbb1cbdd2	-0.0023916853
12	0xbba0462f	-0.004891179
13	0xbe03a1d9	-0.12854709
14	0xbd0514ff	-0.032490727
15	0x3d48a689	0.048986945
16	0xbd81ac3c	-0.06331679
17	0x3cb92327	0.02259977
18	0xbdcde679	-0.10053725
19	0xbc31adcc	-0.010844659
20	0xbb95e95b	-0.0045749373
21	0x3b8cf435	0.0043015727
22	0x3b26221b	0.0025349918
23	0xbc879d98	-0.016554639
24	0xbc31d95f	-0.010855048
25	0xbb4e601a	-0.0031490386
26	0x3db130cb	0.08651885
27	0x3b285ccb	0.0025690075
28	0xbd0fcb38	-0.035105914
29	0xbce40dc0	-0.027838588
30	0xbd4c36d9	-0.049856994
31	0xbd097674	-0.03356023
32	0xbc63c7b3	-0.0139025925
33	0x3daa47b0	0.083144546
34	0x3d4f9599	0.050679777
35	0xbd3cd6ba	-0.046103217
36	0x3dd97528	0.10618049
37	0xbc4ba94d	-0.012430501
38	0x3df04601	0.11732102
39	0xbd46d057	-0.048538532
40	0x3c8a881f	0.01691061
41	0xbdda7cd7	-0.106683426
42	0x3da25312	0.07926001
43	0x3d2363ee	0.039890222
44	0xbd9a7188	-0.075411856
45	0xbcbfee94	-0.023429193
46	0x3d1b4115	0.037903864
47	0x3d017e4e	0.031614594
48	0xbcc290d4	-0.0237507
49	0xbdb9b70e	-0.09068118
50	0xbdc5dd49	-0.096613474
51	0xbd6d8828	-0.057991177
52	0x3e2bc2ac	0.1677348
53	0xbd6439f3	-0.055719327
54	0xbd0111b1	-0.031511012
55	0xbce4df65	-0.027938554
56	0xbc842d15	-0.016134778
57	0x3d15a3f7	0.036533322
58	0x3c968069	0.018371778
59	0xbd20931f	-0.039202806
60	0xbd3cce54	-0.046095207
61	0x3d3d1afc	0.046168312
62	0x3d62d022	0.055374272
63	0x3d4e286d	0.05033152
64	0x3c51a200	0.0127949715
65	0xbe4ff0e4	-0.20306736
66	0xbd50ca5f	-0.050974246
67	0x3d32ccb7	0.043652263
68	0xbce049b9	-0.027378904
69	0x3d584fc7	0.052810457
70	0x3e00f453	0.12593202
71	0x3c2d8398	0.010590456
72	0x3d167965	0.036736865
73	0xbd06f569	-0.032948885
74	0x3c14fe49	0.009093829
75	0x3c6058d8	0.013693057
76	0xbb0d4ab4	-0.002155942
77	0x3bb70b82	0.0055860886
78	0xbccd9853	-0.025097048
79	0x3bb326f8	0.005467292
80	0xbc606372	-0.013695585
81	0xbd3f688b	-0.04673056
82	0xbc1aab13	-0.009440201
83	0xbdab6fb9	-0.08370919
84	0xbdccfaad	-0.1000875
85	0xbd668236	-0.056276523
86	0xbc3f72c1	-0.011685074
87	0x3c93cfb5	0.018043378
88	0x3c8186ca	0.015811343
89	0x3baa952a	0.00520577
90	0x3b975b47	0.0046190354
91	0xbce06b54	-0.027394928
92	0x3d3a0a05	0.04541971
93	0x3e2d2eb2	0.16912344
94	0x3d350ed4	0.044203594
95	0x3c490698	0.0122696385
96	0xbe47ca33	-0.19510727
97	0x3d3a0b3e	0.045420878
98	0xbf0a8c54	-0.54120374
99	0x3b6e4db1	0.0036362226
100	0x3bd673aa	0.00654455
101	0xbe215a16	-0.15757021
102	0x3d97c7de	0.074111685
103	0x3d5f4911	0.05451304
104	0xbb9e105c	-0.0048237275
105	0x3d978998	0.07399291
106	0x3c9992d2	0.018746767
107	0x3d125e5d	0.035734523
108	0xbd3183c0	-0.043338537
109	0xbcb38d8e	-0.021918084
110	0xbd54744c	-0.05186872
111	0xbcea966b	-0.028636178
112	0x3cf45d95	0.02982978
113	0x3d8893e2	0.066688314
114	0xbcc46d96	-0.023978036
115	0x3cc186ca	0.023623843
116	0xbe3ca75f	-0.18423222
117	0x3de85759	0.11344785
118	0x3ce1f82a	0.027584154
119	0x3cd8c8f9	0.026463019
120	0xbc97d410	-0.018533736
121	0x3c157e1c	0.009124305
122	0x3d47d666	0.04878845
123	0x3cf0fe41	0.029418113
124	0x3c7dc09b	0.015487815
125	0x3d45dc69	0.048305903
126	0x3da47db2	0.08031787
127	0x3dd6a63e	0.10480927
128	0x3cc99c68	0.024610713
129	0x3ba0a40c	0.0049023684
130	0x3d7dde10	0.061979353
131	0x3d1d6d40	0.038434267
132	0x3d88f220	0.06686807
133	0xbbcccb08	-0.006249789
134	0x3db49287	0.088170104
135	0x3d90da37	0.07072871
136	0x3d7f6d7c	0.06236027
137	0xbbcbe29f	-0.0062220837
138	0xbd2e8b26	-0.04261317
139	0xbc5af92f	-0.013365074
140	0xbdaa7b79	-0.08324332
141	0xbdb529da	-0.08845873
142	0x3cc433c8	0.023950472
143	0x3c82f5d9	0.01598637
144	0xbc0169d2	-0.007898765
145	0xbd5a50f2	-0.05329985
146	0xba7e6e94	-0.00097058085
147	0x3b87960c	0.00413776
148	0x3dbadabc	0.091237515
149	0x3c653c60	0.013991445
150	0xbe83af0c	-0.25719488
151	0xbd2fbc49	-0.042904172
152	0x3c2d4554	0.010575611
153	0xbd1d6135	-0.038422782
154	0xbb7c854f	-0.0038531607
155	0xbcff00af	-0.031128256
156	0xbca039f7	-0.01955889
157	0x3c152313	0.009102601
158	0x3cff60c4	0.031174071
159	0x3cd49cae	0.025953617
160	0xbd6f8aa5	-0.05848183
161	0xbc80b214	-0.015709914
162	0xbb3bb386	-0.002864094
163	0x3ce09ccc	0.027418517
164	0x3eeccf21	0.46251777
165	0x3d356562	0.04428614
166	0x3d920dd9	0.071315475
167	0xbd8c1536	-0.06839983
168	0xbde6cd52	-0.112696305
169	0xbd9ee2e3	-0.07758119
170	0xbe4ca208	-0.19983685
171	0xbe655c53	-0.223985
172	0x3c2472a7	0.010037101
173	0xbb180d9a	-0.0023201467
174	0xbd348ee7	-0.044081595
175	0x3d20ec89	0.039288078
176	0x3bf9fab0	0.007628761
177	0x3ca09e19	0.019606637
178	0xbd5e9488	-0.05434087
179	0x3b01cb5f	0.0019805057
180	0x3da99475	0.08280269
181	0x3dae8155	0.08520762
182	0xbe5b40ea	-0.21411481
183	0x3e5d65ba	0.21620837
184	0xbd6f1f8e	-0.058379702
185	0x3c337b6c	0.010954719
186	0x3bca8e65	0.0061815255
187	0xbc9476ea	-0.018123109
188	0x3d24afed	0.04020684
189	0xbc2afc83	-0.01043618
190	0xbaf8b618	-0.0018975167
191	0xb8dc1547	-0.00010494381
192	0xbd2c286e	-0.042030744
193	0x3bc10ba1	0.005891279
194	0x3c981200	0.01856327
195	0xbbf9c045	-0.0076217973
196	0x3ac18a00	0.0014765859
197	0xbe36e5a1	-0.17861034
198	0xba02e019	-0.00049924996
199	0xba69fb98	-0.0008925735
200	0x3b0df6ca	0.002166199
201	0xbd968c32	-0.07350959
202	0x3eb4fe26	0.3535015
203	0xbd6dd787	-0.05806687
204	0xbe0705f7	-0.13185869
205	0x3d0d8e16	0.03455933
206	0x3d330a3d	0.043710936
207	0x3db2598f	0.08708488
208	0xbc15a03f	-0.009132444
209	0xbcaa4d86	-0.02078892
210	0x3c852dee	0.016257253
211	0x3db9dc83	0.090752624
212	0xbd3f39fa	-0.04668615
213	0x3cc7c539	0.024386035
214	0xbd061ed3	-0.03274424
215	0xbd3551d1	-0.04426748
216	0xbe73f21d	-0.23822828
217	0x3e78f95e	0.24313876
218	0x3c70a051	0.01468666
219	0x3cb18e9b	0.021674445
220	0x3b833491	0.004004069
221	0xbcbb4ab5	-0.022862772
222	0xbd3e9e3d	-0.046537627
223	0xbcf9a9a6	-0.030476402
224	0xbd00fbff	-0.031490322
225	0xbc5e9c4f	-0.013587072
226	0xbd30b02b	-0.043136757
227	0xbcb20e3c	-0.021735303
228	0xbcce52f1	-0.025186034
229	0x3c8c9f50	0.01716581
230	0x3d7fe1f1	0.062471334
231	0x3d11eb33	0.035624694
232	0xbbfefef3	-0.007781857
233	0x3cbc79bf	0.023007272
234	0x3e583acb	0.21116178
235	0x3db1124c	0.08646068
236	0xbcea3fae	-0.028594818
237	0xbe58e774	-0.21182042
238	0x3d18d110	0.037308753
239	0x3d8ba2c3	0.06818154
240	0xbb378e4b	-0.0028008397
241	0x3ca17a9a	0.019711781
242	0x3cbd3f2d	0.023101414
243	0x3b8784b5	0.004135693
244	0x3d175fe3	0.03695668
245	0x3c32b367	0.010907031
246	0xbd013e30	-0.031553447
247	0xbe9eed85	-0.31040588
248	0x3e882a8b	0.26594958
249	0xbe6277fe	-0.22116086
250	0x3d8edb3d	0.0697541
251	0xbbbd91ee	-0.0057852184
252	0xba8d747b	-0.001079216
253	0xbc173e59	-0.009231173
254	0x3c1e137c	0.0096482
255	0x3bb0eef4	0.005399579

fcs1.bias f4 [256]
0	0xbb9adf5b	-0.004726333
1	0x3de1acac	0.11019263
2	0xbd54fe5c	-0.05200039
3	0x3d8fd8b0	0.07023752
4	0x3da34619	0.079723544
5	0x3d8cb607	0.068706565
6	0xbdcac920	-0.09901643
7	0xbd4c47cb	-0.049873155
8	0xbdbc6960	-0.09199786
9	0xbdb19ebc	-0.08672854
10	0x3d70710f	0.05870157
11	0x3d5fb701	0.054617886
12	0xbe2fbcd2	-0.17161873
13	0x3d493687	0.049124267
14	0xbd33e1ba	-0.04391644
15	0x3de6ee9e	0.11275981
16	0xbc9e9709	-0.019359129
17	0xbdf9ca06	-0.12196736
18	0x3d4420f3	0.047882985
19	0xbe4b2f2e	-0.19842216
20	0xbcf78ca0	-0.030218422
21	0x3d95f58b	0.07322224
22	0x3d6a295b	0.057168346
23	0x3d11b677	0.035574403
24	0xbd3ec8a9	-0.046578083
25	0xbd07c8e0	-0.033150554
26	0xbcaf025c	-0.02136343
27	0xbe3c593f	-0.1839342
28	0xbb77a9fa	-0.0037790523
29	0xbe2c535c	-0.16828674
30	0xbd24e4ec	-0.04025738
31	0xbcfab6d7	-0.030604763
32	0x3db95527	0.09049445
33	0xbe0d4041	-0.13794042
34	0xbdbc562f	-0.09196126
35	0xbe5bca80	-0.21463966
36	0x3e1c76c0	0.15279675
37	0xbb2bb850	-0.0026202388
38	0xbc8fd741	-0.017558696
39	0xbdf3112e	-0.11868511
40	0xbe86fbf9	-0.26364115
41	0xbe6c6af7	-0.23087679
42	0x3e048ad1	0.1294358
43	0xbddea245	-0.10870794
44	0x3d78aa35	0.060709197
45	0xbd0e4d94	-0.034741953
46	0xbe446657	-0.19179665
47	0x3de23900	0.11046028
48	0xbd67c876	-0.05658766
49	0x3e2c073b	0.16799633
50	0xbe50de0d	-0.20397206
51	0xbd122caf	-0.035687145
52	0x3bb45c3f	0.0055041607
53	0xbe95aacc	-0.2923187
54	0xbdf9aa2e	-0.12190662
55	0x3cef5e5e	0.029219802
56	0xbc3d8e91	-0.011569635
57	0xbb9363bf	-0.0044979746
58	0xbe10663d	-0.14101501
59	0xbe205209	-0.15656294
60	0x3ce2fc27	0.027708126
61	0xbe0fa6a2	-0.14028409
62	0xbdb058d2	-0.08610691
63	0x3e09aca1	0.13444759
64	0x3e3206fb	0.17385475
65	0x3cd1a7d0	0.025592715
66	0xbcebd9de	-0.02879041
67	0xbd3b768c	-0.045767352
68	0x3dda76db	0.10667201
69	0x3d27d677	0.040976014
70	0xbd401331	-0.046893302
71	0xbd62d92d	-0.055382896
72	0xbe817d1b	-0.2529076
73	0x3b434b31	0.0029799456
74	0xbdb1f469	-0.08689196
75	0xbdcb71aa	-0.09933789
76	0x3d2af9e5	0.041742224
77	0x3d8249f5	0.063617624
78	0x3b6a2186	0.0035725548
79	0xbe0ae396	-0.1356338
80	0xbcbf4e86	-0.023352873
81	0xbe3cc4c8	-0.18434441
82	0xbd0baa84	-0.034098163
83	0xbd8d8b84	-0.06911376
84	0x3d9f15eb	0.077678524
85	0xbe400046	-0.18750104
86	0xbc696fdc	-0.014247861
87	0xbdbab858	-0.09117192
88	0x3d98b639	0.07456631
89	0xbd1334f9	-0.03593919
90	0xbd901f32	-0.070372
91	0x3dd930d3	0.106050156
92	0x3dab93d1	0.08377803
93	0xbe68955b	-0.22713225
94	0xbe108b7c	-0.14115709
95	0xbdec74d5	-0.115457214
96	0xbcf5172d	-0.029918278
97	0xbe7b8293	-0.24561529
98	0x3c3135a4	0.010816012
99	0x3e19aad1	0.15006568
100	0xbb10a4c0	-0.0022070855
101	0xbe0d8aa8	-0.13822424
102	0x3dfe585b	0.12419196
103	0x3dbaf5be	0.09128903
104	0x3e403010	0.18768334
105	0xbe3a1e3d	-0.18175597
106	0xbe7bad03	-0.24577717
107	0xbd3059b0	-0.043054283
108	0xbdfca269	-0.12335665
109	0x3e16d6f5	0.14730437
110	0xbdb694b3	-0.08915081
111	0x3d2f2c61	0.042766932
112	0x3dd4952f	0.10380017
113	0xbe077f2f	-0.1323211
114	0x3cb8fd39	0.022581683
115	0x3d267434	0.040638164
116	0xbe453706	-0.19259271
117	0xbb14b431	-0.002269041
118	0xbda8035b	-0.08203765
119	0x3d16f49b	0.036854368
120	0xbe439a26	-0.19101772
121	0xbe067f79	-0.13134564
122	0x3d96f2ff	0.073705666
123	0x3ce035a7	0.027369333
124	0xbe0863a5	-0.13319261
125	0x3dc3fe77	0.0957002
126	0xbde7c21e	-0.11316322
127	0xbdf526a8	-0.11970264
128	0xbe0cee95	-0.13762887
129	0x3dd0b469	0.101906605
130	0x3e459cd1	0.19298102
131	0xbe9e703b	-0.30945
132	0xbdfff93e	-0.12498711
133	0xbdac0b9e	-0.08400653
134	0xbe1a3ae3	-0.15061526
135	0x3cef7292	0.029229436
136	0x3d387c0d	0.04504018
137	0x3e3c39fe	0.18381497
138	0x3cc7feb3	0.024413442
139	0xbe11b509	-0.14229216
140	0xbdf37430	-0.118873954
141	0x3caa6be6	0.020803403
142	0xbd96b177	-0.073580675
143	0x3c431227	0.011906183
144	0xbe35d047	-0.17755233
145	0xbc87c611	-0.016573938
146	0x3b06f5ef	0.0020593365
147	0xbe22e863	-0.15908961
148	0xbdd47366	-0.10373573
149	0xbd8cb881	-0.06871129
150	0xbcdc9eed	-0.02693125
151	0x3da03abc	0.07823703
152	0xbd45c3d4	-0.04828246
153	0xbdd6cf8c	-0.10488805
154	0x3d90d3a8	0.0707162
155	0x3d6a59a1	0.057214383
156	0xbe334074	-0.17505056
157	0xbe782e34	-0.24236375
158	0xbde95825	-0.11393765
159	0xbe226c1e	-0.15861556
160	0x3e19aa6e	0.1500642
161	0x3e28e66f	0.16494153
162	0x3e415bbf	0.18882655
163	0x3e1f3269	0.15546574
164	0xbdadd0db	-0.08487102
165	0x3e16e724	0.1473661
166	0xbe77406f	-0.24145673
167	0xbe40431f	-0.18775605
168	0xbe972de9	-0.29527214
169	0xbe207f12	-0.15673473
170	0xbe5afda4	-0.21385819
171	0x3d00759c	0.03136216
172	0x3bb2931d	0.005449666
173	0xbdae5ced	-0.08513818
174	0xbdde9327	-0.10867911
175	0xbe589107	-0.21149074
176	0x3d693eda	0.056944706
177	0xbdda38ab	-0.1065534
178	0x3d0c99b2	0.034326263
179	0xbdf6846b	-0.120369755
180	0xbdbea866	-0.09309463
181	0x3d2c34d0	0.042042553
182	0x3e262d0c	0.16228122
183	0xbe091e9a	-0.1339058
184	0xbd75aeb7	-0.059981074
185	0xbdaa0e9c	-0.08303568
186	0x3e064963	0.13113932
187	0xbd34b39d	-0.044116605
188	0xbcae18df	-0.021252094
189	0xbe5adc0d	-0.21373005
190	0xbc1f62f1	-0.009728179
191	0x3dc5cf07	0.09658628
192	0xbcb28909	-0.02179386
193	0xbe0dfecb	-0.13866727
194	0x3dfb7c67	0.12279587
195	0xbc63481b	-0.013872172
196	0x3d8940de	0.067018256
197	0xbe87d482	-0.26529318
198	0xbd856a82	-0.065144554
199	0xbda27782	-0.079329506
200	0xbe2d73cb	-0.16938703
201	0xbe011384	-0.12605101
202	0xbe3b8015	-0.18310578
203	0x3dd86c48	0.10567528
204	0x3d279d0d	0.04092126
205	0x3dcf6ce8	0.10128194
206	0xbdee2e34	-0.11629906
207	0xbdcb8916	-0.099382564
208	0xbd231348	-0.03981331
209	0xbe0ec30e	-0.13941595
210	0x3a48f2c9	0.00076655723
211	0xbc0b20a8	-0.008491673
212	0x3bdbc8a8	0.0067072697
213	0xbe8c2b64	-0.27376854
214	0xbd71864b	-0.058965962
215	0xbe486a41	-0.19571783
216	0x3d9832c8	0.07431561
217	0xbda5cbc1	-0.080955036
218	0x3dd8a6a5	0.1057866
219	0x3d60fbb5	0.054927547
220	0xbd18a288	-0.037264377
221	0xbc203f61	-0.009780736
222	0xbde61b88	-0.1123572
223	0x3de26397	0.110541515
224	0x3b09f7b2	0.002105218
225	0x3e529627	0.20565091
226	0xbe31b5fd	-0.1735458
227	0xbe5815cb	-0.21102063
228	0xbdedc390	-0.11609566
229	0x3dbd2d80	0.09237194
230	0x3c22be1d	0.009933022
231	0x3cf327fe	0.029682156
232	0x3c83a9ff	0.016072271
233	0xbe509edb	-0.20373099
234	0xbe904a6b	-0.28181776
235	0x3e0bfb59	0.136701
236	0xbb18b23c	-0.0023299595
237	0xbbffb2df	-0.0078033055
238	0xbe03153c	-0.12801069
239	0xbe4766b9	-0.1947278
240	0xbe37e6f2	-0.17959192
241	0x3d5533d9	0.0520514
242	0xbd6be8e0	-0.057595134
243	0x3dd11d05	0.10210613
244	0xbe0b2de1	-0.1359172
245	0x3dc0aadd	0.094075896
246	0xbe8a1b99	-0.2697418
247	0xbddd7a0e	-0.10814296
248	0x3d0d034f	0.034426983
249	0xbe10c8b4	-0.14139062
250	0x3dbc8127	0.09204321
251	0x3b98322e	0.0046446538
252	0xbe19f803	-0.15036015
253	0xbe1322f4	-0.14368802
254	0xbe323fd4	-0.17407161
255	0xbe15473f	-0.1457796

fc2.weight f4 [128, 260]
0	0xbe17c14f	-0.14819835
1	0xbd34edd6	-0.04417213
2	0x3cad8975	0.021183709
3	0x3dc7a0ca	0.09747465
4	0xbd7be9b7	-0.061502185
5	0x3c976d42	0.018484715
6	0xbd3e2c11	-0.046428744
7	0x3d41f0e4	0.04734887
8	0xbdc3b3cd	-0.09555779
9	0x3d196629	0.037450943
10	0xbd84fb8f	-0.064932935
11	0xbdadf586	-0.084940955
12	0x3d7ca28c	0.061678454
13	0x3dc57a89	0.09642512
14	0xbe415b54	-0.18882495
15	0x3d1986a2	0.03748191
16	0x3d76c34a	0.060244836
17	0x3d200a94	0.039072588
18	0x3d133fa2	0.035949357
19	0xbc8becdb	-0.017080715
20	0xbd260632	-0.040533252
21	0x3e355b0c	0.17710513
22	0xbd19f041	-0.03758264
23	0x3dc13b7d	0.094351746
24	0x3d9cf164	0.07663229
25	0x3d019a97	0.03164157
26	0xbd66b876	-0.05632826
27	0x3d11b296	0.035570703
28	0xbe01b80d	-0.12667866
29	0xbca3947c	-0.019968264
30	0xbd3b3929	-0.04570881
31	0x3d54a94f	0.051919278
32	0xbd0257b0	-0.031821907
33	0x3d2ddb0a	0.04244522
34	0x3d86b811	0.06578077
35	0x3e2d015e	0.16895053
36	0xbd8bd767	-0.06828194
37	0xbd7c5dd4	-0.06161292
38	0x3c69bb6a	0.014265874
39	0xbc102eaf	-0.008800193
40	0xbce3aa9f	-0.02779132
41	0xbdd01ffa	-0.10162349
42	0xbd67110a	-0.056412734
43	0x3d840227	0.06445723
44	0xbaefedf3	-0.0018305167
45	0x3d3251c1	0.043534998
46	0x3d1a33f1	0.03764719
47	0xbd8fffa0	-0.070311785
48	0x3dbec9fe	0.09315871
49	0xbc24c20d	-0.010056031
50	0xb9be0ba4	-0.00036248297
51	0x3d9cb028	0.07650787
52	0xbd2e76bd	-0.042593706
53	0x3d0c305b	0.034225803
54	0xbdb1dbaf	-0.086844794
55	0xbc535851	-0.012899474
56	0xbd1708d7	-0.036873665
57	0xbbdb63ce	-0.0066952473
58	0x3e155bdb	0.14585821
59	0x3dbd6502	0.09247781
60	0xbd679124	-0.0565349
61	0xbd1e9257	-0.03871378
62	0xbc1d1cd0	-0.009589389
63	0xbcc87f8e	-0.024474885
64	0xbba5c1db	-0.0050585098
65	0x3d4cca6a	0.049997725
66	0x3d846f02	0.064664856
67	0xbd31aff1	-0.04338068
68	0xbe6b7dfa	-0.22997275
69	0xbce54d9a	-0.027991105
70	0xb921ec2e	-0.0001544214
71	0xbd03683c	-0.032081828
72	0xbd6c7810	-0.057731688
73	0x3cbfd673	0.023417687
74	0x3cc9c949	0.024632113
75	0x3d8b1e5e	0.067929015
76	0x3d148967	0.03626385
77	0x3ca7b5b5	0.020472387
78	0xbd52c6a6	-0.051458977
79	0x3b1a2332	0.0023519513
80	0x3d365d1a	0.044522382
81	0x3bd6d15e	0.00655572
82	0xbcb3297e	-0.021870371
83	0xbde820bd	-0.11334369
84	0x3e57e4ba	0.21083346
85	0xbd12bbb3	-0.035823535
86	0xbddd4df0	-0.10805881
87	0xbe119f25	-0.14220865
88	0x3dcf4374	0.101202875
89	0x3c96f730	0.018428415
90	0xbdaf7cbe	-0.085687146
91	0x3cdce3a5	0.026964018
92	0x3ac71fa4	0.0015191925
93	0x3d72a0cb	0.059235375
94	0x3da3802d	0.07983432
95	0x3cf4aa08	0.029866233
96	0x3d564cf5	0.052319486
97	0x3c9499eb	0.0181398
98	0x3cd5fe5c	0.026122265
99	0xbe40d769	-0.18832172
100	0xbcf0dd6c	-0.029402457
101	0xbcd0e17b	-0.025498142
102	0xbd5a96a4	-0.05336632
103	0xbe25cab4	-0.16190606
104	0xbdc8d2cd	-0.09805832
105	0xbd669b4d	-0.05630045
106	0xbd4f7299	-0.0506464
107	0x3dd0103d	0.10159347
108	0x3c77a91c	0.015116002
109	0x3d2617f3	0.040550184
110	0xbd58bc0e	-0.052913718
111	0xbd96a140	-0.07354975
112	0x3c2280a5	0.009918367
113	0xbc79c531	-0.015244768
114	0x3d3b8373	0.045779657
115	0x3d756c19	0.059917543
116	0xbd4c3d67	-0.049863245
117	0x3d684646	0.056707643
118	0xbde24cf4	-0.11049834
119	0x3e06ab47	0.13151275
120	0xbd287e15	-0.041135866
121	0xbda30cfe	-0.079614624
122	0xbce0a3a9	-0.02742179
123	0x3d11ccf0	0.035595834
124	0xbac20f60	-0.0014805607
125	0x3e1fcc40	0.15605259
126	0x3c8840a9	0.016632395
127	0x3b87e5ca	0.004147266
128	0x3c8e7445	0.017389426
129	0x3c8f316f	0.017479626
130	0xb9b72a85	-0.0003493616
131	0x3d63ce3a	0.055616595
132	0xbd71d474	-0.0590405
133	0xbddc766c	-0.10764775
134	0x3d970077	0.073731355
135	0x3dbe5ae1	0.092946775
136	0x3d247bce	0.04015713
137	0xbd21f83f	-0.039543387
138	0xbc6407bb	-0.013917859
139	0xbe3ce31c	-0.1844601
140	0x3dc07e23	0.09399059
141	0x3d1f8e75	0.038954217
142	0xbc2073f5	-0.009793271
143	0xbd3f00b4	-0.04663153
144	0x3c9124f5	0.017717818
145	0x3d294f49	0.041335378
146	0x3d283fad	0.04107635
147	0xbd144dcd	-0.03620701
148	0x3bb74832	0.005593323
149	0xbc85fd81	-0.016356232
150	0xbc1287ab	-0.008943479
151	0xbc8deed6	-0.0173258
152	0x3db45303	0.08804896
153	0x3db99eff	0.09063529
154	0xbdb6ebdd	-0.08931706
155	0x3df086d9	0.1174447
156	0xbc7d4157	-0.015457473
157	0xbe17dbea	-0.14829984
158	0x3c618c77	0.0137664
159	0xbe1ca019	-0.15295447
160	0x3d999f13	0.07501044
161	0x3d83765d	0.064190604
162	0xbd242c98	-0.04008159
163	0x3cc89554	0.024485268
164	0x3e2e8082	0.1704121
165	0xbd2dff6b	-0.042479914
166	0x3e251f2e	0.16125175
167	0x3df24cc7	0.1183105
168	0x3d409e9f	0.047026273
169	0x3c87324a	0.016503472
170	0xbde940f1	-0.1138934
171	0x3ca5584b	0.020183703
172	0x3db51732	0.08842315
173	0x3d70880b	0.05872349
174	0xbcadc578	-0.021212325
175	0x3ad16203	0.0015974644
176	0xbcfe5ae9	-0.031049209
177	0x3c352f96	0.011058709
178	0x3ce3465a	0.027743507
179	0xbce100ab	-0.027466139
180	0xbd5f1125	-0.05445971
181	0xbd9c913c	-0.07644889
182	0x3d2b322a	0.041795887
183	0xbd248b06	-0.040171646
184	0x3aee5d59	0.0018185779
185	0x3dd31d63	0.103083394
186	0x3ad90f37	0.001656032
187	0x3d8707dc	0.06593296
188	0x3cac21ee	0.021012273
189	0xbd1f899a	-0.038949586
190	0x3d9194c3	0.07108452
191	0x3bf53c2a	0.0074839788
192	0xbe042834	-0.12905961
193	0x3d57e136	0.052705012
194	0x3d38f217	0.04515275
195	0x3c637d0a	0.013884792
196	0x3e490ae6	0.19633064
197	0x3c5d4867	0.013506032
198	0xbc84932f	-0.016183464
199	0xbe00cbdf	-0.1257777
200	0x3d63b957	0.055596676
201	0x3c95e37e	0.018296953
202	0x3e172ee2	0.14763978
203	0xbca75dd3	-0.020430481
204	0x3d9010fd	0.0703449
205	0xbdca1339	-0.09866948
206	0xbce9febd	-0.028563851
207	0xbb59457d	-0.003315299
208	0xbdd51d7f	-0.104060166
209	0x3c8a2773	0.016864514
210	0x3da14671	0.07874764
211	0xbd935314	-0.0719358
212	0xbc9e529a	-0.019326497
213	0x3c98f577	0.018671734
214	0x3a792fca	0.00095057173
215	0x3be17b3b	0.0068811453
216	0xbd51a72e	-0.051184826
217	0xbe3a9f1f	-0.18224762
218	0x3d89bff9	0.06726069
219	0xbd242feb	-0.04008476
220	0xbe0b9997	-0.13632809
221	0xbccb33a4	-0.024804898
222	0x3e32a988	0.17447484
223	0x3d5da2e1	0.05411041
224	0xbd3fd37e	-0.046832554
225	0xbd438411	-0.04773337
226	0x3e30e45a	0.17274609
227	0xbd5f04ca	-0.054447927
228	0x3d42fc6d	0.047604013
229	0x3b9ed242	0.004846842
230	0xbdd50d92	-0.10402979
231	0xbd8e594a	-0.06950624
232	0xbd26c398	-0.040713876
233	0xbd8f31ab	-0.06991895
234	0xbd7ed94d	-0.062218953
235	0x3dc40504	0.09571269
236	0x3d2c0106	0.041993164
237	0x3ddba84b	0.10725459
238	0xbe1f0a0a	-0.15531173
239	0x3d30b60d	0.043142367
240	0x3da3d432	0.079994574
241	0xbe06772b	-0.13131396
242	0xbe050697	-0.12990795
243	0xbc7696ba	-0.015050584
244	0xbbbea3c0	-0.0058178604
245	0xbd9cce7b	-0.076565705
246	0xbd01349a	-0.031544305
247	0xbc27ce61	-0.010242076
248	0x3dca0181	0.09863568
249	0x3c7b8c60	0.015353292
250	0x3c9700bd	0.01843297
251	0x3d56f924	0.052483693
252	0xbde2c1ee	-0.110721454
253	0xbd44f252	-0.048082657
254	0xbc50f3c6	-0.012753433
255	0xbda6024f	-0.08105909

fc2.bias f4 [128]
0	0xbdb72794	-0.08943096
1	0xbe1eb26c	-0.1549775
2	0xbdf6efea	-0.12057479
3	0x3e1043fc	0.14088434
4	0x3cbed607	0.023295416
5	0x3cad9f3e	0.021194097
6	0xbe4ea7bf	-0.20181178
7	0xbe50e94e	-0.20401499
8	0xbd25f8d6	-0.04052051
9	0xbe249da5	-0.16075762
10	0x3ab32681	0.0013668091
11	0xbda19892	-0.078904286
12	0xbe12104f	-0.14264034
13	0x3defd584	0.11710647
14	0x3c07e5e0	0.008294553
15	0xbdd65723	-0.10465839
16	0x3d7c15b1	0.061544124
17	0xbde12a2b	-0.10994371
18	0x3dcef65d	0.10105584
19	0xbcc3de75	-0.023909787
20	0x3d81a9af	0.06331193
21	0x3c3e60a5	0.011619722
22	0xbde85444	-0.113441974
23	0x3d9e9849	0.0774389
24	0x3e4e8634	0.20168382
25	0xbd820d75	-0.06350223
26	0xbe8386af	-0.25688693
27	0x3e83de19	0.25755385
28	0x3de31071	0.1108712
29	0x3e254225	0.16138513
30	0xbdc61641	-0.09672213
31	0x3dd49625	0.103802
32	0xbdf5a8c6	-0.119950816
33	0x3de99bb4	0.11406651
34	0xbe18da82	-0.14927104
35	0x3d6e2a40	0.05814576
36	0xbe0d79e8	-0.13816035
37	0x3cbeba80	0.02328229
38	0xbdd4028a	-0.10352047
39	0x3c4b6575	0.012414326
40	0x3d0f3483	0.03496219
41	0xbc787c94	-0.0151664205
42	0xbe10d103	-0.14142232
43	0x3dc673e9	0.09690077
44	0xbe30238c	-0.1720106
45	0x3dc808d9	0.097673126
46	0xbdc5768d	-0.096417524
47	0xbe5100fa	-0.20410529
48	0x3d2b7ece	0.041868977
49	0xbe61daaa	-0.2205607
50	0x3b955f53	0.0045584827
51	0xbde6a22c	-0.112614006
52	0xbe2601e3	-0.16211657
53	0x3cf27a14	0.029599227
54	0xbdab61a7	-0.08368235
55	0xbd8e0d3e	-0.069361195
56	0xbd775b6d	-0.060389925
57	0x3c4ede17	0.0126261925
58	0x3e2b5103	0.16730122
59	0xbe233305	-0.15937431
60	0xbe1b29ad	-0.15152617
61	0xbdf4892f	-0.11940228
62	0xbe075933	-0.1321762
63	0xbe0423a4	-0.12904221
64	0xbe0fc341	-0.14039327
65	0x3d906acf	0.07051622
66	0xbe2dfde6	-0.16991386
67	0xbc96b3b1	-0.01839623
68	0xbe1b5ba1	-0.15171672
69	0x3d5b9593	0.053609442
70	0xbe3cccd5	-0.18437512
71	0x3d138796	0.036017977
72	0xbdbb04ce	-0.09131776
73	0xbd0bd874	-0.034141973
74	0xbd439f2e	-0.047759227
75	0xbe3ef12a	-0.18646684
76	0x3e1727d0	0.14761281
77	0x3e1fa568	0.15590441
78	0xbe14521f	-0.14484452
79	0xbe2e556a	-0.1702477
80	0x3cb7e5a3	0.022448367
81	0xbd679e20	-0.056547284
82	0xbdd45dc6	-0.10369448
83	0xbd9df77b	-0.07713219
84	0x3dcf6f21	0.10128618
85	0xbdfaa5c3	-0.12238648
86	0xbe06ef64	-0.13177258
87	0xbccf718e	-0.025322702
88	0x3dbbab16	0.091634914
89	0xbe29deef	-0.16588949
90	0x3ddb64f0	0.10712612
91	0xbe1b024a	-0.15137592
92	0xbe89bc15	-0.26901308
93	0x3d9b9604	0.075969726
94	0xbe3da8c7	-0.18521415
95	0xbe290e61	-0.16509391
96	0x3e257995	0.16159661
97	0xbe0b4268	-0.1359955
98	0xbcc24614	-0.023715056
99	0xbe035dc1	-0.12828733
100	0xbe20a637	-0.15688406
101	0x3e570837	0.20999227
102	0x3d1653e8	0.036701113
103	0x3d688828	0.056770474
104	0x3df180b9	0.1179213
105	0xbe3f2cbe	-0.18669412
106	0xbe620f12	-0.22076061
107	0x3cb50d8d	0.022101188
108	0xbe1295eb	-0.14315002
109	0x3e174ba7	0.14774953
110	0xbe33e4b7	-0.17567717
111	0xbe13e509	-0.14442839
112	0xbe41e7a3	-0.18936019
113	0x3cfc1db5	0.030775884
114	0x3ce012e4	0.027352758
115	0xbe3b6f5e	-0.18304202
116	0x3d8fde7a	0.07024856
117	0x3e0965d5	0.13417752
118	0xbe04eaaa	-0.12980142
119	0xbe43d65b	-0.19124739
120	0xbe3132cd	-0.17304535
121	0x3df25df6	0.11834328
122	0xbe215c90	-0.15757966
123	0x3a34b5e6	0.000689356
124	0xbe0819d6	-0.13291106
125	0xbdad8d7a	-0.0847425
126	0xbd77a10b	-0.060456317
127	0xbe5ec50f	-0.2175486

fc3.weight f4 [1, 128]
0	0xbdc69422	-0.09696223
1	0xbdcfe00b	-0.10150155
2	0xbd72e709	-0.059302364
3	0x3d871060	0.0659492
4	0x3dad94aa	0.08475621
5	0x3dabc251	0.08386672
6	0xbdbf8917	-0.0935232
7	0xbe287295	-0.1644996
8	0x3e178d38	0.14799964
9	0xbddb62ba	-0.1071219
10	0x3dd71200	0.1050148
11	0xbd686aa7	-0.056742337
12	0xbe0baa5d	-0.13639207
13	0x3d8b4000	0.067993164
14	0x3ddb0dd8	0.10696
15	0xbd90aa9e	-0.07063793
16	0x3ddec806	0.10877995
17	0xbdc490cb	-0.095979296
18	0x3d955be3	0.072929166
19	0x3db3cc0e	0.08779155
20	0x3dcec911	0.10096944
21	0x3dc11dfb	0.094295464
22	0xbdedf5a3	-0.11619117
23	0x3dcf5407	0.10123449
24	0x3da85cce	0.08220826
25	0x3dd9ca5f	0.10634302
26	0xbdaf3698	-0.08555335
27	0x3daa98bf	0.08329915
28	0x3dafc8e5	0.085832395
29	0x3da037a9	0.07823116
30	0x3e77c19c	0.2419495
31	0x3db152a7	0.08658343
32	0xbd8783df	-0.06616949
33	0x3d8c2ec8	0.0684486
34	0xbd852762	-0.06501652
35	0x3d9eade0	0.07748008
36	0xbdb3a099	-0.08770866
37	0x3d9411f6	0.07229988
38	0xbd616407	-0.055027034
39	0x3d5f85ec	0.054571077
40	0x3de048a2	0.109513536
41	0x3daf3aa3	0.08556106
42	0xbd8d70be	-0.069062695
43	0x3db98a54	0.09059587
44	0xbdd185db	-0.10230609
45	0x3ddb0e79	0.1069612
46	0xbdb24273	-0.087040804
47	0xbe126bd8	-0.14298952
48	0x3db45713	0.088056706
49	0xbdadeb4e	-0.084921464
50	0x3de4955e	0.11161302
51	0xbd88e51f	-0.066843264
52	0xbddf26e2	-0.10896088
53	0x3dad190f	0.08452045
54	0xbd9380b2	-0.07202281
55	0x3e592448	0.21205246
56	0xbddcdddf	-0.10784506
57	0x3e643315	0.22285111
58	0x3dadebf5	0.08492271
59	0xbd9754df	-0.07389235
60	0xbe14f4cd	-0.14546509
61	0xbd690065	-0.056885142
62	0xbda813a3	-0.082068704
63	0xbe055111	-0.13019206
64	0xbde5d779	-0.11222739
65	0x3dd08a3c	0.10182616
66	0xbdbcca29	-0.092182465
67	0xbd018f5d	-0.031630863
68	0xbddd6f8e	-0.10812293
69	0x3d9af9d4	0.07567182
70	0xbdc485cc	-0.09595832
71	0x3de23257	0.11044758
72	0x3de51470	0.11185539
73	0x3dc01a22	0.093799844
74	0x3e28c3dd	0.16480966
75	0xbe0521f2	-0.1300123
76	0x3da9bbbc	0.082877606
77	0x3db974dc	0.09055492
78	0x3e82b195	0.2552611
79	0xbd940ff6	-0.07229607
80	0x3da09cdc	0.078424186
81	0xbda671c4	-0.08127168
82	0xbdaee33d	-0.08539436
83	0xbdb03675	-0.08604137
84	0x3d911738	0.07084507
85	0xbde55f6f	-0.11199843
86	0xbdf93bf8	-0.12169641
87	0x3e28e747	0.16494475
88	0x3dd0231e	0.10162948
89	0xbdc70fd6	-0.09719817
90	0x3d90c46b	0.07068714
91	0xbdc071ff	-0.09396743
92	0xbdbc813e	-0.092043385
93	0x3db9f9bb	0.090808354
94	0xbde84b0d	-0.1134244
95	0xbd876f52	-0.066130295
96	0x3da79c8a	0.08184154
97	0xbde4720f	-0.111545675
98	0x3dfbc4b5	0.12293378
99	0xbda22fdd	-0.079192854
100	0xbde20884	-0.110367805
101	0x3d9e267e	0.077221856
102	0x3dbd4bde	0.09242986
103	0x3dc0d196	0.09414975
104	0x3dc68924	0.09694126
105	0xbe4e0702	-0.20119861
106	0xbe3f21f8	-0.18665302
107	0x3dd463a4	0.103705674
108	0xbdd07b81	-0.101798065
109	0x3d914ba0	0.070945024
110	0xbe1540cb	-0.14575498
111	0xbdfe6ee1	-0.12423492
112	0xbe1a60c7	-0.1507598
113	0x3dd2b1f7	0.1028785
114	0x3dc215b1	0.094767936
115	0xbe02fc25	-0.12791498
116	0x3db75bfc	0.089530915
117	0x3d929e13	0.071590565
118	0xbd9b027e	-0.07568835
119	0xbdc93eac	-0.09826407
120	0xbdb1a03e	-0.08673142
121	0x3db1a82f	0.086746566
122	0xbda6dbe6	-0.08147411
123	0x3db671bf	0.08908414
124	0xbe1cea8e	-0.1532385
125	0xbd5c94d6	-0.05385288
126	0x3df7446a	0.12073596
127	0xbdc7d99e	-0.09758304

bn1.weight f4 [256]
0	0x3f1860ff	0.59523004
1	0x3ecfb0fc	0.40564716
2	0x3f2b4f7c	0.6691816
3	0x3f32a46f	0.69782156
4	0x3f18ef32	0.59739983
5	0x3eb9856a	0.362346
6	0x3f5bae65	0.8581298
7	0x3f2e51fc	0.6809385
8	0x3f2c7f22	0.6738149
9	0x3eebf4eb	0.46085295
10	0x3df883a5	0.12134484
11	0x3f390198	0.72268057
12	0x3f3011c2	0.68777096
13	0x3f156006	0.58349645
14	0x3edffeb0	0.43749
15	0x3f87c1a1	1.0605966
16	0x3ef58bd7	0.47958252
17	0x3f4e9ca1	0.80707747
18	0x3f2fdc43	0.6869547
19	0x3ec2d6db	0.38054547
20	0x3f4e2bd3	0.8053562
21	0x3f23699e	0.63833034
22	0x3f3cc85b	0.7374322
23	0x3f8c2277	1.0948018
24	0x3ecc86bf	0.39946553
25	0x3f490e84	0.78537774
26	0x3e6472c2	0.22309402
27	0x3e80edc7	0.2518141
28	0x3f261c7b	0.6488721
29	0x3f374073	0.71582717
30	0x3f1c4f24	0.6105826
31	0x3eed9dbc	0.46409404
32	0x3f04ec85	0.519234
33	0x3ee3c288	0.44484353
34	0x3e8610dd	0.2618474
35	0x3f0045a2	0.5010625
36	0x3dd516c2	0.10404731
37	0x3f38e083	0.7221758
38	0x3ecb661e	0.39726347
39	0x3f286762	0.6578275
40	0x3f041eea	0.5160967
41	0x3ee45dee	0.44602913
42	0x3ebcff54	0.3691355
43	0x3f225eb9	0.63425785
44	0x3ef2e5c5	0.47440925
45	0x3f4b1c59	0.7934013
46	0x3f0810d0	0.53150654
47	0x3f4c85fb	0.7989194
48	0x3f08ef69	0.5349031
49	0x3ecdb9e6	0.40180892
50	0x3f7bfc2b	0.9843165
51	0x3f536297	0.8257231
52	0x3f05cc1b	0.52264565
53	0x3f1cbb4c	0.6122329
54	0x3ed1c622	0.40971476
55	0x3f4b54d9	0.7942634
56	0x3ef43b5e	0.47701544
57	0x3f2015e6	0.62533414
58	0x3ebce1e0	0.3689108
59	0x3f0f61f3	0.56008834
60	0x3f6b4faa	0.9191843
61	0x3eda3ea7	0.42625925
62	0x3eeba5ec	0.46025026
63	0x3e2c3934	0.16818696
64	0x3f50ab32	0.81511223
65	0x3f77698c	0.96645427
66	0x3efb3015	0.4906012
67	0x3ec76f8f	0.389523
68	0x3e45b24c	0.19306296
69	0x3f743372	0.95391
70	0x3e8e2f12	0.27770287
71	0x3f1fb107	0.623795
72	0x3ebc1b93	0.36739787
73	0x3f2456e6	0.64195096
74	0xbe76a822	-0.24087575
75	0x3f1d1d38	0.6137271
76	0x3f5a4792	0.8526546
77	0x3f50fe5c	0.8163812
78	0x3f4c4767	0.7979645
79	0x3f40a3a3	0.7524969
80	0x3ea6e268	0.3259461
81	0x3e749daf	0.23888277
82	0x3e8368f1	0.25666
83	0x3ec474a0	0.38370228
84	0x3ec8cc52	0.39218384
85	0x3f6e7029	0.9313989
86	0x3eee110f	0.4649739
87	0x3eb69aba	0.35664922
88	0x3f61cade	0.88200176
89	0x3f03a021	0.5141621
90	0x3f5279f4	0.82217336
91	0x3f3b8e1a	0.73263705
92	0x3f55ba60	0.8348751
93	0x3eb36062	0.35034472
94	0x3f23ecf7	0.64033455
95	0x3e93d840	0.28875923
96	0x3f19868d	0.59970933
97	0x3f47da98	0.7806792
98	0x3f615c02	0.8803102
99	0x3dfa3326	0.12216787
100	0x3f3b5d30	0.7318907
101	0x3f7a4c84	0.97773004
102	0x3f469dfb	0.7758481
103	0x3e85027c	0.25978458
104	0x3eb36e64	0.3504516
105	0x3eabc18e	0.33546108
106	0x3eedbdbd	0.4643382
107	0x3f253778	0.64537764
108	0x3f107ebc	0.5644338
109	0x3e6f3098	0.23358381
110	0x3f430f6e	0.7619542
111	0x3f14340d	0.57891923
112	0x3f11889b	0.5684907
113	0x3e7c5462	0.24641564
114	0x3f736578	0.95076704
115	0x3f472a6d	0.7779911
116	0x3f2cad88	0.6745229
117	0x3e8ede54	0.27903998
118	0x3e6af910	0.22946572
119	0x3ef17cee	0.47165626
120	0x3f32085a	0.69543993
121	0x3ebffc84	0.37497342
122	0x3f02162f	0.508151
123	0x3ec9f85d	0.394473
124	0x3f5f4350	0.87212086
125	0x3f194891	0.5987635
126	0x3f271ee7	0.6528153
127	0x3f181bfc	0.594177
128	0x3f2dcdd3	0.6789219
129	0x3f3afab5	0.730388
130	0x3f54f1fc	0.8318174
131	0x3ed181d3	0.4091936
132	0x3e9dcea2	0.3082171
133	0x3f5779ae	0.84170043
134	0x3ee56502	0.44803625
135	0x3f29cfb8	0.6633258
136	0x3f691cfd	0.9105986
137	0x3f021cfa	0.50825465
138	0x3f674461	0.9033871
139	0x3e7f0fc7	0.24908362
140	0x3e9bea5e	0.30452245
141	0x3f17cdf0	0.5929861
142	0x3f17687c	0.59143806
143	0x3f39ab69	0.72527176
144	0x3e8f7a2d	0.280229
145	0x3f4ffe6b	0.81247586
146	0x3f53bf28	0.82713556
147	0x3f4646d9	0.77451855
148	0x3f1233ab	0.5711009
149	0x3f153c7a	0.58295405
150	0x3f39a80b	0.7252204
151	0x3f5be0ab	0.8588969
152	0x3f5e6d0a	0.8688513
153	0x3f1d076a	0.6133944
154	0x3f1b625b	0.60696954
155	0x3ea47c57	0.32126114
156	0x3eda19e9	0.42597893
157	0x3f45a998	0.77211905
158	0x3f5d671a	0.86485445
159	0x3e89b597	0.26896355
160	0x3f4dd166	0.8039764
161	0x3f4db552	0.803548
162	0x3f270e6c	0.6525638
163	0x3f697cda	0.91206133
164	0x3f11cbc2	0.56951535
165	0x3f38d58f	0.72200865
166	0x3e84e38a	0.2595485
167	0x3ee766e6	0.45195693
168	0x3e3e9c94	0.18614417
169	0x3ebd5ddd	0.36985675
170	0x3ef06bde	0.46957296
171	0x3f87961c	1.0592685
172	0x3edf2168	0.43580174
173	0x3edb4ebd	0.4283351
174	0x3f7344de	0.9502696
175	0x3efb5983	0.4909173
176	0x3ec65fce	0.38744968
177	0x3f01f818	0.50769186
178	0x3f19ce74	0.6008065
179	0x3f0ef72f	0.5584592
180	0x3f347119	0.70485073
181	0x3f28dc94	0.65961576
182	0x3f6f34a5	0.93439704
183	0x3eb48bab	0.35262808
184	0x3f2faf70	0.6862707
185	0x3eeeb7dc	0.4662465
186	0x3f50c4f0	0.815505
187	0x3f8e5cce	1.1122072
188	0x3f649d07	0.89302105
189	0x3ea62025	0.324464
190	0x3eff4446	0.49856776
191	0x3e9f8e28	0.31163144
192	0x3f1d1521	0.61360365
193	0x3f399db5	0.72506267
194	0x3f3d9ddc	0.74069
195	0x3ed281a3	0.4111453
196	0x3f2a5102	0.6652986
197	0x3eab876c	0.33501756
198	0x3f2d9458	0.6780448
199	0x3f200ccb	0.6251952
200	0x3e5cddc2	0.21568969
201	0x3f1d9e1e	0.6156939
202	0x3f514c6a	0.81757224
203	0x3f558465	0.83405143
204	0x3f1d54f7	0.6145777
205	0x3f03877c	0.5137861
206	0x3ec2123e	0.37904543
207	0x3f660760	0.89855003
208	0x3ebe5315	0.37172762
209	0x3f08f0e4	0.5349257
210	0x3e9ce391	0.3064237
211	0x3e56a8a0	0.20962763
212	0x3f55374c	0.832875
213	0x3e9e56ac	0.309255
214	0x3f2e67b1	0.6812697
215	0x3e5b1772	0.21395662
216	0x3f31049e	0.6914767
217	0x3f1dab57	0.6158957
218	0x3f33b1d6	0.7019323
219	0x3f2ee836	0.68323076
220	0x3f4b5053	0.7941944
221	0x3eb179d8	0.34663272
222	0x3e2f25a3	0.17104201
223	0x3ebc014b	0.36719736
224	0x3f4cdec9	0.80027443
225	0x3f2c8bbe	0.6740073
226	0x3e92a815	0.2864386
227	0x3f2c4201	0.67288214
228	0x3f423d7f	0.75875086
229	0x3f254b62	0.6456815
230	0x3f6f5be2	0.9349958
231	0x3f214112	0.62989914
232	0x3ebbb4c3	0.36661348
233	0x3f139a28	0.576571
234	0x3f28d55b	0.65950555
235	0x3ebda5a4	0.37040436
236	0x3e395a4a	0.18100849
237	0x3f0d6675	0.5523446
238	0x3edd2745	0.43194023
239	0x3f2bc83e	0.6710242
240	0x3f4cd10e	0.8000649
241	0x3f62bacb	0.88566273
242	0x3ed1d048	0.40979218
243	0x3e17991b	0.14804499
244	0x3f4aa57e	0.7915877
245	0x3f6339a8	0.8875985
246	0x3efe2e31	0.49644616
247	0x3f17600f	0.5913095
248	0x3e98bdfe	0.29832453
249	0x3ebb7047	0.36609098
250	0x3ec6ee46	0.38853663
251	0x3f3f95de	0.74838054
252	0x3f382149	0.7192579
253	0x3f10c05c	0.5654352
254	0x3f3bcde1	0.7336102
255	0x3f2ff7dc	0.6873758

bn1.bias f4 [256]
0	0xbd9c7297	-0.07639044
1	0x3e84289c	0.25812232
2	0x3de401f6	0.111331865
3	0xbd5ed121	-0.05439866
4	0x3caac557	0.020846052
5	0x3da4680a	0.080276564
6	0xbe016edd	-0.12639947
7	0x3d0452a8	0.03230539
8	0xbc86049e	-0.016359624
9	0x39a2dd02	0.00031063712
10	0x3c91b5dd	0.017786914
11	0xbcfc56e7	-0.030803157
12	0xbc882b20	-0.016622126
13	0xbe181a92	-0.14853886
14	0x3dbb9377	0.09158986
15	0x3ca9845c	0.020692997
16	0x3dc0b8a0	0.094102144
17	0xbdadb86e	-0.08482443
18	0x3e039329	0.12849106
19	0xbd285a45	-0.041101713
20	0xbcd06d0d	-0.025442624
21	0xbd70661d	-0.058691133
22	0x3e0a58a9	0.13510384
23	0xbd6810c6	-0.05665662
24	0x3db6f7b8	0.08933967
25	0xbe1a0fa4	-0.15045029
26	0x3cace110	0.021103412
27	0x3a268197	0.0006351708
28	0x3cf0545b	0.029337099
29	0xbe147bb1	-0.1450031
30	0x3d25dfb1	0.040496532
31	0xbcce630e	-0.025193717
32	0xbd2ed63e	-0.042684786
33	0x3d712fd3	0.0588835
34	0xbdd46971	-0.10371674
35	0x3e32978b	0.17440622
36	0x3dad9744	0.08476117
37	0x3d592601	0.05301476
38	0xbcb8e7da	-0.022571493
39	0xbe2ec3da	-0.17066899
40	0xbd2f6839	-0.042824004
41	0x3d257112	0.040391035
42	0xbddcd645	-0.10783056
43	0xbe22d1e6	-0.15900382
44	0x3d1458aa	0.03621737
45	0x3dbdd363	0.092688344
46	0xbd30337b	-0.043017846
47	0xbc91e94d	-0.017811442
48	0xbcaa7ce4	-0.020811506
49	0x3e4d4444	0.20045573
50	0x3d842c93	0.06453814
51	0x3c7800a2	0.01513687
52	0xbca3a313	-0.01997522
53	0xbc703754	-0.014661629
54	0x3d8c7a6d	0.06859288
55	0x3d83f334	0.06442872
56	0xbd184ebe	-0.03718447
57	0xbd99be77	-0.075070314
58	0xbd1a91e2	-0.03773678
59	0x3c970292	0.018433843
60	0xbc6fb572	-0.014630662
61	0xbd178c1a	-0.036998846
62	0xbc91ce3e	-0.01779854
63	0xbd41ac9c	-0.047283754
64	0xbc145b95	-0.009055038
65	0xbd73b243	-0.059496175
66	0xbdbddc22	-0.092705026
67	0x3dcdd877	0.10051053
68	0xbc525976	-0.012838712
69	0x3d27474e	0.040839486
70	0xbd3b777e	-0.045768254
71	0xbd838a01	-0.064228065
72	0xbd7d3023	-0.061813485
73	0xbdab8133	-0.08374252
74	0xbe1b8957	-0.1518911
75	0x3d27417b	0.04083393
76	0x3de9cb20	0.11415696
77	0x3e5855b1	0.21126439
78	0x3d04d02f	0.0324251
79	0xbe4b1a22	-0.19834188
80	0xbd311a81	-0.043238167
81	0xbdcbed8f	-0.0995742
82	0xbd007ebb	-0.03137086
83	0xbd7035f4	-0.058645204
84	0xbc9e134a	-0.019296307
85	0x3c0ac8ff	0.008470773
86	0x3d63d2d6	0.05562099
87	0xbd859247	-0.06522041
88	0x3d731e5e	0.059355132
89	0x3dc38092	0.09546007
90	0x3d79ee7e	0.06101846
91	0x3c4cf068	0.012508489
92	0xbe2176f7	-0.15768038
93	0x3d5f46d2	0.0545109
94	0xbc47840d	-0.012177479
95	0x3de777b4	0.113021284
96	0xbd01e2a8	-0.031710297
97	0xbb50a682	-0.0031837528
98	0x3cb66a1d	0.022267396
99	0x3e15c8b6	0.14627346
100	0x3e05f1fb	0.1308059
101	0x3c80ead7	0.01573698
102	0x3e6191c1	0.22028257
103	0x3d20a8a2	0.03922332
104	0xbc180924	-0.009279523
105	0x3de15834	0.110031515
106	0x3dd1b172	0.10238923
107	0x3d8e0338	0.06934208
108	0x3dd8595e	0.105639204
109	0x3e5de777	0.21670328
110	0x3a0ee349	0.0005450738
111	0x3dbd1548	0.09232575
112	0x3e2a3239	0.16620721
113	0xbd81a120	-0.0632956
114	0x3d6a435a	0.057193138
115	0xbdb525d3	-0.08845105
116	0xbda0528b	-0.07828244
117	0x3e5a338c	0.21308726
118	0x3df4862a	0.11939652
119	0x3d867e3f	0.06567048
120	0x3d363a7a	0.04448936
121	0xbd0bbee8	-0.03411761
122	0x3d944dbb	0.072413884
123	0xbcd219a7	-0.025646998
124	0x3d9a7058	0.07540959
125	0xbde4b90a	-0.11168106
126	0xbd6dca49	-0.058054242
127	0x3d3f48e7	0.046700384
128	0x3df18105	0.11792187
129	0x3db06bc6	0.08614306
130	0x3c4d673e	0.012536822
131	0x3e17be8d	0.14818783
132	0x3da1d906	0.07902722
133	0xbd2030d5	-0.03910907
134	0x3e176420	0.14784288
135	0x3d0f52fd	0.034991253
136	0x3d41e2ea	0.047335543
137	0xbe02e15a	-0.12781277
138	0x3bfdf24f	0.0077498327
139	0x3db6c93d	0.08925102
140	0x3e04008e	0.12890837
141	0xbc473a13	-0.012159842
142	0xbc94debd	-0.018172616
143	0x3e24ba9a	0.16086808
144	0xbe574afa	-0.21024695
145	0xbcc266d0	-0.023730665
146	0xbd233fb7	-0.039855685
147	0x3d8f1d99	0.06988067
148	0xbe3859da	-0.18003026
149	0xbcd164a5	-0.025560686
150	0x3d042a02	0.032266624
151	0xba83e8f6	-0.0010063935
152	0xbd30bc8b	-0.04314856
153	0xbd99d80e	-0.07511912
154	0x3e5a6b03	0.21329884
155	0xbded9d62	-0.11602284
156	0x3e26f7cd	0.16305466
157	0x3d9bf461	0.07614971
158	0x3d7f1a94	0.062281206
159	0x3cd583d5	0.026063839
160	0x3d9102e2	0.07080628
161	0x3e8f5e81	0.28001788
162	0xbd4f144f	-0.050556477
163	0xbe41c550	-0.18922925
164	0xbe293523	-0.16524176
165	0xbc556c0e	-0.0130262505
166	0x3dabb904	0.08384898
167	0xbe272da8	-0.1632601
168	0x3c97ed50	0.018545777
169	0xbbf10ba0	-0.007356122
170	0x3daac1e4	0.08337763
171	0xbd401ddb	-0.046903472
172	0x3dabb62a	0.083843544
173	0x3da09373	0.07840624
174	0x3cfd3766	0.030910205
175	0xbdba0202	-0.09082414
176	0x3e62db9f	0.22154091
177	0xbde10fdf	-0.10989355
178	0x3cc472d5	0.023980537
179	0xbd754353	-0.05987866
180	0x3d528c06	0.051403068
181	0x3e79a4f9	0.24379338
182	0xbda9b4ac	-0.082864136
183	0xbd00cae4	-0.03144349
184	0x3e37c221	0.17945148
185	0x3e1b1cca	0.15147701
186	0x3e2873af	0.1645038
187	0x3da3d1d5	0.07999007
188	0xbba73bd6	-0.0051035685
189	0x3dff1a21	0.124561556
190	0xbc30443c	-0.010758456
191	0x3bd3364d	0.006445682
192	0xbd87d491	-0.06632341
193	0xbceb3848	-0.02871336
194	0xbcabf47a	-0.020990599
195	0x3e390895	0.1806968
196	0xbdcfab58	-0.10140103
197	0xbe0a7ddb	-0.13524573
198	0x3c884b27	0.016637398
199	0xbc8cdca2	-0.01719505
200	0xbc048601	-0.00808859
201	0x3e11d8ed	0.14242907
202	0x3d3f07ba	0.046638228
203	0x3d29ffed	0.041503835
204	0x3e07a4b6	0.13246426
205	0x3c9a32ba	0.018823016
206	0xbc9d362b	-0.019190868
207	0xbcd58c22	-0.026067797
208	0xbddabbe2	-0.10680367
209	0xbd9a1113	-0.07522788
210	0xbc29703d	-0.010341701
211	0x3e11ebf1	0.14250161
212	0x3d7e53ed	0.062091757
213	0xbc5b8ee3	-0.013400766
214	0x3e22fcd4	0.15916759
215	0xbb914c6d	-0.0044341595
216	0xbc2fe253	-0.010735112
217	0xbdf09f6f	-0.117491595
218	0xbc8a46f9	-0.016879546
219	0xbde08d57	-0.109644584
220	0x3d06cb74	0.03290887
221	0xbe097cd5	-0.13426526
222	0xbe122133	-0.14270477
223	0x3c3c2953	0.011484462
224	0xbcfd6356	-0.030931156
225	0xbd0e8b5d	-0.034800876
226	0x3d2ea632	0.042638965
227	0xbdfc6ed6	-0.12325828
228	0xbcb683a2	-0.022279564
229	0x3c9c8493	0.019106185
230	0xbd441f34	-0.04788132
231	0x3d6540a2	0.05596984
232	0xbd99c6e1	-0.07508636
233	0x3d0eb2a7	0.034838345
234	0xbe08f86d	-0.13376017
235	0x3daf0bae	0.085471496
236	0xbd342b1b	-0.04398642
237	0x3d2f0769	0.042731676
238	0xbd2a7526	-0.041615628
239	0x3c882b1f	0.016622124
240	0x3d1e95ec	0.038717195
241	0xbd90060f	-0.070324056
242	0xbcc11485	-0.023569355
243	0xbcc77e3d	-0.024352187
244	0x3d045d33	0.032315444
245	0xbe360a37	-0.17777334
246	0xbdc102ae	-0.09424339
247	0xbdeb8188	-0.114993155
248	0xbc2cee5f	-0.010554879
249	0xbcc4fe99	-0.024047183
250	0x3dec3627	0.11533766
251	0x3dd7391b	0.10508939
252	0xbd4e71a8	-0.05040136
253	0xbdc0e35a	-0.09418364
254	0x3cda4374	0.026643492
255	0x3d2f5ac7	0.04281118

bn1.running_mean f4 [256]
0	0x3d3426d0	0.043982327
1	0x3e070ee1	0.1318927
2	0x3c9bfc5f	0.019041238
3	0x3e40f60e	0.18843862
4	0x3e592f03	0.2120934
5	0x3d97c0c7	0.07409816
6	0x3e0d6fe9	0.13812222
7	0x3d5c640b	0.053806346
8	0x3de2bd57	0.1107127
9	0x3c91c522	0.017794196
10	0x3e38e3ef	0.180557
11	0x3dd403c9	0.103522845
12	0x3ca07c23	0.019590443
13	0x3e74c7d8	0.2390436
14	0x3e07842a	0.1323401
15	0x3e01feb9	0.12694825
16	0x3ea5509b	0.3228806
17	0x3e5b9d52	0.21446732
18	0x3e879a21	0.2648478
19	0x3d42b021	0.04753125
20	0x3e3e8aaf	0.18607591
21	0x3e51bfb3	0.20483284
22	0x3ef7585a	0.48309594
23	0x3e0fea29	0.14054169
24	0x3dd6d9f8	0.10490793
25	0x3e108ec6	0.14116964
26	0x3de7172b	0.11283716
27	0x3dd10f20	0.10207963
28	0x3daba6e7	0.083814435
29	0x3cac5b56	0.021039646
30	0x3d52b898	0.051445574
31	0x3d238c05	0.039928455
32	0x3ebc8cdf	0.36826226
33	0x3c9fac05	0.019491205
34	0x3e45bdde	0.1931071
35	0x3dba4f65	0.090971746
36	0x3f10ae0d	0.5651558
37	0x3dd0432c	0.10169062
38	0x3e53f972	0.20700625
39	0x3d5ab9ee	0.053399973
40	0x3dd7e0fb	0.105409585
41	0x3e6308ef	0.22171377
42	0x3d9097f0	0.0706023
43	0x3d6a932f	0.05726927
44	0x3dc42cff	0.09578895
45	0x3e8df7f3	0.27728233
46	0x3dae8350	0.085211396
47	0x3cfb39b0	0.030667156
48	0x3dc7d114	0.09756675
49	0x3eea1041	0.45715526
50	0x3dd9a6db	0.10627528
51	0x3e0ba675	0.13637717
52	0x3dcf51b1	0.10123003
53	0x3cf81357	0.03028266
54	0x3e282ec2	0.16424087
55	0x3e45e0f9	0.19324102
56	0x3d9f71a8	0.0778535
57	0x3e8071d4	0.25086844
58	0x3d963447	0.0733419
59	0x3d86b21b	0.0657694
60	0x3d6bb2f2	0.057543702
61	0x3df9a054	0.12188783
62	0x3eca38e4	0.3949653
63	0x3e81f3b2	0.25381237
64	0x3eb95778	0.36199546
65	0x3de83e8b	0.11340054
66	0x3e1414be	0.14461038
67	0x3e12e520	0.14345217
68	0x3cef7623	0.029231137
69	0x3e806ec5	0.2508451
70	0x3e214519	0.15749015
71	0x3e95caf4	0.29256403
72	0x3d9b065b	0.075695716
73	0x3d01f8b1	0.03173131
74	0x3d14781d	0.03624736
75	0x3e1ff393	0.1562026
76	0x3ed86f5b	0.42272457
77	0x3ec7df65	0.39037624
78	0x3cfb77ae	0.030696716
79	0x3d353421	0.044239167
80	0x3e4c10ae	0.19928238
81	0x3d150720	0.036383748
82	0x3d62f687	0.055410888
83	0x3e851130	0.25989676
84	0x3db91cd5	0.090387024
85	0x3de6b83f	0.11265611
86	0x3e4b7651	0.19869353
87	0x3ebb35b1	0.365644
88	0x3ea5ba3f	0.32368657
89	0x3d715660	0.058920264
90	0x3ceae98e	0.02867582
91	0x3d9a3841	0.07530261
92	0x3e916b6e	0.28402275
93	0x3c22cd41	0.009936632
94	0x3cb04657	0.021517916
95	0x3e874339	0.26418474
96	0x3ea238e4	0.3168403
97	0x3d5b0152	0.053468056
98	0x3e092002	0.13391116
99	0x3f054c49	0.52069527
100	0x3e4b4b7d	0.19853015
101	0x3d9004d0	0.07032168
102	0x3deea5ee	0.11652742
103	0x3e259924	0.161717
104	0x3e2cd69d	0.16878743
105	0x3c121eea	0.008918503
106	0x3dc3dddd	0.095638014
107	0x3e51842d	0.20460577
108	0x3e0177bf	0.12643336
109	0x3ed85da8	0.42258954
110	0x3d084426	0.033268116
111	0x3d8a0c4a	0.06740625
112	0x3e099d85	0.13438995
113	0x3d3d69fe	0.04624366
114	0x3eb92a34	0.3616501
115	0x3d6a7c2d	0.05724733
116	0x3ca62ce3	0.020285076
117	0x3d9180cf	0.071046464
118	0x3e28ff26	0.16503581
119	0x3e884655	0.2661616
120	0x3e15db2b	0.14634387
121	0x3e1ec5a6	0.15505084
122	0x3d2d232f	0.04226988
123	0x3c628df7	0.013827792
124	0x3db6d685	0.08927635
125	0x3eb80d5a	0.35947686
126	0x3ccdd273	0.025124764
127	0x3cff68ce	0.031177904
128	0x3e90d094	0.28284132
129	0x3d4ecd2c	0.050488636
130	0x3e3e0b5f	0.18559025
131	0x3bcabdba	0.006187168
132	0x3d4a2a8d	0.049356986
133	0x3d428673	0.047491502
134	0x3e7e5d54	0.2484029
135	0x3e15f077	0.14642511
136	0x3da162f3	0.07880201
137	0x3da4199c	0.08012697
138	0x3ca29440	0.019846082
139	0x3d87f458	0.06638402
140	0x3ca55b41	0.020185115
141	0x3d161a98	0.036646456
142	0x3e99f410	0.30069017
143	0x3e1a5d65	0.1507469
144	0x3dffa6db	0.12482997
145	0x3e98ed0c	0.29868352
146	0x3e1f1f4c	0.15539283
147	0x3ea79fb6	0.32739037
148	0x3e86f575	0.26359144
149	0x3da23a43	0.07921269
150	0x3e8d60cd	0.27612916
151	0x3d4e0d3c	0.05030559
152	0x3df16b6a	0.11788066
153	0x3d8b8075	0.068116106
154	0x3f092345	0.5356944
155	0x3d009f4f	0.03140193
156	0x3e3fae8a	0.18718925
157	0x3d707a0c	0.058710143
158	0x3d8c7fc6	0.06860308
159	0x3c27481a	0.010210061
160	0x3ee054bd	0.4381465
161	0x3f13c810	0.57727146
162	0x3e0e34fe	0.13887402
163	0x3e6cb100	0.23114395
164	0x3e7460e5	0.23865087
165	0x3eeee854	0.46661627
166	0x3e0356cc	0.12826079
167	0x3d4effe8	0.05053702
168	0x3d6c953a	0.0577595
169	0x3d829c1d	0.063774325
170	0x3c61c6b1	0.013780282
171	0x3d3f1b40	0.046656847
172	0x3e23cdaa	0.15996423
173	0x3da9c276	0.082890436
174	0x3d94ad2b	0.07259592
175	0x3d81feb0	0.06347406
176	0x3de8159b	0.11332246
177	0x3d92ef46	0.07174544
178	0x3e37d1fa	0.17951193
179	0x3dfad893	0.122483395
180	0x3e03cf61	0.12872078
181	0x3d52fb13	0.051508974
182	0x3e58615e	0.21130893
183	0x3e406efd	0.18792339
184	0x3e06ee1f	0.13176773
185	0x3ddc07fd	0.10743711
186	0x3dddab6c	0.10823712
187	0x3d8860b5	0.066590704
188	0x3d3ce807	0.046119716
189	0x3ce14c43	0.027502185
190	0x3e24f97c	0.16110796
191	0x3dd0895d	0.1018245
192	0x3e26cf92	0.1629012
193	0x3ed6e72e	0.4197325
194	0x3eb629db	0.35578808
195	0x3e30b303	0.17255788
196	0x3e5acde7	0.21367608
197	0x3d20273a	0.03909991
198	0x3d910256	0.07080524
199	0x3d18a734	0.037268832
200	0x3d92b27f	0.07162952
201	0x3dcbfb06	0.09959988
202	0x3e09636b	0.13416831
203	0x3d0a83df	0.03381717
204	0x3d409c85	0.04702427
205	0x3eef99bd	0.4679698
206	0x3d9ecb9f	0.077536814
207	0x3e317a27	0.17331754
208	0x3ea52a08	0.3225863
209	0x3e02bf4e	0.1276829
210	0x3d6ac47d	0.057316292
211	0x3e93a178	0.28834128
212	0x3dbba61b	0.091625415
213	0x3e424871	0.18972947
214	0x3e7939f0	0.24338508
215	0x3e0d7e7d	0.13817783
216	0x3e3b621d	0.18299146
217	0x3d1caf85	0.038253326
218	0x3e9b0ecf	0.30284736
219	0x3e8c725d	0.27431002
220	0x3df372cd	0.11887131
221	0x3d89116f	0.06692778
222	0x3e576588	0.21034825
223	0x3e68cbaa	0.22733942
224	0x3db001a2	0.085940614
225	0x3e6ca8e4	0.23111302
226	0x3ce8904e	0.028389122
227	0x3e708072	0.23486498
228	0x3e06e39f	0.13172768
229	0x3e18247e	0.1485767
230	0x3e214d8f	0.15752243
231	0x3e7c705c	0.24652237
232	0x3d75bb77	0.059993234
233	0x3d06c9de	0.03290736
234	0x3d7164cd	0.05893402
235	0x3ed71703	0.42009744
236	0x3e31901b	0.17340128
237	0x3dba6ca2	0.09102751
238	0x3daa30c3	0.08310082
239	0x3e09087a	0.1338214
240	0x3d7daf4b	0.06193475
241	0x3ea65aa3	0.32491025
242	0x3d242af4	0.040080026
243	0x3e97c286	0.29640597
244	0x3d998a6a	0.074971035
245	0x3db0ae80	0.08627033
246	0x3b328e89	0.0027245602
247	0x3d01f023	0.031723153
248	0x3e5bcbb6	0.21464428
249	0x3e044ce6	0.1291996
250	0x3e0d6062	0.13806298
251	0x3e03c227	0.12867032
252	0x3e28db28	0.16489851
253	0x3c410720	0.011781484
254	0x3bc49987	0.005999747
255	0x3d0232f7	0.031786885
