ddpg-pendulum/checkpoint_actor.pth (torch_old, 489889 bytes, 5 tensors)

fc1.weight f4 [400, 3]
0	0x3d248b0e	0.040171675
1	0x3cf3ff30	0.029784769
2	0xbe516164	-0.20447308
3	0xbd3b8eea	-0.04579059
4	0xbb0270d8	-0.0019903686
5	0xbda5901c	-0.08084127
6	0x3c31b70c	0.010846864
7	0x3e8ba5b5	0.27274862
8	0xbd20397c	-0.03911732
9	0xbe32c273	-0.17456989
10	0xbe2413e4	-0.16023213
11	0xbd2ee155	-0.042695362
12	0x3e255af8	0.16147983
13	0xbd15e8e1	-0.036599044
14	0xbe5db162	-0.21649697
15	0x3cb12ae6	0.0216269
16	0xbd2f2efb	-0.042769413
17	0xb8fe4000	-0.00012123585
18	0x3e1797f4	0.1480406
19	0xbd07b44e	-0.033130936
20	0xbe5aff67	-0.21386491
21	0xbd449191	-0.047990385
22	0xbe26a554	-0.16274005
23	0xbb1df402	-0.0024101739
24	0xbd6bc717	-0.057562914
25	0xbde7b119	-0.113130756
26	0xbbf1275c	-0.0073594283
27	0xbe3b233e	-0.18275163
28	0xbe81fb78	-0.25387168
29	0x3ae48ddf	0.00174373
30	0xbd26ca75	-0.04072042
31	0x3ad99dc0	0.0016602799
32	0x3a051880	0.0005077198
33	0xbdbc6e0d	-0.09200678
34	0x3f452d4c	0.7702224
35	0x3c51dbf1	0.012808786
36	0x3db45599	0.08805389
37	0x3eb6e2a7	0.35719797
38	0x3c1151f7	0.00886964
39	0xbc10f3b4	-0.008847166
40	0x3cbf1812	0.023326907
41	0xbbd5bcb0	-0.0065227374
42	0x3d1952c7	0.03743246
43	0x3c6d470c	0.014482271
44	0x3cc0b026	0.023521494
45	0xbd24f5f7	-0.040273633
46	0xbe0b782c	-0.1362006
47	0xbba35780	-0.004984796
48	0xbd43a74f	-0.04776698
49	0xbefc3b88	-0.4926417
50	0xbda6edc7	-0.08150821
51	0xbbdbc0a8	-0.006706316
52	0x3c5ff00c	0.0136680715
53	0x3ae9a7c0	0.0017826483
54	0xbe612df0	-0.2199018
55	0xbe47e39a	-0.19520417
56	0xbd34433a	-0.044009425
57	0xbf317d5c	-0.6933191
58	0x3d933382	0.07187559
59	0xbd58a673	-0.052893113
60	0xbba64550	-0.0050741807
61	0x3d06b357	0.032885876
62	0x3d444295	0.04791506
63	0xbd294e9a	-0.041334726
64	0x3ca7aaa2	0.020467106
65	0x3c7df53c	0.015500363
66	0xbda421a6	-0.080142304
67	0xbe070de7	-0.13188897
68	0xbb524eff	-0.0032090542
69	0x3b222380	0.0024740398
70	0x3ccf8366	0.02533121
71	0xbc28f038	-0.010311179
72	0xbd8a4cc6	-0.067529246
73	0xbdd0ffcf	-0.102050416
74	0xbccaead4	-0.024770178
75	0xbe00b859	-0.12570323
76	0xbede26ac	-0.4338888
77	0xbddb1f4c	-0.10699329
78	0xbe5b8677	-0.21438013
79	0x3ea24ef2	0.31700855
80	0x3dbdb49d	0.09262965
81	0xbb2a3db0	-0.002597671
82	0xbb72f800	-0.003707409
83	0xbb3bce80	-0.002865702
84	0x3cdb18d2	0.026745234
85	0xbcc65e4a	-0.024214882
86	0x3d33f481	0.04393435
87	0x3cdc58e2	0.026897851
88	0x3d0e41c9	0.034730706
89	0xbd298bed	-0.04139321
90	0x3bc84318	0.006111514
91	0x3d15c35b	0.03656326
92	0x3c207ca0	0.009795338
93	0xbe374898	-0.17898786
94	0xbe6c1141	-0.23053457
95	0x3d66ede3	0.05637921
96	0x3d2f6065	0.04281654
97	0xbb0ab2d0	-0.002116371
98	0xbc8d1794	-0.017223157
99	0x3e7bc605	0.24587257
100	0x3df9960d	0.12186823
101	0x3b8fc059	0.0043869433
102	0xbccfb20b	-0.025353452
103	0xbb3e026f	-0.002899315
104	0x3d3e55fe	0.046468727
105	0x3dd0b625	0.10190991
106	0x3ea078fb	0.313423
107	0x3d093830	0.03350085
108	0x3e19f118	0.15033376
109	0xbd28077b	-0.04102276
110	0xbe46923e	-0.19391724
111	0xbe0596db	-0.13045828
112	0xbe110bb6	-0.14164624
113	0xbd4fac15	-0.05070122
114	0xbc8483fc	-0.016176216
115	0xbca80223	-0.020508831
116	0xbc81a4f6	-0.01582573
117	0xbe3282e0	-0.17432737
118	0xbe51ce9a	-0.20488968
119	0xbcdb7634	-0.026789762
120	0xbe515cee	-0.20445606
121	0x3e5e69c0	0.21720028
122	0x3d5077a8	0.050895363
123	0xbd40b317	-0.047045793
124	0x3d457329	0.04820553
125	0x3bce1950	0.0062896386
126	0xbe6d9f97	-0.2320541
127	0x3ebb9c1f	0.36642548
128	0x3bd6e449	0.0065579754
129	0x3df753b7	0.12076514
130	0x3e827d65	0.25486293
131	0x3c2424e6	0.010018563
132	0xbe88b1ce	-0.26698154
133	0x3eb1d113	0.34729823
134	0x3be9a27d	0.007129966
135	0x3cd4d0e6	0.025978517
136	0x3d1e216d	0.038606096
137	0xbcb1b8d0	-0.02169457
138	0xbdc720c5	-0.09723047
139	0xbd5dd94a	-0.0541623
140	0xbcf1adec	-0.029501878
141	0xbe19dd8a	-0.15025917
142	0x3e72a5a1	0.23695995
143	0xbdd869e4	-0.10567072
144	0x3dd87e69	0.10570986
145	0x3ee35365	0.44399562
146	0x3d40acb3	0.0470397
147	0xbd9f6efd	-0.07784841
148	0xbdf14292	-0.117802754
149	0xbd6e8b9d	-0.058238614
150	0x3d2d4999	0.042306516
151	0x3e5bab70	0.21452117
152	0xbdd72da5	-0.10506753
153	0xbcdbbf1b	-0.026824525
154	0xbd38f8ae	-0.045159034
155	0xbe5556b3	-0.20833854
156	0xbd0d0ffd	-0.034439076
157	0xbd0b42e4	-0.03399934
158	0xbcfd0a5d	-0.03088873
159	0xbd354d0d	-0.044262934
160	0xbe918f6d	-0.28429738
161	0xbe2aca92	-0.16678837
162	0xbe18e725	-0.14931925
163	0x3e1d2fe4	0.153503
164	0xbd2f08f7	-0.04273316
165	0x3ca6b26e	0.020348754
166	0x3c0a0eb4	0.008426357
167	0xbc69c388	-0.01426781
168	0x3d3e90df	0.04652488
169	0x3ec6bcd6	0.38815945
170	0x3dde6b4a	0.108603075
171	0x3d4bf4a6	0.04979386
172	0x3e23e613	0.16005735
173	0x3ad1e510	0.00160137
174	0x3c14eb37	0.009089283
175	0x3de3673d	0.111036755
176	0xbd9b90c9	-0.07595975
177	0xbe6c29c3	-0.23062806
178	0x3ecb6b84	0.39730465
179	0x3c1058b4	0.008810211
180	0xbd15e8da	-0.036599018
181	0xbbab20d0	-0.0052224174
182	0x3d067829	0.032829437
183	0x3d4031e1	0.04692257
184	0xbd0acb96	-0.03388556
185	0x3d3cc981	0.046090607
186	0x3d6f1d17	0.05837735
187	0x3eca0425	0.39456287
188	0xbd836d47	-0.064173274
189	0xbd3eb24b	-0.046556752
190	0xbd387c23	-0.04504026
191	0x3c1e4018	0.009658836
192	0x3d10d5d5	0.035360176
193	0x3d325889	0.043541465
194	0x3c5277e4	0.012845967
195	0xbb7eb405	-0.0038864624
196	0x3dc2718d	0.09494314
197	0xbdc5b9f3	-0.096546076
198	0x3d4263d7	0.047458496
199	0x3ccf3242	0.02529252
200	0xbbaf2a70	-0.005345635
201	0xbe9877e3	-0.29778966
202	0xbe3d93c6	-0.18513402
203	0x3ca64ef3	0.020301318
204	0x3d23677f	0.039893623
205	0xbc8156e4	-0.015788503
206	0xbc56b638	-0.013104968
207	0x3d10fa61	0.03539503
208	0xbc25a1c8	-0.010109372
209	0x3c8d7972	0.017269824
210	0x3cc51a22	0.024060313
211	0xbce63007	-0.028099073
212	0x3c10be88	0.008834489
213	0x3dee1ca9	0.1162656
214	0xbc68a186	-0.014198666
215	0xbe5765b5	-0.21034892
216	0x3d0abc45	0.033870954
217	0x3d81e1e4	0.06341913
218	0xbc748774	-0.014924873
219	0xbd07c37d	-0.033145417
220	0xbe0b33f9	-0.13594045
221	0xbcf8789d	-0.03033095
222	0xbdd4a14b	-0.10382327
223	0x3e9f3707	0.3109667
224	0x3d9b1e1d	0.07574103
225	0x3c5f6fa4	0.013637457
226	0xbccb7ea7	-0.024840666
227	0xbc5c0b68	-0.013430454
228	0x3cb7bb4a	0.022428174
229	0x3d44da79	0.048059914
230	0x3ced038e	0.02893236
231	0xbb59c950	-0.0033231564
232	0x3b95fb70	0.004577093
233	0xbc654f34	-0.013995934
234	0xbdb34b2d	-0.08754573
235	0xbe91b613	-0.28459224
236	0x3d9d0257	0.07666462
237	0xbd867faa	-0.06567319
238	0xbec0d54e	-0.3766274
239	0xbc449037	-0.011997274
240	0xbd972abd	-0.073811986
241	0xbd1f7aaf	-0.03893536
242	0xbd356830	-0.044288814
243	0x3dccb916	0.0999624
244	0xbd1c2293	-0.03811891
245	0xbd01f7f6	-0.031730615
246	0x3dfc8306	0.12329678
247	0x3eecdf25	0.46263996
248	0x3de53506	0.11191754
249	0x3d142131	0.036164466
250	0xbf06950c	-0.5257118
251	0xbdfc41e2	-0.12317254
252	0xbdde6721	-0.10859514
253	0xbe186753	-0.14883165
254	0xbd195eee	-0.037444048
255	0x3c88d62e	0.016703691

fc1.bias f4 [400]
0	0xbe00bfde	-0.12573192
1	0x3f18d122	0.5969411
2	0x3d2277e6	0.039665125
3	0x3f0143a4	0.50493836
4	0x3d194f98	0.037429422
5	0xbee8adea	-0.45445186
6	0x3d1e8138	0.03869745
7	0x3eaede2c	0.3415388
8	0x3e74388d	0.23849697
9	0x3eb1306a	0.3460725
10	0xbdb170b0	-0.086640716
11	0x3e103c4a	0.14085498
12	0xbd8ae3e9	-0.06781752
13	0xbe5d6fb6	-0.21624646
14	0xbe427d07	-0.18993007
15	0x3f094c95	0.5363248
16	0xbdafb250	-0.08578932
17	0xbda4b690	-0.080426335
18	0x3ece9e9e	0.4035539
19	0xbc9a7d1e	-0.018858489
20	0xbefffa38	-0.4999559
21	0xbf00d170	-0.50319576
22	0x3ef08b7a	0.46981412
23	0xbe84d724	-0.2594539
24	0x3ed28f5c	0.41125
25	0x3dbc7077	0.092011385
26	0x3e71a7dd	0.23599191
27	0xbd8a49f0	-0.06752384
28	0xbf022dd1	-0.5085116
29	0xbef8f3aa	-0.486234
30	0xbedb356d	-0.42814198
31	0x3e552a31	0.20816876
32	0xbeee6a3e	-0.4656543
33	0x3ec36a54	0.3816706
34	0xbecc6206	-0.39918536
35	0x3e0b1f56	0.13586172
36	0x3d5151a6	0.051103257
37	0x3eca6a1e	0.39534086
38	0xbeba7ef4	-0.36424983
39	0x3e96e21c	0.29469383
40	0x3e60ffcf	0.21972583
41	0xbe9892f2	-0.2979961
42	0x3dcaa159	0.09894056
43	0x3e685e79	0.22692288
44	0x3d39efcb	0.0453947
45	0xbed3b52e	-0.41349167
46	0x3ef1791e	0.47162718
47	0xbd614260	-0.05499494
48	0xbdce18ed	-0.10063348
49	0x3ee1b749	0.44085148
50	0x3e0cabf9	0.13737477
51	0xbe3e543d	-0.18586822
52	0xbee1cd31	-0.4410186
53	0x3f01dbac	0.5072582
54	0x3ea6d0b5	0.32581106
55	0xbe849838	-0.25897384
56	0x3da30346	0.07959609
57	0x3e4c69ff	0.1996231
58	0x3df3660b	0.118846975
59	0x3d94a3e3	0.072578214
60	0xbee7608c	-0.45190847
61	0xbf0d7837	-0.5526156
62	0xbcb005f8	-0.021487221
63	0xbed3459d	-0.41264048
64	0xbf067586	-0.52523077
65	0x3d8a7630	0.06760824
66	0xbe8cd4dd	-0.27506152
67	0x3ea828c5	0.32843605
68	0xbef239c6	-0.47309703
69	0xbe8a7c0c	-0.27047765
70	0xbed4030c	-0.41408575
71	0x3cc6a58f	0.024248866
72	0x3e3a0398	0.18165433
73	0x3e991a33	0.299028
74	0x3e479df7	0.19493853
75	0xbf0d42e2	-0.5518018
76	0xbea298d3	-0.3175722
77	0xbe462a2a	-0.19352022
78	0x3dea99a4	0.11455086
79	0xbd4dabf5	-0.05021282
80	0x3ed40434	0.41409457
81	0x3eabc6c7	0.33550093
82	0xbdbc6ad6	-0.09200065
83	0xbd95a80f	-0.07307445
84	0x3ea96a2c	0.33088815
85	0xbeb4c4ba	-0.3530634
86	0xbd7fd4f2	-0.06245894
87	0xbef51614	-0.47868407
88	0x3eea403d	0.45752135
89	0x3e41d8bb	0.18930332
90	0xbeca816d	-0.3955187
91	0x3e38672e	0.1800811
92	0x3ec1a807	0.37823507
93	0xbcdcd6bd	-0.026957864
94	0x3ebcb5a9	0.36857346
95	0xbeb62748	-0.35576844
96	0x3d8199de	0.06328176
97	0xbe98c3c4	-0.29836857
98	0xbe0ffb08	-0.14060605
99	0x3dd15cc0	0.10222769
100	0xbecb6b1e	-0.3973016
101	0x3e3cdfad	0.184447
102	0x3e956abc	0.29182994
103	0xbeb5beac	-0.35497034
104	0xbe330275	-0.17481406
105	0x3ec3abbc	0.3821696
106	0x3efe5917	0.49677345
107	0xbef0f464	-0.47061455
108	0x3ed69725	0.4191219
109	0xbea8beaa	-0.32957965
110	0xbc38283e	-0.011240063
111	0xbea5219b	-0.322522
112	0xbf01d0f6	-0.50709474
113	0xbe87fa2e	-0.2655806
114	0x3d4f62ef	0.05063146
115	0xbd07f3c8	-0.033191472
116	0xbcafb5a1	-0.021448912
117	0x3b928a01	0.0044720178
118	0x3ee19efb	0.44066605
119	0x3e1795b3	0.148032
120	0xbf0e2f3b	-0.5554082
121	0x3e63ab9e	0.22233436
122	0xbe93a556	-0.2883708
123	0x3ee0883e	0.43853945
124	0xbed93cce	-0.42429203
125	0xbf04408e	-0.51661
126	0x3ecef4ae	0.4042105
127	0x3df9692c	0.12178263
128	0xbf0dacf3	-0.55342025
129	0x3b01ca98	0.0019804593
130	0x3ea2856c	0.31742418
131	0x3d106324	0.035250798
132	0x3ea1ecb8	0.31625915
133	0x3e202f51	0.1564305
134	0x3eb47131	0.35242608
135	0xbebb4fa0	-0.36584187
136	0x3ee7d222	0.45277506
137	0xbefc4f34	-0.49279177
138	0x3e147be2	0.14500383
139	0x3ea1e7be	0.31622118
140	0x3ef5bc77	0.4799535
141	0xbd86ae3a	-0.065762
142	0xbd359627	-0.04433265
143	0xbe7cc9c4	-0.24686342
144	0x3dd078c0	0.10179281
145	0xbf04e882	-0.5191728
146	0x3e0d7521	0.13814212
147	0xbf0d0638	-0.55087614
148	0xbe9e79da	-0.3095234
149	0xbe5798a2	-0.21054319
150	0x3ddece5a	0.10879202
151	0xbeec2edf	-0.4612951
152	0x3e736b98	0.23771513
153	0xbde6f7bd	-0.11277721
154	0xbde2df7c	-0.110777825
155	0x3eda8324	0.42678177
156	0x3ebdd430	0.3707595
157	0xbeeac046	-0.45849818
158	0xbe8f5744	-0.27996266
159	0xbe2ebfce	-0.17065355
160	0xbe1397a4	-0.14413315
161	0x3d392f21	0.04521096
162	0xbd93520d	-0.07193384
163	0x3efa2548	0.48856568
164	0x3f123475	0.57111293
165	0xbd88903f	-0.06668138
166	0xbcb83067	-0.022484018
167	0xbe392a50	-0.18082547
168	0xbdbc3755	-0.09190241
169	0x3e8a42c4	0.27004063
170	0xbe889e31	-0.2668319
171	0x3ef046d9	0.46929052
172	0xbdba59d1	-0.09099162
173	0xbe4de5aa	-0.20107141
174	0xbeda5c35	-0.42648473
175	0xbe0c76a3	-0.13717131
176	0x3ebc3743	0.3676091
177	0xbf0097a0	-0.5023136
178	0xbe8162d9	-0.25270727
179	0xbebfd666	-0.3746826
180	0x3ed072d2	0.407126
181	0x3ebc6f68	0.36803746
182	0x3edf8005	0.4365236
183	0xbbb78a8d	-0.0056012333
184	0xbe53b5f7	-0.20674883
185	0x3dd54d5e	0.10415147
186	0x3da21e87	0.07915979
187	0xbf04d1ab	-0.5188243
188	0xbee085f2	-0.43852192
189	0xbeea9374	-0.45815623
190	0x3ea515c9	0.32243183
191	0x3e822c09	0.2542422
192	0x3e0ed46c	0.1394822
193	0xbc94a8c6	-0.018146884
194	0x3e74ef8c	0.23919505
195	0x3ed0479b	0.4067963
196	0x3df317f1	0.11869801
197	0xbec085ad	-0.37601987
198	0x3e1f3889	0.1554891
199	0xbee0b366	-0.4388687
200	0xbef549ae	-0.47907776
201	0x3ed7ef86	0.4217493
202	0xbf0f9bfb	-0.5609738
203	0x3e699782	0.22811702
204	0x3e39523a	0.18097773
205	0x3e845265	0.25844112
206	0x3e04284a	0.12905994
207	0xbeadeb40	-0.33968544
208	0x3e42ac9a	0.19011155
209	0x3db9412d	0.090456344
210	0xbef69198	-0.48157954
211	0x3dbac4ad	0.09119544
212	0xbeae4445	-0.3403646
213	0x3cf94a52	0.030430946
214	0x3ebe7f7a	0.37206632
215	0x3ecffb66	0.4062149
216	0xbe0929ca	-0.13394848
217	0x3ea1cffd	0.31603995
218	0x3e92f154	0.28699744
219	0xbe8e4233	-0.2778488
220	0xbdc3c180	-0.095583916
221	0x3e5f4c35	0.21806414
222	0x3e182591	0.1485808
223	0x3e4cb5c4	0.19991213
224	0x3e91c71b	0.28472218
225	0x3ebff6c6	0.3749296
226	0x3ee1391e	0.4398889
227	0x3e53821f	0.20655106
228	0xbe452e65	-0.1925598
229	0xbd0e1752	-0.03469021
230	0x3e9142ec	0.2837137
231	0xbeba9426	-0.36441153
232	0xbe9ab19c	-0.3021363
233	0xbecfc3a7	-0.40578958
234	0xbf0ad9f4	-0.5423882
235	0xbe892af6	-0.2679059
236	0xbf0f8d76	-0.5607523
237	0x3e47a5b3	0.19496803
238	0x3ebee473	0.37283668
239	0x3df21ed4	0.11822286
240	0xbf008763	-0.50206584
241	0x3eb06f71	0.34460023
242	0xbcd0bb81	-0.025480034
243	0x3e1579ca	0.1459724
244	0xbe1538fa	-0.14572516
245	0x3e55024e	0.2080166
246	0x3d2974b2	0.041371055
247	0xbe69a67b	-0.22817414
248	0x3e233ee4	0.1594196
249	0x3eb5c421	0.35501197
250	0x3e1da546	0.15395078
251	0x3e58f8a5	0.211886
252	0x3e3167fd	0.17324825
253	0x3e27dcf3	0.16392879
254	0x3eb8ed08	0.3611834
255	0xbec18339	-0.37795427

fc2.weight f4 [300, 400]
0	0x3c92785c	0.017879657
1	0x3d1dd8fa	0.038537003
2	0x3d48018a	0.048829593
3	0xbcaa173c	-0.020763032
4	0xbc3c97cc	-0.011510801
5	0x3ce75fbc	0.028243892
6	0xbca22666	-0.0197937
7	0xbc850b38	-0.016240701
8	0xbd25b012	-0.040451117
9	0xbd638585	-0.055547256
10	0xbc458d40	-0.012057602
11	0xba6c23c0	-0.0009008013
12	0x3c844094	0.016144074
13	0x3d47ab4e	0.048747353
14	0x3d4ef96e	0.050530843
15	0x3d27540c	0.040851638
16	0x3d007a80	0.031366825
17	0x3d59b4ec	0.053151056
18	0xbbe65510	-0.007029183
19	0xbcf47ebb	-0.029845586
20	0xbce3d84c	-0.0278131
21	0xbd4610ce	-0.04835587
22	0xbc9be148	-0.01902832
23	0x3cf8381c	0.030300193
24	0xbcd0829a	-0.0254529
25	0xbd2d0bdc	-0.042247638
26	0x3c76eb18	0.015070699
27	0x3d526ae4	0.05137147
28	0xbc5d6458	-0.013512693
29	0xbd64c089	-0.05584768
30	0xbd465452	-0.048420258
31	0x3c3c7b70	0.011504039
32	0x3bad8ff0	0.0052966997
33	0x3c08ac00	0.008341789
34	0xbd36fcc9	-0.04467467
35	0x3aa02220	0.0012217201
36	0xbc23ae20	-0.009990245
37	0x3cebd150	0.028786331
38	0x3d5f04f2	0.054448076
39	0x3d0d8984	0.034554973
40	0x3d158bea	0.036510386
41	0xbd467750	-0.04845363
42	0xbb43fd00	-0.0029905438
43	0xbd1c9486	-0.03822758
44	0xbd5141f3	-0.051088285
45	0x3d498074	0.049194768
46	0x3d1303f0	0.035892427
47	0xbcab70c4	-0.020927794
48	0x3adf4c20	0.0017036237
49	0xbd6b20ec	-0.057404444
50	0xba59c840	-0.00083077326
51	0xbc36c7a4	-0.0111559965
52	0x3cd180f4	0.025574185
53	0xbcff5627	-0.03116901
54	0xbcbb4c16	-0.022863429
55	0xbcb1c5a6	-0.021700691
56	0xbd5ef9e2	-0.054437526
57	0xbcee2aba	-0.029073108
58	0x3d0265e6	0.03183546
59	0xbccae2a2	-0.02476627
60	0xbcea77d8	-0.0286216
61	0x3c8af368	0.016961768
62	0x3d393e7c	0.045225605
63	0xbd3ac6db	-0.0455998
64	0xbc6c72f0	-0.0144317
65	0xbae28580	-0.0017282218
66	0xbd4a650b	-0.04941277
67	0xbd67cae2	-0.05658997
68	0x3d4d76ca	0.050162114
69	0xbd61ec39	-0.05515692
70	0xbd5dcd48	-0.05415085
71	0xbc4700d8	-0.012146197
72	0x3c1ef060	0.009700865
73	0xbc985880	-0.018596888
74	0x3c4ab690	0.012372628
75	0x3ce387b8	0.027774677
76	0xbc6604cc	-0.01403923
77	0xbd1d151a	-0.038350202
78	0xbd5dfb95	-0.054195005
79	0xbcf82988	-0.030293241
80	0xbd379d3b	-0.04482768
81	0x3d409924	0.047021046
82	0xbd666bed	-0.05625527
83	0x3d664cf4	0.056225732
84	0xbc93c2b8	-0.018037185
85	0x3caa3a30	0.0207797
86	0x3d6b0a9a	0.057383157
87	0xbd63ce1b	-0.05561648
88	0x3bb2ec10	0.0054602697
89	0xbd243fd8	-0.04009995
90	0x3d4b809a	0.04968319
91	0x3d6c3acc	0.05767326
92	0xbc850bc0	-0.016240954
93	0x3ab59e80	0.0013856441
94	0x3cb95314	0.022622623
95	0x3d367d66	0.044553183
96	0x3d3afc42	0.045650728
97	0xbd41c9d7	-0.04731163
98	0xbd32f23f	-0.043688055
99	0x3d03de88	0.032194644
100	0x3d0f69c6	0.035012983
101	0xbc540670	-0.012940988
102	0x3d5795f8	0.052633256
103	0x3d3a8620	0.045538068
104	0xbccfcb6c	-0.025365554
105	0xbc7afa04	-0.015318397
106	0xbd132b76	-0.03593012
107	0xbbe7d160	-0.00707452
108	0xbcabec56	-0.020986717
109	0xbc7c8420	-0.01541236
110	0xbcd99054	-0.026558079
111	0xba0544c0	-0.0005083792
112	0xbd51fb6e	-0.051265173
113	0x3d587d40	0.052853823
114	0x3d2373a4	0.039905205
115	0x3c844b20	0.016149104
116	0x3c850168	0.016236022
117	0xbcb7c0de	-0.022430833
118	0xbb256c80	-0.0025241673
119	0x3c8b1e18	0.016982123
120	0x3d34252c	0.043980762
121	0xbcecb326	-0.028894018
122	0x3d1c3616	0.038137518
123	0xbd543bd4	-0.05181487
124	0x3d4ed0de	0.05049216
125	0xbb7bf170	-0.0038443469
126	0xbbcfc288	-0.0063403286
127	0x3d2d64b4	0.042332366
128	0xbd6aa1d3	-0.057283234
129	0xbd58185c	-0.052757606
130	0xbd57d931	-0.052697364
131	0xbbc00f70	-0.0058612153
132	0xbc32e65c	-0.01091918
133	0xbd54b2a4	-0.051928177
134	0x3d294258	0.041323036
135	0xbd45fed0	-0.04833871
136	0xbd4ca86a	-0.0499653
137	0xbc93ed84	-0.018057592
138	0x3d09dcb2	0.033657737
139	0x3d217f2e	0.03942793
140	0xbd0ee9ea	-0.034891047
141	0x3d240930	0.040047824
142	0xbd305bee	-0.04305642
143	0xbba43060	-0.0050106496
144	0x3cbb63e0	0.022874773
145	0x3cdac854	0.026706852
146	0xbc9f6266	-0.0194561
147	0x3ac7b980	0.0015237778
148	0x3d09b728	0.033621937
149	0x3c8df7e8	0.017330125
150	0x3d1f1b8e	0.038844638
151	0xbc5b2f14	-0.0133779235
152	0xbd637088	-0.05552724
153	0xbbaa3580	-0.005194366
154	0xbcc5342c	-0.024072729
155	0xbd49ec78	-0.04929778
156	0xbc2304ec	-0.009949904
157	0xbd193b90	-0.03741032
158	0xbd1b0014	-0.03784187
159	0xbccd737c	-0.025079481
160	0xbd39ebbd	-0.045390833
161	0x3cd438dc	0.025906019
162	0x3d5856a8	0.052817017
163	0xbd1439b2	-0.036187835
164	0x3d3db22a	0.04631249
165	0x3d4f6ebe	0.05064272
166	0x3c1a2900	0.009409189
167	0x3d1b8648	0.037969857
168	0xbbeb6168	-0.0071832426
169	0xbd047f19	-0.032347772
170	0x3d597dc0	0.05309844
171	0x3c9105f8	0.017703041
172	0x3d57cd0e	0.05268579
173	0xbc39dfbc	-0.011344846
174	0xbd697adf	-0.057001945
175	0xbc8ce5f6	-0.017199498
176	0xbcffcd9f	-0.031225977
177	0x3d0326f0	0.032019556
178	0xbba18de8	-0.0049302466
179	0xbd45956f	-0.048238214
180	0xb99abb00	-0.00029512495
181	0xbd1dd5a8	-0.038533837
182	0xbd29df77	-0.04147288
183	0xbd080d7a	-0.033215977
184	0x3d34b56a	0.044118322
185	0xbcf395e2	-0.029734556
186	0xbcc074aa	-0.02349313
187	0x3b16aa60	0.0022989735
188	0xbd516435	-0.051120955
189	0x3bf644b0	0.0075155124
190	0xbbc48a68	-0.0059979446
191	0x3d2afd1c	0.04174529
192	0x3cd22720	0.025653422
193	0x3c72b050	0.014812544
194	0xbc7c3530	-0.01539354
195	0x3ae77bc0	0.0017660782
196	0xbc9d4a24	-0.019200392
197	0xbca5dd10	-0.020247012
198	0x3d1095d6	0.035299145
199	0xbd2a148e	-0.04152351
200	0x3d2812e6	0.041033648
201	0xbd663c07	-0.05620959
202	0x3d40d974	0.04708238
203	0xbd58f483	-0.05296756
204	0x39dc7900	0.00042051822
205	0x3c578498	0.013154171
206	0x3d0c89ac	0.03431098
207	0x3d6a81c4	0.05725266
208	0xbd1d3b74	-0.038386777
209	0xbd636e69	-0.055525217
210	0xbd2577ce	-0.040397458
211	0xbcce2a8c	-0.025166772
212	0xbb836fd8	-0.0040111355
213	0x3c8424bc	0.016130798
214	0x3d047c80	0.032345295
215	0x3b361580	0.002778381
216	0x3d42df8a	0.047576465
217	0xbd58f7ee	-0.05297082
218	0xbb39d210	-0.0028353967
219	0xbd454574	-0.04816194
220	0x3cb1adac	0.021689259
221	0xbc738710	-0.014863744
222	0x3d4f65d6	0.050634228
223	0x3d293342	0.04130865
224	0xbc2b3b78	-0.01045119
225	0x3ac8b220	0.0015311874
226	0xbd345310	-0.044024527
227	0x3bfe9f90	0.007770486
228	0xbc8dafe0	-0.017295778
229	0x3d250244	0.040285364
230	0x3cfb0584	0.030642278
231	0xba7c3540	-0.0009620972
232	0x3d5424a2	0.05179275
233	0x3d3066e2	0.043066867
234	0xbcffe436	-0.03123675
235	0x3d621f02	0.055205353
236	0xbd0c7857	-0.034294453
237	0xbc738640	-0.014863551
238	0x3d18aa94	0.03727205
239	0x3d158d00	0.03651142
240	0x3c5f8010	0.013641372
241	0x3d6764e8	0.056492716
242	0x3d27626a	0.04086534
243	0x3ca6ecdc	0.020376615
244	0x3d3cc08a	0.046082057
245	0x3b5f6130	0.0034085028
246	0x3c44ed80	0.012019515
247	0xbd16c0f3	-0.036805104
248	0x3cb7d0f8	0.022438511
249	0xbcd481c4	-0.025940783
250	0x3d247306	0.040148757
251	0xbc65e0e8	-0.014030673
252	0xbc9d79fc	-0.019223206
253	0xbd2ff045	-0.04295375
254	0xbc343ae4	-0.011000369
255	0x3bc4b020	0.006002441

fc2.bias f4 [300]
0	0xbc72dd0c	-0.0148232095
1	0xbcaff27b	-0.021477928
2	0x3c5559fc	0.013021942
3	0xbcf96757	-0.030444784
4	0x3b408e53	0.0029381707
5	0xbcdcb183	-0.026940113
6	0xbc86716b	-0.016411504
7	0xbcaffeec	-0.02148386
8	0x3ca76a0d	0.020436311
9	0xbbb802a6	-0.00561555
10	0x3b69052d	0.0035556064
11	0xbd8fbba7	-0.07018214
12	0x3d285e9b	0.041105848
13	0xbd43e0bb	-0.04782174
14	0x3b58fbbd	0.0033109032
15	0xbca5e5eb	-0.020251235
16	0x3b24162f	0.0025037637
17	0xbd953b3f	-0.07286691
18	0xbd64d7fd	-0.055870045
19	0xbc828fe0	-0.015937746
20	0xbd34a686	-0.04410412
21	0xbd35b0f3	-0.044358205
22	0x3b90182e	0.0043974137
23	0x3e23771a	0.15963402
24	0xbcb91b8b	-0.022596141
25	0x3d8a42d5	0.067510284
26	0x3cdace12	0.02670959
27	0xbcfe0907	-0.031010164
28	0xbce11811	-0.027477296
29	0x3c959105	0.018257627
30	0xbd09e67b	-0.03366707
31	0x3d264fd3	0.04060347
32	0x3d22ca56	0.039743744
33	0x3bca85b6	0.0061804904
34	0xbbfd47d5	-0.0077295103
35	0xbd3829d6	-0.044961773
36	0x3cb270ea	0.021782357
37	0xbb81c27f	-0.0039599533
38	0x3c8a4a9b	0.016881278
39	0xbd1f8cd6	-0.03895267
40	0xbc4a9957	-0.012365661
41	0xbdb06e97	-0.08614843
42	0xbd599622	-0.053121693
43	0xbc9a3150	-0.018822342
44	0x3c47c07a	0.012191886
45	0xba953ac7	-0.0011385315
46	0xbd3b1df5	-0.045682866
47	0x3c81c47a	0.015840758
48	0xbcc795c5	-0.024363408
49	0xbd05b36a	-0.032641806
50	0xbcfc0a6b	-0.030766686
51	0x3d387964	0.045037642
52	0xbd5861e9	-0.05282775
53	0xbc109314	-0.008824129
54	0xbd383815	-0.04497536
55	0xbd23cf06	-0.039992355
56	0xbc552540	-0.013009369
57	0x3cfe1af0	0.031018704
58	0xbd789b8d	-0.06069522
59	0x3d275da7	0.0408608
60	0xbcb1315d	-0.021629984
61	0xbcf378e0	-0.029720724
62	0x3d551651	0.052023236
63	0xbca18531	-0.01971683
64	0xbbf52832	-0.0074815983
65	0xbcdebcf0	-0.027189702
66	0xbd5dc55e	-0.054143302
67	0x3cbf156d	0.023325646
68	0x3e03b509	0.12862028
69	0xbdb7c75d	-0.089735724
70	0x3df5067a	0.11964126
71	0x3cfdf9e0	0.031002939
72	0x3be01973	0.0068389713
73	0x3cec30b3	0.028831815
74	0xbd16202f	-0.036651786
75	0xbc214f10	-0.00984551
76	0xbd036bd1	-0.032085244
77	0xbca83f01	-0.020537855
78	0xbd60b57b	-0.054860573
79	0xbbde362f	-0.0067813615
80	0x3d7ad4d9	0.061238144
81	0xbb3015f9	-0.0026868565
82	0x3d13e5f9	0.03610799
83	0xbd1f4b25	-0.038890023
84	0xbc1a004d	-0.009399486
85	0xbd490456	-0.0490764
86	0x3cc3ba8b	0.023892662
87	0xbcf5fb52	-0.030027065
88	0x3d6890c9	0.056778703
89	0xbcbd2291	-0.023087772
90	0x3d05c3b5	0.032657344
91	0x3c64581b	0.013937022
92	0xbd1ab67c	-0.037771687
93	0xbbdfcede	-0.0068300804
94	0xbc0850ea	-0.008320073
95	0xbc1fec24	-0.00976089
96	0xbd391239	-0.045183394
97	0xbb61c28d	-0.0034448237
98	0xbd18e57c	-0.03732823
99	0xbc5021d3	-0.012703377
100	0x3d936f88	0.07199007
101	0xbc40058a	-0.011720071
102	0xbc80cba3	-0.015722102
103	0xbbb99b73	-0.005664283
104	0xbd149d9c	-0.03628312
105	0x3d1416e1	0.03615463
106	0xbce56ee3	-0.028006976
107	0x3d81ef0f	0.06344425
108	0xbd208f32	-0.03919906
109	0xbd1fb785	-0.038993377
110	0x3cc509ae	0.024052467
111	0xbc902111	-0.017593892
112	0x3cea4c16	0.028600734
113	0xbcac0b09	-0.021001356
114	0xbd0972e5	-0.033556838
115	0x3d188727	0.037238266
116	0xbd962861	-0.073319204
117	0xbc88bd06	-0.016691696
118	0x3c1d5906	0.009603744
119	0xbd7e9c82	-0.062160976
120	0xbae73a26	-0.0017641231
121	0xbd4e1303	-0.0503111
122	0xbcd1811e	-0.025574263
123	0x3c7589c0	0.014986455
124	0x3d815fb1	0.0631708
125	0xbd0075d4	-0.03136237
126	0xbc6e9d1a	-0.014563823
127	0x3c69a007	0.014259345
128	0x3c94fe5e	0.018187698
129	0xbb82e585	-0.003994646
130	0x3d15c6f1	0.03656668
131	0x3cdd4a4c	0.027012967
132	0x3d8c6792	0.06855692
133	0xbd42061a	-0.0473691
134	0x3cbf0bb2	0.023321006
135	0x3ccb6b90	0.024831563
136	0xbd398754	-0.045295075
137	0x3c48fe4f	0.012267663
138	0x3cc36e4a	0.0238563
139	0xbd8ad1c9	-0.067782946
140	0xbc8f3dd4	-0.017485537
141	0xbc555241	-0.013020099
142	0xbd70a463	-0.05875052
143	0xbc570703	-0.01312423
144	0xbd2c7b2a	-0.042109646
145	0xbd57fc2a	-0.052730717
146	0x3cf6bee0	0.030120313
147	0xbcea2386	-0.028581392
148	0xbd90dea8	-0.07073718
149	0x3b1deeb7	0.0024098584
150	0x3d34caa2	0.04413856
151	0xbcace523	-0.021105355
152	0xbd6bdedb	-0.05758558
153	0xbceffe0e	-0.029295947
154	0xbcfdf897	-0.031002326
155	0x3c3cc580	0.011521697
156	0x3d7d9712	0.06191165
157	0xbc8eed57	-0.017447157
158	0xbcebf2dd	-0.02880233
159	0xbd156e52	-0.036482163
160	0x3d823d62	0.06359364
161	0x3b4ae076	0.0030956543
162	0x3c66ecbe	0.01409453
163	0x3d160627	0.03662696
164	0xbd68b6b6	-0.05681487
165	0x3d317dd0	0.043332875
166	0xbd789105	-0.060685176
167	0xbcbed889	-0.023296611
168	0xbd1402e3	-0.036135565
169	0x3c8aa8ff	0.016926287
170	0xbd266f84	-0.040633693
171	0xbcbc8499	-0.023012446
172	0xbd3c8ec5	-0.046034593
173	0xbc0b2a9b	-0.008494045
174	0x3c9368bd	0.017994279
175	0x3d2154e1	0.039387587
176	0xbd89d29c	-0.06729624
177	0xbd2cbecf	-0.042174157
178	0x3c7b0764	0.015321586
179	0xbb798e2b	-0.0038079123
180	0xbd4777d5	-0.048698265
181	0x3deb0c9a	0.11477013
182	0x3ba7d7b5	0.00512215
183	0xbad7daec	-0.0016468442
184	0x3d93a9db	0.07210132
185	0xbbc862aa	-0.0061152773
186	0x3b510819	0.0031895696
187	0x3c05aa3a	0.008158261
188	0xbd515932	-0.051110454
189	0x3caddcb9	0.021223413
190	0xbc7199b9	-0.014746123
191	0x3c682cbb	0.014170821
192	0xbd64e3a3	-0.055881154
193	0xbd32cc57	-0.043651905
194	0x3cbfb328	0.023400858
195	0xbc35eb14	-0.01110341
196	0xbc84b0fc	-0.016197674
197	0x3c9db22b	0.019249996
198	0x3b7368a7	0.0037141235
199	0x3cc6d905	0.024273405
200	0xbc987b55	-0.018613497
201	0xbd1ba97d	-0.038003433
202	0xbd572285	-0.052523155
203	0x3aa661bb	0.0012693921
204	0xbd11a697	-0.035559263
205	0xbce04573	-0.027376866
206	0x3d07edf3	0.03318591
207	0x3d2808ac	0.041023895
208	0xbc6b5449	-0.014363357
209	0x3dd94ed6	0.1061074
210	0xbc0ed78c	-0.008718383
211	0x3c7db90f	0.015486016
212	0xbd4e2ba1	-0.050334577
213	0x3d803b0e	0.06261264
214	0xbd100d8d	-0.035169173
215	0x3cd9ee4c	0.026602887
216	0xbd2d13f8	-0.04225537
217	0x3d08b73b	0.033377867
218	0xbb11b663	-0.0022233955
219	0xbd81be68	-0.06335145
220	0x3cd542ce	0.026032832
221	0xbd1a8336	-0.03772279
222	0xbca9a583	-0.020708805
223	0xbd2ea982	-0.042642124
224	0x3890000d	6.8664645e-05
225	0xbc3eb50f	-0.011639847
226	0x3caed5b0	0.021342129
227	0xbd2c29b5	-0.042031962
228	0xbb3d93b0	-0.002892714
229	0xbcb81f37	-0.022475822
230	0x3cf5effa	0.030021656
231	0xbd24bd0c	-0.04021935
232	0xbd023780	-0.03179121
233	0xbd636975	-0.055520494
234	0xbd2a1efd	-0.04153346
235	0xbbd26771	-0.0064210226
236	0xbc83cb40	-0.016088128
237	0x3cf49253	0.02985493
238	0x3ccd91e7	0.025093986
239	0xbd581e64	-0.052763358
240	0xbcf43b3b	-0.0298134
241	0x3cd772db	0.026299885
242	0x3cb4f62d	0.022090042
243	0xbd7b07a6	-0.06128659
244	0xbd6589cd	-0.05603962
245	0xbc2dec80	-0.010615468
246	0xbd3e9beb	-0.046535414
247	0x3d38d169	0.045121584
248	0x3a5789e5	0.0008222147
249	0xbd4de79a	-0.0502697
250	0xbd10b293	-0.03532655
251	0xbd8dd166	-0.06924705
252	0x3d99936b	0.07498821
253	0xbc1ca6b8	-0.009561233
254	0xbcc77f54	-0.024352707
255	0xbc1033e2	-0.008801432

fc3.weight f4 [1, 300]
0	0x39ff9e98	0.00048755552
1	0xbed9192d	-0.4240202
2	0xbff95591	-1.9479238
3	0xbe20a37e	-0.15687367
4	0xba9d7497	-0.0012012896
5	0x3a5016f0	0.0007937988
6	0xbe62c399	-0.22144927
7	0xbfb171f5	-1.3862902
8	0xc05fa8cc	-3.4946775
9	0xbf057964	-0.5213835
10	0xbe3e310d	-0.18573399
11	0xbf9ae616	-1.2101467
12	0x3ba7f9a5	0.0051261955
13	0xbeac5bb0	-0.33663702
14	0xbe50bb3b	-0.20383923
15	0xbb829b5c	-0.0039858054
16	0xbe14ef47	-0.14544402
17	0xbf0551f6	-0.5207819
18	0xbe2e5871	-0.17025925
19	0xbedcd44d	-0.43130723
20	0xbe9669c1	-0.2937756
21	0xbfaecfd7	-1.3657178
22	0xbf69d9ed	-0.91348153
23	0x3e406cf4	0.18791562
24	0xbfe24797	-1.7678097
25	0xbeea70a8	-0.45789075
26	0xbeb0562a	-0.34440738
27	0xbe3f0ed0	-0.18657994
28	0x3b02794b	0.0019908722
29	0xbf0c3c95	-0.5477994
30	0xbb0d4c54	-0.0021560388
31	0xbf04095d	-0.5157679
32	0xbec990c6	-0.39368266
33	0xbf17faaf	-0.5936689
34	0xbf19582c	-0.59900165
35	0xbf116a26	-0.56802595
36	0xbf1d3e46	-0.61423147
37	0xba2a810a	-0.00065042137
38	0xbfbe7150	-1.487833
39	0x3b068b67	0.0020529868
40	0xbf201508	-0.6253209
41	0xbecfc79c	-0.40581977
42	0xc006336c	-2.0968885
43	0x3a263822	0.0006340762
44	0xba7da165	-0.0009675234
45	0xbe5d7352	-0.21626022
46	0xbe89ca94	-0.26912367
47	0xbd16a250	-0.036775887
48	0x3a4924d7	0.0007673031
49	0xb7d43128	-2.529526e-05
50	0xbb05048e	-0.0020296904
51	0xbf362184	-0.7114489
52	0xbe63d833	-0.22250442
53	0xbe411a42	-0.18857673
54	0xbf032a48	-0.5123639
55	0xbb05e324	-0.0020429576
56	0x3b24580a	0.002507689
57	0xbfc8dabd	-1.5691754
58	0xbe38d96c	-0.1805169
59	0xba941437	-0.0011297528
60	0xbe2801e1	-0.16406967
61	0xbebae0aa	-0.3649953
62	0xc00b7e0c	-2.1795683
63	0xbbc04f06	-0.0058687953
64	0xbe2aeb05	-0.16691215
65	0xbea29822	-0.31756693
66	0xbe1b28e2	-0.15152314
67	0xbe99885e	-0.29986852
68	0x3dfef2e3	0.12448671
69	0xbf0dc067	-0.5537171
70	0x3e05bc99	0.13060226
71	0x3e8d3815	0.2758185
72	0xbe5558a7	-0.208346
73	0x37d78f90	2.5696849e-05
74	0xbf1e19be	-0.6175803
75	0xbfda558c	-1.7057357
76	0xbfc3c676	-1.529494
77	0xbff1e406	-1.8897712
78	0xbf23435c	-0.6377466
79	0xbf0b4390	-0.5439997
80	0x3e099b72	0.13438204
81	0xbed21457	-0.41031143
82	0x3a2f75a8	0.00066932524
83	0xbe6dca89	-0.23221792
84	0x3b111273	0.002213624
85	0xbe258ac8	-0.16166222
86	0xbf6ca381	-0.9243699
87	0x3c260ece	0.010135366
88	0x3e9236b3	0.28557357
89	0xbe8143a1	-0.2524691
90	0xbe7d8344	-0.24757105
91	0xbf9517e4	-1.1647916
92	0xbe830256	-0.2558772
93	0xbf2ee68e	-0.6832055
94	0xbf0a3fb9	-0.54003483
95	0xbec61b94	-0.38692915
96	0xb9253393	-0.00015754839
97	0xbef84eb9	-0.4849756
98	0x3b843350	0.0040344372
99	0xbf0f40c7	-0.5595822
100	0xbeaaed69	-0.33384255
101	0xbf08bd86	-0.5341419
102	0xbeb75042	-0.3580342
103	0xbe881f7a	-0.26586515
104	0xbf14327d	-0.5788954
105	0xbf120878	-0.5704417
106	0xba9fdeaf	-0.0012197102
107	0x3e1dc64f	0.1540768
108	0x3b2afeaa	0.0026091733
109	0xbaa64366	-0.0012684881
110	0x3e87841f	0.26467988
111	0xbfa56773	-1.2922195
112	0xbb42290a	-0.0029626512
113	0xc05f7f39	-3.49214
114	0xbb3ef5b5	-0.0029138152
115	0xbf9746dc	-1.18185
116	0xbedc5318	-0.43032146
117	0xbf221252	-0.63309205
118	0x3abd2384	0.001443014
119	0xbf4ff6ef	-0.81236166
120	0xbe33c621	-0.17556049
121	0xbf218fbe	-0.6310996
122	0xbf1f9f46	-0.62352407
123	0x3e0addf7	0.13561235
124	0xbeaffbbd	-0.3437175
125	0xb9dc0cc6	-0.00041971187
126	0xc0007f1d	-2.0077584
127	0xbf0a1d32	-0.539508
128	0xbb253fb4	-0.0025214972
129	0xbf2db3a0	-0.6785221
130	0x3b1bac60	0.0023753867
131	0x3dd34b60	0.10317111
132	0xbe9dbe2f	-0.3080916
133	0xbe9088c6	-0.2822935
134	0xbedc1aeb	-0.42989287
135	0xbf2e7ed4	-0.68162274
136	0xc0241b65	-2.564172
137	0xbeb15a78	-0.34639335
138	0x3a00c9b2	0.00049128674
139	0xc0417a77	-3.0230997
140	0xbabda3ae	-0.0014468336
141	0xbef410bc	-0.47669017
142	0xbdfab438	-0.12241405
143	0xbfa2a71a	-1.2707245
144	0x3a0802d8	0.0005188412
145	0xbe7c63f4	-0.24647504
146	0xbea4cd5d	-0.3218793
147	0x390f7e6b	0.00013684637
148	0xbe7aa2b4	-0.24476129
149	0xbeab5f9e	-0.33471388
150	0xbaf63c1d	-0.0018786226
151	0xbb083e1e	-0.0020788978
152	0xbea30d70	-0.3184619
153	0xbf26ea75	-0.65201503
154	0x3aa13184	0.0012298082
155	0xbb00fda9	-0.0019682443
156	0x3dfa7d42	0.12230922
157	0xbf6f96a2	-0.9358922
158	0xbf203e4c	-0.6259506
159	0xbf6c9b33	-0.92424315
160	0xbed23c77	-0.41061756
161	0x3aca3cf4	0.0015429542
162	0xbfe7c5f9	-1.8107291
163	0xba74d729	-0.00093399227
164	0xbe60a6f9	-0.21938695
165	0xbe32d4b8	-0.17463958
166	0x3f88edc7	1.0697564
167	0xbf0258de	-0.5091685
168	0xbf102a7f	-0.56314844
169	0xbed1e7d5	-0.40997186
170	0xbf0f388e	-0.5594567
171	0xbdf54af0	-0.11977184
172	0x3aa0387c	0.0012223865
173	0xb9ec7211	-0.00045098414
174	0xbf2917f7	-0.6605219
175	0xbe97034c	-0.29494703
176	0xbd46be90	-0.04852158
177	0xbe8883a5	-0.26662937
178	0xbaa80387	-0.0012818434
179	0xbf29d7aa	-0.663447
180	0xbebbb09f	-0.3665819
181	0x3e10b079	0.14129819
182	0x3ac7139e	0.0015188341
183	0xbfa07e6b	-1.253858
184	0xbeb765e0	-0.35819912
185	0xbb0578ff	-0.0020366309
186	0xbee5278f	-0.44756743
187	0xba2ac207	-0.00065138977
188	0x3a057bf2	0.00050920167
189	0xbfa5ec5c	-1.2962756
190	0xc02a9c05	-2.6657727
191	0xbe8b9ee2	-0.27269655
192	0xc02c89b4	-2.6959047
193	0xbacd36da	-0.0015656606
194	0xbf349eca	-0.7055479
195	0xbe60383c	-0.21896452
196	0xbfc9caa2	-1.5764964
197	0xbe36f6a0	-0.17867517
198	0xbfb7371a	-1.4313691
199	0x3e19ac4a	0.1500713
200	0x3852ce13	5.0259823e-05
201	0x38b57a48	8.653529e-05
202	0x38aff28d	8.389829e-05
203	0xbe594c55	-0.21220525
204	0xbb0cb0b4	-0.0021467628
205	0x3b16b14d	0.0022993863
206	0xbf0770d0	-0.52906513
207	0xba93b396	-0.0011268731
208	0xba98f842	-0.0011670666
209	0x3e162f45	0.1466647
210	0xbeb01357	-0.34389755
211	0xbf75c8f8	-0.9600978
212	0xbf05e23c	-0.5229833
213	0x3e81f0da	0.25379068
214	0xbf3dda8c	-0.741616
215	0x3ad233f7	0.0016037215
216	0x3b0acc15	0.0021178771
217	0xbf10e9fb	-0.56607026
218	0xbe936355	-0.28786722
219	0xbe0e355b	-0.13887541
220	0xc0249307	-2.5714738
221	0xbf34ddf5	-0.7065118
222	0xbb3b2fad	-0.0028562353
223	0xbf2910d5	-0.6604131
224	0xbfeab97d	-1.8337857
225	0xbf936327	-1.1514634
226	0xbeb51575	-0.35367933
227	0xbeb51884	-0.35370266
228	0xbf14e7f8	-0.58166456
229	0xbf2a5d80	-0.6654892
230	0x3b861cae	0.0040927744
231	0xbe2dce27	-0.16973172
232	0xbe21c4f4	-0.15797788
233	0xbe486b6d	-0.1957223
234	0xbd864d58	-0.06557721
235	0xbe69c483	-0.2282887
236	0x3b079164	0.0020686025
237	0xbf022aec	-0.50846744
238	0xbe787d09	-0.24266447
239	0xbf80deaf	-1.0067958
240	0xbb18f84f	-0.0023341363
241	0xc056ccd3	-3.3562515
242	0xbece29e1	-0.40266326
243	0xbea3c2c9	-0.31984547
244	0x3b853617	0.004065286
245	0xb9bd6d98	-0.00036130543
246	0xbe30ea37	-0.17276846
247	0xbeaa5ab7	-0.33272335
248	0xbf446977	-0.76723427
249	0x3a90a3bc	0.0011035125
250	0x39962e48	0.00028644712
251	0xbe538271	-0.20655228
252	0x3dfb45c4	0.12269166
253	0xba35bb24	-0.0006932488
254	0x39bae607	0.00035648068
255	0x3b01ec6f	0.0019824763
