ddpg-pendulum/checkpoint_critic.pth (torch_old, 491092 bytes, 5 tensors)

fcs1.weight f4 [400, 3]
00000000: 694b 81bf cf8b 463f 8567 cb3d a5e6 90bc
00000010: 44d3 a5bc 3f5e 3b3a ad56 013f cb33 2e3f
00000020: e2d6 613e f702 07be b666 b5bf 9c0a 3ebe
00000030: 38e1 c8be ba17 2b3f 1236 1f3e bf14 35bd
00000040: 487c 3ebd b42b 3d3c d73b 8abf 64d0 60bc
00000050: bef1 8dbe 1bad 30bf 2b92 12bf 63ba 08be
00000060: fa99 6ebf d5e2 703d 088d 70be 2a01 a3bf
00000070: 014c 09bf 970b 393e 2e84 4d3e 0557 d4bf
00000080: 96dc a2be 3850 3fbe 9394 183f 6d3f 123d
00000090: 2bd3 b0bf d50c 6f3d d459 77be 5339 143d
000000a0: 3439 7a3c b0b0 0ebb 58a0 52bf e91e 13bf
000000b0: f87b a13d ea8b 8cbb 040a 2bbd a534 d1bb
000000c0: 68ce 253c f882 31bc 300d 01bd ca94 b3bc
000000d0: 0826 273c e8f4 d2bb 80bb b13e a1e6 bcbe
000000e0: 6723 bebc 6051 baba 2c74 07bc e03f 0abc
000000f0: 472b 0d3d aaaf f2bc d012 a2bc efa0 0d3d
00000100: 8cc4 753c 1235 b33c 412b 8f3e dfcc 31bf
00000110: cb89 3c3b d854 d73b 095d 003d 53ce edbc
00000120: 57b1 2fbe 7e5a 96be 6c60 3e3d 7c3c 7bbe
00000130: 371e cabf e3bb b5be 98fa 82bf d554 953f
00000140: c89b 493d 9f09 47bf f736 c9be dad3 74bd
00000150: bea4 963c 9a6a bc3c 4847 49bd 3a69 febc
00000160: 2808 21bd 4e90 0cbd 0026 9ebc 22b4 da3c
00000170: d992 103d f65b c4bd 2ebd da3f 5cf4 17bc
00000180: 4d48 083d 8396 d6bc 0513 30bd 7608 023e
00000190: 6e99 c4be 54ea f7bd 1d47 253d 4559 0cbd
000001a0: e8c4 833b 6c35 dbbd dd97 a2bf 39d8 72be
000001b0: 19fe 1fbf dce7 e8be 399d 69be d2c4 17bd
000001c0: 97a8 c8bd b4de 16be 1e7e cd3c 52f8 dcbc
000001d0: 33c0 c9bc 1bfc 2ebf 14d0 8a3f e299 413e
000001e0: 590f 7c3e 284a 8a3a 0af1 1ebd 3b6a 26bd
000001f0: 8957 1f3d c26a bb3c 470f de3d 0ccd e73e
00000200: fdc9 3dbd be35 9f3e 701a ccbf b1bc 44bf
00000210: e031 31bf 05a8 3b3f 5c56 643d 2592 2ebd
00000220: a0e5 31bd 1a36 aa3c d4a5 52bd c697 aa3d
00000230: a908 e9be a621 57bf 8515 9c3e 887c 99bc
00000240: e48c 4fbd 6a2f 7ebe 2887 c3bb dc8f e4bd
00000250: 6d9d 80be a09a 28bb 6517 34bf 6148 10be
00000260: d77d a03c ca13 d53c 98b6 f8bb 8770 e0bc
00000270: 933e 19bd 667a c23c f60f 883c 4130 9cbd
00000280: b212 9e3a 723b c0be e6b3 0d3f ad39 adbf
00000290: 9553 a2be b02f 5c3d dd3a 2c3c 0b39 14bd
000002a0: 3558 893e 1384 033f 5133 1cbd 45e5 863c
000002b0: bba5 ecbd 03e7 00be 3f85 31bf bdf9 f3be
000002c0: 2914 72be f308 4cbf 5884 e5be d494 7abe
000002d0: 84fc 703c dfd1 0c3d 6048 213c 40ef 073c
000002e0: 8294 f13c 3a86 08bd 4d43 dabe 142c 363f
000002f0: 24b8 293e 0034 e23b b8c7 1ebd 3a17 a4bc
00000300: b4f1 80bc e769 32bd 6e2c 27bd 7eef ecbe
00000310: 79c6 9b3d ea87 073e 9284 9fbb 84e1 be3b
00000320: 75c6 003d 6e90 10bd bbd0 903f 20a2 22be
00000330: 51bb 063d ab33 183d 7475 0cbd d643 fe3f
00000340: 18e6 c93e 6fe1 ccbe 80e5 6b3a 2291 37bd
00000350: 900f 86bb 7a2a 3bbf 3236 18be fed4 56be
00000360: 3afa f4be 94f8 16be 0844 28be 63ef 2a3f
00000370: 7c72 adbe 69bb c1be 252e 9ebe 2f15 08c0
00000380: d046 cebe ef54 443d 9e71 ba3c b23d 20bd
00000390: 3b9c 25bd 8dba 1dbd 0870 04bc 2138 1c3d
000003a0: 949a 0a3c 86b6 ae3c f91c 81be c16a e13e
000003b0: dbfc cf3d 5cfc 503c e141 143d e807 d2bb
000003c0: 9b96 ccba dfdd 4cbd b367 5bb9 ee9d 52be
000003d0: 8453 a8bf 0c97 02be e44d 883d 42f1 1bbc
000003e0: 72e6 77bb 07a3 833f 6837 92bf 5478 8cbe
000003f0: 4b82 7f3e b26f 91bf 0c37 b4be b9f3 2e3d
-1.0101138 0.7755708 0.09931854 -0.017688105 -0.02024234 0.00071475276 0.5052288 0.6804778
0.22054628 -0.13184725 -1.417197 -0.18558735 -0.39234328 0.6683308 0.1554797 -0.04420924
-0.046505243 0.011546064 -1.0799512 -0.013721559 -0.27723497 -0.6901414 -0.57254285 -0.13352351
-0.932037 0.058810074 -0.23491299 -1.273473 -0.536316 0.18070827 0.20069954 -1.6589056
-0.3180892 -0.18682945 0.59601706 0.03570502 -1.3814443 0.058361847 -0.2415536 0.03618748
0.015272427 -0.0021772794 -0.82275915 -0.5746904 0.07884973 -0.00428914 -0.0417576 -0.0063844495
0.010120012 -0.010834448 -0.031506717 -0.021921534 0.010201938 -0.0064378865 0.34713364 -0.36894706
-0.02321024 -0.0014214925 -0.008267444 -0.008438081 0.0344651 -0.029624779 -0.019784361 0.034577306
0.015000474 0.021875892 0.27962688 -0.69453233 0.0028768654 0.0065713935 0.031338725 -0.029029047
-0.17157494 -0.29365915 0.046478674 -0.24534792 -1.5790471 -0.3549491 -1.0232725 1.1666514
0.04922083 -0.77749056 -0.39299747 -0.05977235 0.018389102 0.02300005 -0.049140245 -0.031056035
-0.03931442 -0.034317307 -0.01930523 0.026697222 0.035296295 -0.09587853 1.7088983 -0.009274568
0.033272076 -0.026194816 -0.04298689 0.1269854 -0.38398308 -0.121052414 0.040351022 -0.03426482
0.004021276 -0.10703549 -1.2702595 -0.23715295 -0.624971 -0.45489395 -0.22813882 -0.037052937
-0.09797781 -0.14733392 0.025084551 -0.026973877 -0.02462778 -0.6835343 1.084475 0.18906358
0.2461523 0.0010550665 -0.03880409 -0.040628653 0.03890184 0.022878055 0.10842758 0.45273626
-0.04633521 0.3109569 -1.5945568 -0.7685042 -0.6921673 0.7330325 0.05574642 -0.042619843
-0.043431878 0.02077775 -0.051427677 0.0832973 -0.4551442 -0.8403572 0.30485168 -0.018736139
-0.050671473 -0.24822775 -0.0059670396 -0.111602515 -0.25120106 -0.002572693 -0.703482 -0.1409011
0.019591255 0.026010413 -0.0075901262 -0.027397407 -0.03741319 0.023740005 0.016609173 -0.07626391
0.0012060015 -0.37545353 0.5535263 -1.3533226 -0.31704393 0.053756416 0.010512081 -0.036187213
0.2682511 0.51373404 -0.038134877 0.016466746 -0.11555048 -0.12588124 -0.6934394 -0.47651473
-0.23640503 -0.79701155 -0.44827533 -0.24470836 0.014708642 0.034379836 0.009843916 0.008296788
0.02948976 -0.033331133 -0.4262947 0.7116101 0.1657415 0.0069031715 -0.038764685 -0.020030607
-0.015740253 -0.043558028 -0.040813856 -0.46276468 0.07606215 0.13235441 -0.0048680985 0.0058252234
0.031439263 -0.03529399 1.13137 -0.15882158 0.032893483 0.03715865 -0.0342917 1.9864452
0.3943336 -0.40015742 0.0008998737 -0.044816144 -0.0040912107 -0.7311169 -0.14864424 -0.20979688
-0.47847158 -0.14743263 -0.16432202 0.66771525 -0.33876407 -0.37838295 -0.3089458 -2.126293
-0.402884 0.04793256 0.022759255 -0.039121337 -0.040432196 -0.038507987 -0.008083351 0.038139466
0.008459706 0.021327268 -0.25217417 0.4402676 0.1015565 0.01275548 0.03619564 -0.006409634
-0.0015608849 -0.05001628 -0.00020924098 -0.20568058 -1.3150487 -0.12752932 0.066554815 -0.00951797
-0.0037826565 1.0284127 -1.1423159 -0.27435553 0.24952047 -1.1362212 -0.35198247 0.0427129

fcs1.bias f4 [400]
00000000: bf31 06bf 5599 1ebd c7c5 a8be b41d 1a3e
00000010: fe77 c23e eaad e8be 9832 2d3f 27b0 813e
00000020: d722 053f 313a ca3e c3e9 99be 395e 00be
00000030: 244e 913e b66f 5dbe b3ec d2be 0f8d a9bd
00000040: 2a8c 9dbe 90b6 a4bd 395e 943e c259 a3be
00000050: 38fa ffbe 70d1 00bf b87c 143f 24d7 84be
00000060: 99d2 0d3e d577 9dbd 1ce9 e2be b785 023f
00000070: d12d 02bf aaf3 f8be 6d35 dbbe 14cf a6bb
00000080: 3e6a eebe f4c9 8cbe a55b c9be bb4f 5d3e
00000090: 2601 313f b7ba d03e e4e7 c5be 3397 76bd
000000a0: 75de 7b3e f292 98be fdc9 ab3e 9162 013f
000000b0: 36ed fd3c 2eb5 d3be fbb1 fe3e 708b c33b
000000c0: e6e6 a3be 421f 103e 73a1 823e bc24 62be
000000d0: 31cd e1be 65a3 eb3e 187b 41be f2c4 8abe
000000e0: 6ede ee3e 23d4 c53e 06ee 363f 79d0 3b3f
000000f0: 8c60 e7be 3778 0dbf 7239 d33e 9d45 d3be
00000100: 8675 06bf 3f88 df3e a816 a0be 58ca 393f
00000110: c639 f2be 18a6 d9bf 0c03 d4be 16ff 283f
00000120: de2c 1b3f 0868 5ebf 6cd1 ccbe e242 0dbf
00000130: d398 a2be 2a2a 46be 686a 7b3e 7683 24be
00000140: 556d 5cbd 9525 683e 7ec1 64be d152 7dbf
00000150: ad85 823e a41b b4be 1b55 c23c 1416 f5be
00000160: d862 e63e e843 f93e 6d81 cabe e1c8 323f
00000170: a578 f03e e7a5 013e c335 9a3e 4827 b6be
00000180: 308f 45be 3a11 a6be 3b83 6cbe 5801 45be
00000190: 1e6b cbbe 1d34 e7bd bd60 383f acbe b5be
000001a0: 661b a6bf 3349 ba3d f3d6 3b3e 64f4 f0be
000001b0: 6cc1 4ebe 3a67 7fbf 6e1d cd3e 85bf a4be
000001c0: f6d0 01bf 2efa 87be 8ad2 393f 5d68 92be
000001d0: 7277 3b3f 9e4c 103f 51e5 a23d defd 7d3e
000001e0: 3b2f 0ebf 1c27 efbd 56a5 93be 59fd 023e
000001f0: ce3c d9be 8e40 04bf 6d3e e03e 1b8f a4bc
00000200: f3ac 0dbf 2530 3a3f e52e 043e 0e9b 333f
00000210: 8544 ac3a dc1f bc3e 6f47 e23d 0742 cbbe
00000220: 933e 063f 344f fcbe 4f41 2a3f ec43 47bd
00000230: 54a9 45bd 34d1 17bf 985c 98bd 7ffd acbe
00000240: 2d03 143f 82e8 04bf f647 b6bd 3806 0dbf
00000250: 5e74 a8be fe17 49be 36fb 0c3f df2e ecbe
00000260: 0e17 7bbe f4aa 4bbe ba52 91be 0259 15bf
00000270: c6e0 1abe 46c0 eabe 604a 85be cebf 2ebe
00000280: 0123 29be cbae ca3e 779b 25be e9f6 4fbd
00000290: d241 79bd bb81 1fbf 8d7b e03d 7deb 7abf
000002a0: 5a4f e83b 7f4d 8d3e 319e 88be 07c6 babe
000002b0: c7e5 42be 1a8a 4c3e 355c dabe 4cb6 5ebe
000002c0: 66fd d13e a097 00bf 94e3 71be 66d6 bfbe
000002d0: 035d 43bd ea17 94be 5cc4 893e 1cff dabe
000002e0: ce92 86be b790 c93d c0c8 1a3e abd1 04bf
000002f0: f285 e0be 7493 eabe 520e 2c3e 9776 1a3f
00000300: a36a 2c3f a3ab fbbe bf65 803e fde6 dd3d
00000310: e719 ca3d ad85 c0be 1fcf 8d3e 66b3 e0be
00000320: ae49 f5be 7190 7d3e fb9b 0fbf 020e d83e
00000330: 56ad 493f d6b8 25be 5de9 3e3e 40eb adbe
00000340: 9558 8abe cc83 f13e 9891 f6be 000a 94ba
00000350: 4544 aebe cf8e 293f 33aa 36bd c7ba af3e
00000360: fd53 56bf d98b 7abd 0792 1c3f 3051 cebe
00000370: aa79 1fbe e413 af3e 1dda 833e 7804 283f
00000380: 9794 573e 69a9 03bd a504 13bd 0319 e53e
00000390: b812 14bd 0d37 6cbe c9a1 233f 2694 babe
000003a0: 9cb1 9abe a7c3 cfbe f4d9 0abf 8ccb cebf
000003b0: 768d 0fbf c909 f93e e34d b6be b1b4 dd3e
000003c0: 6387 00bf 0c34 e2be 173d 1abf 6cee 3d3e
000003d0: fa38 15be 43eb f73e be4d ba3e 46db 4ebe
000003e0: 5d1c 293f c810 67bd 6132 973e 4185 92bd
000003f0: 3e4a 55be 71a7 2b3f c6e5 c83e 3983 c1be
-0.52419657 -0.038720448 -0.32963392 0.15050393 0.37982172 -0.45445186 0.67655325 0.25329706
0.52006286 0.39497522 -0.3006116 -0.12535943 0.2837993 -0.21624646 -0.41196212 -0.08278858
-0.30771 -0.080426335 0.28978136 -0.31904417 -0.4999559 -0.50319576 0.58002806 -0.2594539
0.13849868 -0.07688872 -0.44318473 0.5098528 -0.5085116 -0.486234 -0.42814198 -0.0050906036
-0.4656543 -0.27497828 -0.39327732 0.21612446 0.6914238 0.40767452 -0.3865348 -0.06020279
0.2459658 -0.2979961 0.33552542 0.50541025 0.0309969 -0.41349167 0.49745163 0.00596755
-0.320121 0.14074424 0.255138 -0.22084326 -0.4410186 0.46023098 -0.18894613 -0.27103382
0.46654075 0.3863841 0.71456945 0.7336498 -0.45190847 -0.5526156 0.41254765 -0.41264048
-0.52523077 0.43658635 -0.31267285 0.7257438 -0.47309703 -1.7003813 -0.41408575 0.6601423
0.60615337 -0.8687749 -0.40003526 -0.5518018 -0.3175722 -0.19352022 0.2455231 -0.16065773
-0.053815205 0.22670586 -0.22339436 -0.9895449 0.25492612 -0.35177338 0.023722222 -0.47868407
0.44997287 0.4868462 -0.3955187 0.69837767 0.46967044 0.12660943 0.30119142 -0.35576844
-0.19292903 -0.32435018 -0.23096935 -0.19238794 -0.3973016 -0.11289237 0.7202261 -0.35497034
-1.2977111 0.09095993 0.18343715 -0.47061455 -0.20190972 -0.99766886 0.40061516 -0.32177368
-0.50709474 -0.2655806 0.7258688 -0.28595248 0.73229134 0.5636691 0.07953895 0.24803874
-0.5554082 -0.116773814 -0.2883708 0.12791957 -0.42429203 -0.51661 0.43797627 -0.02008777
-0.55342025 0.7272971 0.12908514 0.7015847 0.0013142979 0.36743057 0.11048781 -0.39698812
0.5243923 -0.49279177 0.66505903 -0.04864876 -0.048257187 -0.59303594 -0.07439536 -0.33787152
0.57817346 -0.5191728 -0.08900444 -0.55087614 -0.3290128 -0.19638059 0.5507082 -0.4612951
-0.24520513 -0.19889432 -0.28383428 -0.5833894 -0.15124807 -0.45849818 -0.26033306 -0.17065355
-0.16517259 0.3958648 -0.16172586 -0.05077258 -0.060853787 -0.6230733 0.109610654 -0.98015577
0.0070895376 0.27598187 -0.2668319 -0.36479208 -0.19032966 0.19974557 -0.42648473 -0.21749228
0.4101364 -0.5023136 -0.2362197 -0.3746826 -0.047696125 -0.28924495 0.26907623 -0.42772758
-0.26283878 0.09842055 0.15115643 -0.5188243 -0.43852192 -0.45815623 0.16802338 0.60337204
0.67350215 -0.49154386 0.25077626 0.10835073 0.09868222 -0.37601987 0.27697083 -0.4388687
-0.47907776 0.24762131 -0.5609738 0.42198187 0.78780115 -0.1618379 0.18643709 -0.33968544
-0.27020708 0.47170866 -0.48157954 -0.0011294484 -0.3403646 0.66233534 -0.04459591 0.34322187
-0.83721906 -0.061168525 0.6116032 -0.40296316 -0.15573755 0.34194863 0.25752345 0.6563182
0.21052776 -0.032143984 -0.0358931 0.44745645 -0.036150664 -0.23067875 0.6391874 -0.36441153
-0.3021363 -0.40578958 -0.5423882 -1.6155868 -0.5607523 0.48640278 -0.35606298 0.4330192
-0.50206584 -0.44180334 -0.60249466 0.18547982 -0.14572516 0.48421678 0.36387438 -0.20200834
0.66058904 -0.05641249 0.29530624 -0.071543224 -0.20829102 0.6705237 0.39237803 -0.37795427

fc2.weight f4 [300, 401]
00000000: 81f4 243f 5906 9dbd 3ed1 5cbc 23fa 543e
00000010: 6c0a ea3d 201f 6b3c ed5f eabc e551 d73d
00000020: b0e1 c23c 3984 b9be 31b1 63be 4cde 6a3d
00000030: 7d92 ad3e 54c2 0cbc a411 3d3f 7170 2fbd
00000040: 28e5 dd3c 0039 0cbd dc3a 003e 44ac 3cbd
00000050: 79f4 e3bc ac4a 043d 459c 203e afab 5dbd
00000060: 8b12 653d cc52 a73d 45fb 203e 6a3e 2e3e
00000070: bc4e a43c b643 243d 416a 1dbd 369a 5fbe
00000080: d0d2 6a3d ed8e e6bd 6859 543c 6da9 633e
00000090: 658f b83d 7451 53bc a9fc 413c ba5d 813a
000000a0: a80d 54bd 00cc da39 9263 433d e3d9 65be
000000b0: dcb5 8ebd 284a 0e3c b4cb f6bc c83e c73c
000000c0: 3e98 753e 2763 273d a80b 3a3e 9c01 61bd
000000d0: a068 c5bb f964 c13c b8e7 0b3e 0184 8d3d
000000e0: d727 803c 7878 a5bd cc4e 92bc 0e3b 2d3d
000000f0: 183f 2a3d 4140 6cbd dc3a e43d e0f5 92bb
00000100: d01a 3bbb 2c02 743d 34c5 803d 2682 ab3e
00000110: 561f 65bd f906 8140 92d7 473d 385a 5d3d
00000120: dac9 bc3b fd43 05bf b03d 1bbf 10c9 0dbb
00000130: 8021 b9bc 5cff 423d 0185 cd3d 1063 7cbb
00000140: f295 a1bd 8b45 223e ae36 7a3d b871 0a40
00000150: 0095 cebd 0065 d03c c89d e43c 8d44 0fbd
00000160: dba7 20bd 4ab3 adbd 8a7d 133d 1e93 f93b
00000170: cb59 09be 6742 06bf 937f a4bd 80b8 f13b
00000180: 185a a33c b39b 89ba b4bc 2cbe 68c6 0ebf
00000190: d0d0 9d3b 4c27 fb3e a1c6 403d 0cb7 c73c
000001a0: 6591 fc3e 2b0b f43c e54e 9b3d c8a4 3cbc
000001b0: 7350 e2bb 5a63 1040 2b70 aa3d 064a 103d
000001c0: f2de d6bc 70a2 3e3d 7e92 773d a783 943e
000001d0: 3d4d dd3d c856 083e 414f 9bbb 66b5 cb3d
000001e0: d0c1 563d 359b 7d3c 52f5 1d3d 9e4f bd3d
000001f0: 0aed 53bd 9814 3a3d c758 033d f881 103d
00000200: d0e0 083d 3e0f 403d be97 0a3c 2cad 5abe
00000210: 95ae 4f3e c126 fe3d 6a80 953e 104d 883d
00000220: e21e 943c 12c1 11bd 5e12 913c 9ed0 66be
00000230: 06f6 cdbd 555c 3d3d 0314 9ebe 9faa ff3d
00000240: b168 5d3d 3820 a13c fbb7 003e 829c 093d
00000250: ce89 393d 04a7 0abd 3976 15bd 28aa 1b3d
00000260: c21f a4be f7bb 40bd 1c8b 0f3d e441 853c
00000270: 7804 19be 7aba 5cbd fc02 f93c 78f4 003d
00000280: 3618 e83b 10c2 063d 31cf c23e de37 d8bd
00000290: 9c2e 14bd f4f8 34bf 2bc1 e7bd 9e72 2fbf
000002a0: 4f08 6dbe dd98 6e3b 2022 33bd 3adb 49bd
000002b0: 12f8 9a3b 5aeb d13e 3686 573d 805c 413b
000002c0: 37a8 453e a29c 1e3d 68be 25bd bcbe debc
000002d0: 8003 04be 749b e6bd ecce 283e f9a9 0a3d
000002e0: 7431 42bd 8df7 c9bc bc86 aabe 160d 2c3d
000002f0: 38d4 393c ecee 1e3d 09c4 a73c facf 0d3d
00000300: 3cc3 1c3d 3f71 d23e b3b9 bf3b ba73 193d
00000310: 40f9 2a3c 3e97 a8bc 06e7 aa3e d8b4 69bd
00000320: 30d1 613d 4faa 2bbd 6412 1dbd e495 5fbc
00000330: dc2f 3bbd 3176 1a3d 9399 6a3e 0881 ea3c
00000340: cdcb 6b3e f024 0ebd d65a 433d 55f7 34be
00000350: e5cd 57bd 08be 083c 5fbb ddbd 1397 8cbd
00000360: 5a4a 1fbf 884a 00be 34af a33a f61d 903e
00000370: f2b4 9ebc fd04 c53c ca77 cdbd ab11 3dbc
00000380: 4c7c 673d affa 8cbd 31a0 adbc 6b38 203e
00000390: 7733 cdbe 24bb b4bb 3b33 0c3c 4976 45bd
000003a0: 83f3 f4bc 90ca cd3c a006 b6bb fe45 7c40
000003b0: 002a 79bc 776b d73c 8a06 2cbe 2976 b5bd
000003c0: c23f 0abd 713d 763d c44a 213f c28b 3d3d
000003d0: 146e fa3c 78de 163d 430c b03d f561 733d
000003e0: 4194 41bd b59c be3c 1266 af3e de14 93be
000003f0: 6753 d83c fbc5 1dbd e188 98bb fe41 423d
0.64435583 -0.07667226 -0.013477622 0.20798545 0.11427769 0.0143506825 -0.028610194 0.10513667
0.023789257 -0.3623369 -0.22235562 0.057340905 0.33900824 -0.008591253 0.7385504 -0.04283184
0.02708681 -0.034234047 0.12522453 -0.046062723 -0.027826535 0.032297775 0.15684612 -0.05411881
0.055925887 0.08170089 0.15720852 0.17015997 0.020057075 0.040103637 -0.03843141 -0.2183617
0.057329953 -0.1125773 0.012960769 0.222326 0.09011725 -0.012897838 0.011840024 0.0009869852
-0.051770836 0.00041732192 0.04770238 -0.22446398 -0.06968281 0.008684672 -0.03012643 0.024321929
0.23983857 0.040866043 0.18168509 -0.054933175 -0.006024435 0.023607718 0.13662612 0.06909943
0.015643997 -0.08079618 -0.017859839 0.042292647 0.041564077 -0.057678465 0.11144039 -0.004484877
-0.0028549917 0.059572384 0.062876135 0.33497733 -0.055938087 4.032101 0.04878957 0.054041117
0.0057613673 -0.52056867 -0.60641 -0.0021634735 -0.022598982 0.04760681 0.10035134 -0.0038511194
-0.07889928 0.15846841 0.061087303 2.1631908 -0.10087013 0.025438786 0.027907267 -0.034977484
-0.03922258 -0.08481462 0.036008395 0.0076164147 -0.1341316 -0.5244507 -0.08032145 0.0073767304
0.019940421 -0.0010498672 -0.1686886 -0.55771494 0.004816152 0.4905342 0.047064427 0.024379276
0.49329677 0.029790482 0.07583407 -0.011513896 -0.006906563 2.256064 0.083221756 0.035226844
-0.026229355 0.04654163 0.06044244 0.29006693 0.10805748 0.13314354 -0.0047396724 0.099467084
0.052430928 0.015478899 0.038564034 0.092437014 -0.05173973 0.045429796 0.032067087 0.035280198
0.033417523 0.046889536 0.00845903 -0.21355122 0.20281442 0.124097355 0.29199535 0.066553235
0.018081132 -0.035584517 0.017708953 -0.22540519 -0.10056691 0.046230633 -0.30874643 0.12483715
0.05405492 0.019668683 0.12570183 0.033596523 0.045297436 -0.033850685 -0.0364897 0.03800407
-0.3205548 -0.047054257 0.035044774 0.01626677 -0.14943111 -0.053888775 0.03039693 0.031483144
0.0070829643 0.032899916 0.380487 -0.10557531 -0.036177263 -0.7069237 -0.11316141 -0.68534267
-0.231477 0.0036407032 -0.043733716 -0.049281336 0.0047292793 0.40999871 0.052618228 0.0029504597
0.1930245 0.038723595 -0.04046479 -0.027190559 -0.1289196 -0.11260119 0.16485184 0.033853505
-0.047410443 -0.024654174 -0.3330592 0.042004667 0.011342101 0.038802072 0.020479219 0.03462217
0.038272128 0.41102025 0.0058509945 0.03746388 0.010435402 -0.02057993 0.33379382 -0.05705723
0.055131137 -0.041910466 -0.038347617 -0.013646577 -0.04569994 0.037710372 0.22910146 0.02862598
0.23026963 -0.034703195 0.04769405 -0.17672475 -0.05268659 0.008346088 -0.10826754 -0.068647526
-0.62222826 -0.12528431 0.0012488128 0.28147858 -0.01937339 0.02405023 -0.100326136 -0.011539857
0.056515023 -0.068837516 -0.02119455 0.15646522 -0.40078327 -0.005515473 0.008557136 -0.04820851
-0.029901272 0.025121003 -0.005554989 3.941772 -0.0152077675 0.02629636 -0.1679937 -0.08860428
-0.03375221 0.06011719 0.6300471 0.04627586 0.030570067 0.036833256 0.08596089 0.05941959
-0.047260527 0.023268083 0.3425756 -0.28726858 0.026406957 -0.038518887 -0.004654989 0.047426216

fc2.bias f4 [300]
00000000: 0af9 e33d 1546 59bd ccc9 933d c8fb a7bb
00000010: 33d4 87bd 6a0b 613e c922 8c3e aaf0 393e
00000020: b90b 5dba b771 e23d e768 96bd c507 2c3e
00000030: dc31 483e 70ae 85bc 4525 b2bc b715 5cbd
00000040: 1366 5c3e b388 9cbd bbc1 0d3e 02ac a63c
00000050: 5624 553e 7345 463e 4861 abbd 3383 3f3e
00000060: ed82 e93d e3aa 513e c24c 69bd cb7b a3bd
00000070: 91cd 2e3e b8fc 033e 3bfb 053e 5be2 ebbc
00000080: 20ea eebc aae3 b7bd 6a3c 923c 4457 283e
00000090: 941e afbd 00ae 51bd b2a6 7dbd 4ec2 b83e
000000a0: b99d 383e 10f0 b23e a608 b83c bfb0 d53d
000000b0: c424 2c3c 5900 0bbd a580 32bd f13a 933b
000000c0: 6d34 15bd ed62 103d 4bb0 5e3e f6cd 053e
000000d0: 88b2 7c3c 1468 cdb9 cd5d 60bd 58a5 a1bd
000000e0: 158f 1dbd 7fd7 5ebd 1169 f2ba 6323 13bd
000000f0: af97 383d e83f c13b 482f 0b3e 0e7f 103e
00000100: b176 223e 703d d7bc 4145 a53e 21e4 2a3d
00000110: 3583 0d3e a55e 243e 44ff 893c b0e3 39bd
00000120: 9e97 80bc 563b 623e 06bf 103c dc21 96bd
00000130: 6611 67bd 9e3b 013e 6b48 52bd 72d1 063e
00000140: 4eec 65bd a2bc f6bb 56dd 39bd a969 56bd
00000150: 87a4 703e 1417 e93d 5d67 173e bdd5 fa3d
00000160: b5d8 39bd e892 123d 8f3d 553e ba96 3e3c
00000170: c217 d03d 282d 51bd 20dc 6c3e ff8c 1a3e
00000180: ae72 2e3e db92 f43d e219 353e debf ad3d
00000190: 6bf2 403e 5e59 be3d 1e62 c43c da9f a4bd
000001a0: cbef 5f3e b1e8 a4bd 23c8 0f3e 8362 573e
000001b0: fab1 873c 133f 103e 9b32 6e3e 282e 293e
000001c0: bc01 943e bcf2 13bd 5e38 6dbd bcfc da3d
000001d0: 3955 023e c15c a73d c1bf 223e 9e49 203e
000001e0: 3c87 0e3e a2c8 30bd ae4d b43c b1ac c73c
000001f0: c401 5ebd 5300 123e c1d4 d53d c134 71bd
00000200: abad 6c3e 7c62 d1bc 6ff8 e93b b855 f63e
00000210: 8afe 79bd 065b 133c e50b e0bc cffd 173e
00000220: a811 573e bb6f d7bb b7d4 63bc 8fa4 d5bc
00000230: 07c8 85bd 33b1 41bd 9b42 c9bd 0323 303e
00000240: 3ac8 2ebc eca2 b0bd 8473 7cbd a869 083f
00000250: b8d0 0b3e d435 3a3e 29d7 623d e7ee 413e
00000260: 5627 c2bc 1353 34bd 3d16 98bc 477d a8ba
00000270: 581a 473e 9937 323e 5292 913e 9c3f 32bc
00000280: 1dc8 f3bc 66c4 20bd 8150 cb3d 964c efbb
00000290: 2957 c9bc 054b 083e 5576 f73d 795b 81bd
000002a0: 2dd7 2b3e 53f5 453e 977c 25bd 8867 02bd
000002b0: e9a5 9fbc 5f14 c23d 3d16 69bd a749 a03d
000002c0: 878f 0d3e af57 8ebb cf88 103e 0a28 d3bc
000002d0: d387 8bbe a664 503e b8dd 193e e3b1 7a3e
000002e0: 58aa a63e a32e 2c3e a2aa 7fbd fab2 a13e
000002f0: 7da7 d03d 3104 61bc 8b5b bb3d ac41 3dbd
00000300: 13cf 97bc 7318 3c3e 5cfa 83bc 17f8 643d
00000310: 2e68 b93e 925d d8bc 3ec7 bdbd 1332 6cbc
00000320: 1bec 413d fc8c d43c f64a 323e 5bec b33e
00000330: 70ff 2e3e d74b cabd 5dfa 57bd c311 27bc
00000340: a30c 223e 5967 9dbd 3f93 8a3c f401 09bd
00000350: 617a 13bd 18df e63d 0531 d2bc 16fe 213e
00000360: e621 0a3e 5393 e1bc 8f65 3f3e d7e3 273d
00000370: 8deb 95bd 440a 71bc 9d3b 48bd e4bb e13d
00000380: 48d0 cc3d 7067 443e 65bd 9e3e f33e 833e
00000390: 897a 893e c7b4 19bd 34d6 943d 07f3 c83d
000003a0: 769f b03d 82d8 4c3e a00d 413e 927b 933e
000003b0: 706b ef3d 3c39 503e 749d c1bc 8779 7fbc
000003c0: 98d7 0fbc a6fb eb3d 6d8c 1c3e 1855 fcbc
000003d0: f05f 9a3e a74b 58bd 6e83 e03d 6165 463e
000003e0: 71d3 1a3e a464 01bd 9798 1d3e 83eb 1e3e
000003f0: c196 4d3e f134 50bc d613 343e 2ae9 10bd
0.11131485 -0.05304535 0.07216224 -0.00512645 -0.06632271 0.2197701 0.2737029 0.18158212
-0.0008432228 0.11056846 -0.07344227 0.16799839 0.1955027 -0.01631853 -0.021746287 -0.053731646
0.21523313 -0.07643261 0.13843434 0.020345692 0.20814642 0.1936243 -0.08368164 0.18702392
0.11401925 0.20475344 -0.056957968 -0.07982596 0.17070605 0.12889373 0.13084118 -0.028794458
-0.029164374 -0.0897897 0.017851073 0.16439539 -0.08550754 -0.05119133 -0.06192655 0.36085743
0.18028916 0.34948778 0.022465061 0.10434102 0.0105068125 -0.03393588 -0.043579716 0.0044931103
-0.03642695 0.035250593 0.21746938 0.13066849 0.015423425 -0.0003917819 -0.054776955 -0.07892865
-0.03846653 -0.05440473 -0.0018494447 -0.03592242 0.04506653 0.005897511 0.13592255 0.14110968
0.1586559 -0.026274413 0.322794 0.041721467 0.13819583 0.16051729 0.016845353 -0.045383155
-0.015697297 0.22092947 0.008834606 -0.07330677 -0.056413077 0.12620398 -0.051338594 0.13165835
-0.05613356 -0.007529811 -0.045377098 -0.05234686 0.23500262 0.11381355 0.14785524 0.122477986
-0.045372684 0.035784632 0.20824264 0.011632616 0.101607814 -0.051068455 0.23130846 0.15092848
0.17035934 0.11942073 0.17685655 0.084838614 0.18842475 0.09294389 0.023972567 -0.08038302
0.21868818 -0.08052195 0.1404119 0.21033673 0.016564358 0.14086561 0.23261492 0.16521513
0.28907573 -0.03612016 -0.057915084 0.106927365 0.12727822 0.08171988 0.15893461 0.15653083
0.13918775 -0.04316009 0.022009697 0.024374338 -0.054200903 0.14257936 0.1044097 -0.0588882
0.23113124 -0.025559656 0.0071402113 0.48112273 -0.061033763 0.00899387 -0.027349422 0.14842914
0.21002829 -0.0065745986 -0.013905696 -0.026079444 -0.06532293 -0.04728813 -0.09827157 0.17200856
-0.010667855 -0.08624825 -0.0616336 0.5328622 0.13653839 0.18184596 0.055380974 0.1893879
-0.023700397 -0.04402454 -0.018565292 -0.0012854718 0.19443643 0.17404021 0.28431946 -0.0108794235
-0.029758507 -0.0392498 0.09927464 -0.007302831 -0.024577694 0.13309868 0.12083117 -0.06316275
0.16781302 0.19331865 -0.04040202 -0.031837016 -0.019488292 0.09476542 -0.056905974 0.07826548
0.13824283 -0.004343949 0.14114688 -0.025775928 -0.27252063 0.20350894 0.15025985 0.24481921
0.32551837 0.16814665 -0.062418588 0.3158186 0.10188196 -0.013733909 0.0914832 -0.046205208
-0.018531358 0.18368702 -0.016110592 0.05590066 0.36212295 -0.026411805 -0.09266518 -0.0144162355
0.04734431 0.025946133 0.17411408 0.35141262 0.17089629 -0.098777466 -0.052729 -0.010197106
0.15825133 -0.076857276 0.016915916 -0.03344913 -0.03600538 0.112730205 -0.02565814 0.15819582
0.13489494 -0.02753607 0.18691085 0.04098877 -0.07320318 -0.01471192 -0.048884977 0.110221654
0.10000664 0.19180083 0.31003872 0.25633964 0.268513 -0.03752592 0.072674185 0.09811979
0.08624165 0.20004466 0.18852854 0.28805214 0.11690414 0.20334333 -0.02363465 -0.015592939
-0.008779429 0.115226075 0.15287943 -0.030802295 0.3015132 -0.052806523 0.10962568 0.1937461
0.15119721 -0.03159012 0.1539024 0.15519528 0.2007704 -0.012707935 0.17585692 -0.035378613

fc3.weight f4 [1, 300]
00000000: 8cea f0bb 177c 923c fa74 13be 9da9 26bb
00000010: 9c99 d93c f7bb 49bf 2c01 d8bf 98de bebd
00000020: 1c6a adbb f318 c4bd de39 cc3c 2e71 ebbe
00000030: b222 ccbd 6b7c d9bb 8d7c 03bd e5d4 f93c
00000040: 743d 6dbd 531e eabc 43b9 1cbc 7f3c d9bc
00000050: a3f5 9bbe 7705 47be 2b9c e8bc 7c2b 77bd
00000060: 1298 eabb a73b b7bd b982 ebbb 76d0 ae3c
00000070: cd34 a2bd 0480 e5bd c79e 72bd 320f 143f
00000080: 8d0f ddbb 9313 57bc b701 45bd a58d bdbd
00000090: 96f4 083d 1463 963c a95d 98bc df92 cebe
000000a0: e8a5 22bd 9a30 c5be 290c b2bb 15da 3dbc
000000b0: 2bb1 a13c 5540 cc3c 90b7 11bc 5f0f e2bb
000000c0: c54f cbbc b380 703e 066e 98bd 291e c1bd
000000d0: 3d3e 3c3f a07e aabc dade 0bbc d0c5 f83c
000000e0: 986d 7dba ffdd 3c3c 1597 973c f2fa c93c
000000f0: d4c0 983e 26cc e1bc 28b0 6dbd 6e1b 58be
00000100: 2c47 12bd bf41 88bc 1628 a640 4ee4 adbb
00000110: 2e6c 6f3c ba2f 45be 3c10 8cbb 374d 0a3c
00000120: 6963 0e3c 6e26 abbd e044 01bc 28dd 2c3c
00000130: 3c87 0d3d 2a72 06bc e8ee be3c f70e 09bc
00000140: e272 c33c 3e1f 1dbc d6e8 16bc b67f f63b
00000150: 9a82 8bbe add4 fcbb e2d4 6ebb ed53 11bd
00000160: f27d 543c ed5f d5bb 9dc8 1941 e436 afbb
00000170: b1f5 0d3e 8ae0 b0ba 8900 99bd 6052 0bbc
00000180: 89b0 4ebe 061c fbbc a52f 0abc 26b8 1cbe
00000190: f00c c3bd ef9d f7bd 03fb 7abb 4220 b83c
000001a0: a0a7 72be 0d32 8cbc 21ef 93bd 8511 97bd
000001b0: fd9f da3c e2a9 a7bc 4f4c 89be 2eeb 9140
000001c0: 9733 77be f29e e53c fa90 a2bc 9776 ecbb
000001d0: ae7a e2be edda 8cbd 8246 8abd 7675 c4bd
000001e0: b826 9bbe 9205 173c d7c9 c83b 5d11 81bb
000001f0: e175 da3c 34f8 3e3b 0510 7e3c 97e8 f63c
00000200: c45d 76bd 615d d23c 6814 acbb 775d 5f40
00000210: 3809 d93c 6e99 5ebb 18ca 21bc d70e a9bd
00000220: 6f46 00be 1700 0c3d 698a 0e3d 0c19 88bb
00000230: 041f cb3c 887b cf3b 2767 e83b 62da e7be
00000240: 5f11 bcbb f5d7 a83c 040b 833b fb17 4ec0
00000250: 3390 81bc 8c2c 6cbd df91 eb40 9ae9 edbe
00000260: d4cc 9d3a aa39 8abb 8840 dfbc 36ef 4a3b
00000270: 44f0 38bf 263f 1cbc 56f0 87bf 49eb 0bbc
00000280: 4931 e5bc 60cc 82bb e6aa d73f 1856 cfbb
00000290: 2b0d b1bb d3bf 3cbd 78e1 e9bb 0b12 323d
000002a0: 05c8 2ebc 93c8 bdbd 3706 dd3c 72f0 1b3c
000002b0: 4047 c93c 7cb6 96bd a837 0ebc 0305 00bd
000002c0: 75f0 85bd 6ec7 28bc 4ae5 e8bb a9ee e5bc
000002d0: b6c0 c3be cd2f c0bc 9421 46bd dda0 d8be
000002e0: 8e7f 07c0 edc7 43bd 9e1d f0bc 8ef6 a6bf
000002f0: 5a0c 68bd 746d ca3c 4ba7 e93d 0796 ccbb
00000300: 3093 b03c 34cc e7bd 3de0 aebc 695f dcbd
00000310: adf5 dabe d5fa 30bd 6ee8 393c 6961 f33c
00000320: f578 cfbc 3320 773c 8708 10bd b3a4 bdbf
00000330: 1bc9 89be f23d 233a 952a dcbc c4f6 8dbc
00000340: 05bc ddbb 2757 fabc b47f 51bb ecf4 23bc
00000350: ca7c 86c0 8cb3 08be 1d9d fabb 0978 85bd
00000360: 3735 8abc a8bd 2d3c 1d19 15bc ec44 8ebb
00000370: d282 c83c 81f3 aabb 1103 c2bb b1d2 f3bc
00000380: a5d3 0cbe 3ab9 07be b555 45be d1c1 01bf
00000390: 4557 48be 1e9f 5bbb 9bf4 03be 5369 b7bd
000003a0: 3245 1a3e 76f6 e7bd c5fc 9abd ac4e 73be
000003b0: faf4 8cbb 0200 ebbc d06b ecbb dfdb a0bb
000003c0: 8700 d83c 4914 34bc 302d 59be c45f 1f3d
000003d0: bf57 c5be 7535 e43c 0c59 a2bb d56c 83bd
000003e0: 4326 d3be 8120 f5bc 8503 10bc ce5d 10bc
000003f0: e996 5dbe addd d63c a7de f5bb 4986 cbbc
-0.007352179 0.017881436 -0.14400092 -0.0025430687 0.026562504 -0.78802437 -1.6875358 -0.093198
-0.0052921902 -0.09575071 0.024929937 -0.45984787 -0.09967555 -0.006637146 -0.032101203 0.030497024
-0.057919934 -0.028578913 -0.009565654 -0.026518105 -0.30460843 -0.19435678 -0.02839478 -0.060344204
-0.0071592415 -0.08946925 -0.007187214 0.021339636 -0.07920227 -0.11206058 -0.059233453 0.57835686
-0.0067462386 -0.013127225 -0.04809734 -0.09255532 0.03343638 0.018357791 -0.018599348 -0.4034643
-0.039709 -0.38513643 -0.0054335785 -0.011587639 0.0197378 0.02493302 -0.008893862 -0.006898805
-0.02481831 0.23486595 -0.0744286 -0.09429581 0.7353247 -0.020812333 -0.008537019 0.030367762
-0.0009667515 0.011527537 0.018504659 0.024655793 0.29834616 -0.027563166 -0.058029324 -0.21104214
-0.035712406 -0.016632913 5.1923933 -0.005306757 0.014613194 -0.19256487 -0.004274396 0.008441261
0.008690693 -0.08356939 -0.007889956 0.010550775 0.034552798 -0.00820593 0.023307279 -0.008365384
0.023858491 -0.009589968 -0.009210786 0.0075225485 -0.2724808 -0.0077157826 -0.0036442806 -0.03548043
0.012969481 -0.0065116794 9.611478 -0.0053471196 0.13863255 -0.0013494652 -0.07470805 -0.008503526
-0.2018453 -0.030653011 -0.008434211 -0.15304622 -0.09523952 -0.1209067 -0.0038296587 0.02247632
-0.23696756 -0.01711371 -0.072233446 -0.073763885 0.026687616 -0.020466749 -0.2681603 4.5599585
-0.24140774 0.028029893 -0.01984452 -0.0072162854 -0.44234222 -0.06877694 -0.067517295 -0.095927164
-0.30302978 0.009217637 0.006127577 -0.0039388374 0.026667537 0.002913964 0.015506749 0.030140204
-0.060148016 0.025679292 -0.005251456 3.4900796 0.026493654 -0.0033965963 -0.009874843 -0.082547836
-0.12526868 0.034179773 0.034799967 -0.0041533764 0.024795063 0.0063318647 0.007092375 -0.452838
-0.0057393755 0.020610789 0.003999116 -3.2202137 -0.01581583 -0.05765967 7.3615565 -0.46467286
0.0012039193 -0.0042183 -0.02725245 0.0030965335 -0.72241616 -0.00953654 -1.062022 -0.008539983
-0.027977603 -0.0039916486 1.6849029 -0.006327402 -0.005403181 -0.046081375 -0.0071374737 0.04347424
-0.010667806 -0.09266772 0.026980503 0.009517776 0.024570107 -0.07359025 -0.008680262 -0.03125478
-0.06540004 -0.010301454 -0.0071074115 -0.028067904 -0.38232964 -0.023460293 -0.048371866 -0.4231023
-2.1171603 -0.047798086 -0.029310998 -1.3043993 -0.056652404 0.024710394 0.11408862 -0.0062434706
0.02155456 -0.113182455 -0.02134716 -0.107603855 -0.4276556 -0.043207962 0.011346919 0.029709535
-0.025326231 0.0150833605 -0.035164382 -1.4815887 -0.26911244 0.0006227187 -0.026875773 -0.017329581
-0.0067667984 -0.030559136 -0.0031966986 -0.010007124 -4.202733 -0.13349742 -0.007648124 -0.065170355
-0.016871078 0.0106043 -0.009100226 -0.004341712 0.024476442 -0.005217016 -0.0059207757 -0.029763551
-0.13752611 -0.13254252 -0.19270976 -0.50686365 -0.1956454 -0.003351159 -0.12886278 -0.08955636
0.15065458 -0.113263056 -0.07567743 -0.2376048 -0.0043016644 -0.028686527 -0.0072150007 -0.004909023
0.026367439 -0.0109911645 -0.21208644 0.03890969 -0.38543507 0.027857522 -0.004954463 -0.064172424
-0.4124013 -0.029922726 -0.008789902 -0.008811427 -0.21639599 0.02622875 -0.007503349 -0.024844306
