dqn/exercise/checkpoint.pth (torch_old, 21057 bytes, 6 tensors)

fc1.weight f4 [64, 8]
00000000: 0c93 c03e 16e4 f8be 22eb 02bf 0f97 863f
00000010: 4592 1b3f 8b67 b13e 48a6 db3d b14c f13e
00000020: b628 a3be 9876 123e 29ad cebe 966e 92be
00000030: 77cf e0be 0fc0 febe 2cad 31bf 0618 f73d
00000040: 2271 cebd 3570 f03b e5d7 893e 5626 d33b
00000050: 8bd2 1a3f 192c d93e 2594 b03c 4984 f93e
00000060: 6247 d4bb 543a 7fbd 615e 773f fd29 d13e
00000070: 7e9c 49bf 3597 c5be f6df efbd 1486 023f
00000080: b8bc afbd 0c43 bb3d 206e 19be f8d9 bfbe
00000090: cd83 013f d65d cf3d 731e 46bd 0d31 ea3e
000000a0: 5150 943e 4d1e b0bf 3c86 b5bb 8f29 14bf
000000b0: d386 97be 138b 27be 8316 cb3d 3d2f 913e
000000c0: be2b eebe aa5c 92bd f2d9 1ebe 3b26 893d
000000d0: 4d44 9d3e 93ad e63e a945 033f 41e1 f2be
000000e0: 156e 58be 2604 37bf 733a 91bd e515 8cbf
000000f0: edf8 633e 6230 5b3e a5b1 95be 74b5 a9be
00000100: 9343 013f 5bd5 23bd 4565 083e a356 6dbe
00000110: 36bd b3be 9eb1 f93e 6c1b 22be 7d39 39bf
00000120: 4625 d73e c3e6 c23e 9b8b dd3d da28 3a3f
00000130: b622 02bf c4a4 05bf fa32 303e 3c2e 92be
00000140: bed9 72be 830b 743f cd86 1e3e b1ce bebf
00000150: 2366 3fbe a360 043e cc5e 98bd a39e b2be
00000160: 1b2d 183e fff4 f8be e48d 7ebe 4589 b8be
00000170: f78f 1a3f 47b6 983e 5f7b b2be feae 0dbf
00000180: 3d96 a6be 6b45 a8bd 79f6 393e ca67 193d
00000190: 40b9 463f 2e61 043f 7a82 903e 38f8 9b3e
000001a0: 3d02 cebe d993 e8be 6d3b 603d 8537 bc3e
000001b0: fb23 213f 279d e3bc d713 4b3e ea06 013f
000001c0: 2085 bbbe f744 143f 85d7 593f 05ce d1bf
000001d0: 44ec 4bbf 0986 613d 5067 013d 2ba6 d23d
000001e0: 6b40 263f 4e2a 1bbb afd8 693d 7cfc 763e
000001f0: 86d5 08bf cf99 3fbf 3ef9 19bf c30d 37bc
00000200: e705 42bf 1232 94bf 9634 87be ac8a 903e
00000210: 4f03 723e 5542 a03d 0c9c c53d fe48 fa3c
00000220: 913c c3be 08c0 133d 518f 8f3e c6a1 3b3f
00000230: 613b 963e 2438 0e3f bdfa 383f 8dfd cabe
00000240: 7161 eebd 898e 64be 614a d6bd 74c7 99be
00000250: bbfe 87bd 0036 1ebf d4de a5bf 8147 503e
00000260: bd32 cf3d f8eb 3a3f dde4 43bd 4e04 81bf
00000270: 63b4 053d ddcc 9abf 1e89 1dbe ed4b 13be
00000280: a2ba 6abd 07db bcbe 4da2 483e ad9c 5bbf
00000290: 2565 86bd 28f8 863d aed9 41be 0d95 af3e
000002a0: cdd2 343f 204a f6be e92c b73f 31d9 4dbf
000002b0: 897f 5dbe 5afc 77bd 7347 8b3b 7acf 103e
000002c0: 32a7 c93d 8114 8dbf 3fa9 e83e 1e67 8cbf
000002d0: c127 7fbe fb31 22be 3941 843e 13f1 703e
000002e0: 6edb 193f 6373 e3be 9ff4 b5bd 5544 03bf
000002f0: 9d27 30bf 50ff ca3c 6ddf 463f bd31 c83d
00000300: 4fdc 85be a4b2 f5be afd2 3ebf f9b6 f8be
00000310: b55b df3e e59e 423e 15b9 663e 9110 d3bd
00000320: da89 84be daff a73d 3234 a0be 0940 843f
00000330: 05b2 073f b2d0 a13e 65e0 3dbc 6476 013f
00000340: 9bb3 e43e 9998 34bf 5f66 213f 024e 23bf
00000350: e8d1 b2be ccb0 e83c 61c2 4d3e af75 89bd
00000360: fc08 0e3e 5e5d 82bf 0934 4c3e 0124 d0be
00000370: c4b4 123f f77d 833e 497e 933d 391d e0be
00000380: bf88 c83d 77c4 313f bab9 d5bf cbf1 9cbf
00000390: 12ee cebe 7eab c2bc 12bd 1c3d 6cb5 933e
000003a0: 2961 243e 6849 6e3e d943 5d40 c562 a2bf
000003b0: 043e 363e f6ab e2bd 0309 1e3d 5c1c 3bbd
000003c0: 0add 80bd c605 993d 7aa2 74bd fc5d 0c3e
000003d0: e8d9 54be c37c 35bf ad15 bb3e cdc9 1cbc
000003e0: f762 e6be 835f 89bf cc8b a7be bdb2 e9be
000003f0: c385 be3e b0aa 5b3c 9195 9d3d 9531 a2bd
0.37612188 -0.48611516 -0.51140034 1.051485 0.60770065 0.3464931 0.10725075 0.47128823
-0.31866997 0.14303052 -0.40366486 -0.28599995 -0.43908283 -0.49755904 -0.69404864 0.12065129
-0.10080172 0.007337595 0.26922527 0.006443779 0.60477513 0.42416456 0.021555016 0.48733738
-0.006478236 -0.062311485 0.96628386 0.40852347 -0.78754413 -0.38591924 -0.11712639 0.50985837
-0.08580917 0.091436476 -0.14983416 -0.37470984 0.5059174 0.1012532 -0.048368882 0.45740548
0.28967527 -1.3759247 -0.0055396836 -0.57875913 -0.2959505 -0.16361646 0.09916403 0.28356352
-0.46517748 -0.071465805 -0.15512827 0.06696745 0.30716172 0.45054302 0.5127817 -0.4743748
-0.21135743 -0.71490705 -0.070912264 -1.0944182 0.22262926 0.21405175 -0.29237095 -0.3314625
0.50493735 -0.039998394 0.13319881 -0.2317758 -0.35105294 0.48768324 -0.15830773 -0.72353345
0.42020625 0.38066682 0.10817643 0.72718585 -0.50834215 -0.5220454 0.17206946 -0.285509
-0.23715875 0.95330065 0.1548111 -1.4906827 -0.18691306 0.12927489 -0.07439956 -0.34886655
0.14860956 -0.48624417 -0.24858814 -0.36042228 0.6037592 0.29826567 -0.3485975 -0.5534514
-0.32536498 -0.082163654 0.18160428 0.037452497 0.7762642 0.51710784 0.28224546 0.30462813
-0.40236083 -0.454253 0.054744173 0.36761108 0.62945527 -0.027784897 0.19831787 0.50401175
-0.36625004 0.5791773 0.8509448 -1.6390997 -0.7965739 0.055059467 0.031592667 0.102856
0.64942044 -0.0023676339 0.05709141 0.24119753 -0.5345081 -0.7484407 -0.6014594 -0.011172715
-0.75790256 -1.157778 -0.26407307 0.28230798 0.23634075 0.07825152 0.09648904 0.030552384
-0.38132146 0.036071807 0.2803903 0.7329372 0.29342178 0.55554414 0.72257596 -0.3964657
-0.11639679 -0.22319998 -0.104634054 -0.30034983 -0.06640383 -0.6180115 -1.2958627 0.20339777
0.101170994 0.7301631 -0.047825683 -1.0079439 0.032642733 -1.2093769 -0.15384337 -0.14384432
-0.057306893 -0.36885855 0.19593163 -0.85785943 -0.065622605 0.06590301 -0.18930694 0.34293404
0.70634156 -0.48103428 1.431058 -0.8040953 -0.21630682 -0.060543396 0.004250461 0.14141646
0.09846343 -1.1021882 0.45441625 -1.0968969 -0.24917509 -0.15839379 0.2583101 0.23529463
0.6010045 -0.4442397 -0.088845484 -0.5127614 -0.68810445 0.024779946 0.7768467 0.09775112
-0.26144645 -0.47987854 -0.7454023 -0.48577097 0.43624654 0.19005926 0.2253154 -0.10305894
-0.25886422 0.08203097 -0.31289822 1.0332042 0.5300601 0.31604534 -0.011589144 0.50571275
0.44668278 -0.70545346 0.6304683 -0.63790905 -0.3492577 0.028404616 0.20093681 -0.067118995
0.13870615 -1.0184743 0.19941725 -0.4065247 0.57307076 0.2568204 0.07201821 -0.43772295
0.09791707 0.69440407 -1.6697304 -1.2261289 -0.40416008 -0.023763414 0.03826625 0.2884935
0.16052689 0.2327019 3.457266 -1.2686392 0.17797095 -0.11067955 0.038582813 -0.045681342
-0.0629216 0.07471804 -0.059725262 0.13707727 -0.2078625 -0.70893496 0.36539975 -0.009569597
-0.4499738 -1.0732273 -0.32723844 -0.4564418 0.37211427 0.013407394 0.07694543 -0.07919613

fc1.bias f4 [64]
00000000: b1bd f9be 9388 4ebe d383 9abd 0f95 cfbe
00000010: 0203 9ebe f316 efbe 1992 2b3e efb8 41be
00000020: 0d36 8ebd c597 803e 668b 233f 9e14 fdbd
00000030: 5fe3 b63d f569 28be fa8e 173f 54f3 fcbe
00000040: bfc4 e5bd f3ce aabe 934c e03e 5649 da3e
00000050: d549 00bf 680d 8cbe 890a 02bf 4bd2 0abe
00000060: bf5f 21be 0962 debe f741 c7be 3727 15bf
00000070: 603d e23e 4fda 6c3e 2931 26bd f987 72bd
00000080: 796c bcbe fa15 f33e 26fd 0d3e 246f 2a3d
00000090: 70f9 343c e03a 43be 97be abbe 6ead 00bf
000000a0: e9b7 aa3e ca6b bbbe 8b39 843e a844 243e
000000b0: 36ee 983d 561c c8bc 032d 013f bf8e 0c3f
000000c0: 082d a4bd ad3c 51ba b016 5bbe 93f4 483f
000000d0: be28 1dbf 0212 223f a081 a8be da50 7abd
000000e0: 8e14 d53e a2c9 1ebe 84f7 0a3f 5ec4 7abe
000000f0: 7655 61be e9f8 d2be 205f 263e 4f5e 253f
-0.48777536 -0.20169286 -0.07544675 -0.4054341 -0.3086167 -0.46697196 0.1675495 -0.18918203
-0.06943903 0.2511579 0.6388458 -0.12357448 0.08930086 -0.1644667 0.5920254 -0.49404395
-0.11219167 -0.33361015 0.43808421 0.42634076 -0.5011266 -0.27353978 -0.50797325 -0.13556783
-0.1575918 -0.4343417 -0.38917515 -0.5826296 0.4418745 0.23130153 -0.040574227 -0.059211705
-0.36801508 0.47477704 0.138661 0.0416099 0.011045799 -0.19065428 -0.33543846 -0.5026463
0.33343437 -0.36605674 0.25825152 0.16041815 0.0746731 -0.024427574 0.5045931 0.54905313
-0.080164015 -0.00079817587 -0.21395373 0.7849819 -0.6139029 0.6330873 -0.32911396 -0.061112262
0.41617244 -0.15506604 0.5428393 -0.2448897 -0.22005257 -0.41205528 0.16247225 0.6459703

fc2.weight f4 [64, 64]
00000000: 8879 aa3e 2d50 47bc 6f4d 6c3c 4975 1f3f
00000010: 631c 28bc 12ca a53e e32b bd3e 47ea 953e
00000020: a6c9 1ebd 708f bd3e 4914 583d a761 f63c
00000030: 9009 6b3e ebde c93e 8223 ab3d 3e15 1d3f
00000040: 58c8 ce3e 6432 273f 88c1 f93e 19aa 5dbe
00000050: fd66 ea3e 6a75 0b3f 902c 863f 48f5 a03d
00000060: affb b0bc 53a0 5e3e f93b 413f c739 843e
00000070: 6a15 4cbe 706e bd3b 6f60 623e befb a53e
00000080: a734 ac3d ceed a53e ee5a 2abe 00c5 ccbd
00000090: e45a 83bf 240c d93e 309d 353d cf88 8b3f
000000a0: db43 6d3e 69a6 853e a2dc d23e 7ad6 d7be
000000b0: 9012 483e d1c5 d13e 2d33 113f 023b 3dbc
000000c0: 1919 7abf 6b60 0f3f 5ec0 1e3e 11bc 503c
000000d0: 063f 173f e0c0 54be 45cc 243f 6136 703e
000000e0: af9f 303e f90b a73d c9cf 32bc bdce c43e
000000f0: 37a2 763e f114 a53e f933 ebbe 3aed 1bbf
00000100: 5e71 24bc 42bf fa3c bc61 1d3d 62c6 06bd
00000110: a49e 83bd a185 113f d2e7 d63e fbd2 e23e
00000120: 6fa1 0f3f 322e 17bf b31f 213e 81b6 823d
00000130: b51f 273e 6649 c23e cf4c 1cbc 14bb 33bf
00000140: a601 023f aac4 403f 5c5b 0e3d 468e 99be
00000150: 240b 183f 30f0 f73e 2915 513f bd2f b8be
00000160: 8b4f f53e fbe6 393e 07c7 31bd f03e fb3d
00000170: df11 b5be d152 f93e e6ba 2cbe 7bbb 533f
00000180: 4b24 a63e 0b78 163f 9e4e 37be beaf 873e
00000190: 11a7 66bf 31ac 753c ca4f af3d 6217 43bf
000001a0: 6ba2 e43d f4b0 1c3d 5118 ab3e dcb7 dfbe
000001b0: f41d 113f 204e eb3e 0a73 8fbf 3516 5bbe
000001c0: 9ea0 783e 656e 233f 8951 7a3f b7a7 96bd
000001d0: d573 0fbf 17a8 5cbc 7143 39bc 8738 ea3e
000001e0: 7f80 e73d a9d4 39be a6d9 79be 07ad 80bd
000001f0: f1b7 6c3d 2dd9 033f 7b1a 08bf 7783 8bbf
00000200: 9165 6bbd 02d8 2abc 3597 86be ca6c ab3e
00000210: eed7 f2bd d6b9 993e 38ab 233f 6959 21bf
00000220: 06cb 1bbe 5443 853d 1b0a 6b3e 9360 aabe
00000230: 021e ccbe 39da 0d3d 66de c33e 9df8 943c
00000240: b103 433f bb4b a5be c6be 2ebd 0200 4cbe
00000250: e27a 5e3d 2cb0 c0be c87b 8a3e cac5 9ebb
00000260: bc43 92bf 684d 7ebe 97b0 a4bd 3a76 833e
00000270: 5a49 4fbf b972 363f 26ff fdbd 3fbe cdbe
00000280: a0fb 6abe 0a94 013f fb2c aabf 9700 3ac0
00000290: c3eb 2abf 8b07 6e3e ccf7 ca3d 3f7d 0f3d
000002a0: 19e6 6ebe c910 45bf bb97 0d3f f1c7 273f
000002b0: b0f2 ca3f f96b 29bf 8ca4 f4bd 2888 cd3e
000002c0: d8a8 313f 46cd 0b3e bd3e c8be c757 f8be
000002d0: 153a 8ebd 002b 023e 7bc5 d53e 6684 8abe
000002e0: 6fd3 b73e 4d43 00be 1145 c2bd 03a5 773e
000002f0: 80da 39bf 8e52 00be c4ff 3abe a1cb f63e
00000300: a04a 013e 0f3d 4d3e aa73 b63e c60b 513e
00000310: acce 823e 84b8 cd3e b05c a73e e275 bb3e
00000320: 34fd ed3e 8a24 32bd 54d0 b63c 793c 5abc
00000330: d367 013e 35c3 af3e 73bd c23d a889 3a3f
00000340: 742d 533e f242 0a3f c8d0 ac3e e733 aabe
00000350: 8056 0c3f ca67 813f d365 2b3f dd1c 403e
00000360: d3a8 f53e 0180 863e 4998 613f ee77 273f
00000370: 534d 0abe a4e2 d1bd 5de3 993e 803c 0f3f
00000380: 59e1 673e b4d7 563c f9f2 3f3e a9f3 0b3e
00000390: 4f36 88bf eb30 2f3f 0690 fe3d 6457 0c3f
000003a0: 1b22 303e 3548 483e 261c 65bd 3a9d 28bf
000003b0: ebc1 c33d 1119 663e f8c3 913e 368b 913e
000003c0: 94d1 81bf 6903 0f3f f4ff 843e 445e 3ebe
000003d0: 20cc 423f 0117 87bd 40f4 ea3e 8db9 033f
000003e0: de32 623e 4d29 c23e ba67 333e 5a98 a43e
000003f0: 8800 883e e349 b03e 211b 0bbd b5ac 03bf
0.33295846 -0.0121651115 0.0144227585 0.6228834 -0.010260674 0.3238073 0.36947545 0.29280302
-0.038766526 0.37023497 0.05275372 0.030075861 0.22952867 0.39427885 0.08356382 0.6136054
0.40387225 0.65311265 0.48780465 -0.21646918 0.457817 0.54476035 1.0482349 0.07859284
-0.021604387 0.21740846 0.75482136 0.2582533 -0.19930044 0.0057809874 0.22107099 0.32418627
0.0840848 0.32407993 -0.1663625 -0.09998512 -1.0262113 0.42392075 0.04433936 1.0901126
0.23170416 0.26103523 0.41183954 -0.4215582 0.19538331 0.40971234 0.56718713 -0.011549713
-0.97694546 0.560065 0.1550307 0.012740151 0.5908054 -0.20776701 0.6437419 0.23458244
0.17248414 0.081565805 -0.010913798 0.3843898 0.24085318 0.3224254 -0.4593809 -0.60908854
-0.0100367945 0.030608777 0.038423285 -0.032904036 -0.06426743 0.56844527 0.4197374 0.4430159
0.56105703 -0.59054863 0.15734749 0.06382466 0.16320689 0.37946624 -0.009539797 -0.70207334
0.50783765 0.75300086 0.034755096 -0.2999136 0.59392 0.48425436 0.8167291 -0.3597392
0.4791225 0.18154518 -0.043402698 0.12267864 -0.35365197 0.48695996 -0.16868171 0.8270795
0.32449564 0.5877692 -0.17901084 0.26501268 -0.90098673 0.014994667 0.085601404 -0.76207554
0.11163791 0.038254693 0.3341699 -0.4369496 0.5668633 0.45958042 -1.1206982 -0.2139519
0.2428002 0.63840324 0.9778066 -0.07356208 -0.5603612 -0.01346781 -0.011307583 0.45746252
0.113038056 -0.1814753 -0.24399433 -0.06283002 0.057792608 0.5150326 -0.53165406 -1.0899495
-0.05746991 -0.010427477 -0.26287237 0.33481437 -0.118575916 0.30024594 0.63933134 -0.63027054
-0.15214166 0.065069824 0.22953074 -0.33276805 -0.39866644 0.03463194 0.38255614 0.018184954
0.7617751 -0.3228434 -0.042662404 -0.19921878 0.05431641 -0.37634408 0.27047563 -0.0048453556
-1.1426921 -0.24834216 -0.08041494 0.25676137 -0.809713 0.712688 -0.12402181 -0.4018421
-0.2294755 0.50616515 -1.3294977 -2.906286 -0.66765994 0.23245065 0.09910545 0.035031553
-0.23329963 -0.7697874 0.5530965 0.6553946 1.5855312 -0.6618038 -0.11945447 0.4014294
0.6939826 0.13652524 -0.39110366 -0.4850447 -0.06944672 0.12711716 0.41752228 -0.27054137
0.359035 -0.12525673 -0.094858296 0.2418404 -0.7259903 -0.12531492 -0.1826163 0.48202232
0.12626123 0.20042823 0.3563512 0.20414647 0.25548303 0.40179837 0.32687902 0.36613375
0.4648224 -0.043491878 0.022316135 -0.013320082 0.12637262 0.3432862 0.09508791 0.72866297
0.20622808 0.540084 0.33753037 -0.33242723 0.5481949 1.0109799 0.66952246 0.1876101
0.47980365 0.26269534 0.88122994 0.65417373 -0.1350606 -0.102483064 0.30056277 0.5595169
0.22644557 0.013112951 0.1874503 0.13667168 -1.0641574 0.6843402 0.12429814 0.5482085
0.1720051 0.19558795 -0.055935048 -0.6586491 0.09558471 0.224705 0.28469825 0.28426522
-1.0142083 0.5586458 0.25976527 -0.18590647 0.7609272 -0.065961845 0.45889473 0.51455003
0.22089717 0.37922135 0.17520037 0.32147485 0.26562905 0.3443137 -0.03396142 -0.51435405

fc2.bias f4 [64]
00000000: 25fd d8bc 6907 ccbe 4988 033d 8bf3 ac3d
00000010: a60a 8a3d ee97 9b3d e5f7 0bbd d7cc 043e
00000020: 2623 763e ae4e cfbd 14a7 e2bd 38da f3bd
00000030: 5bf6 21be 8ef9 cebc a5c8 943c 48b0 893f
00000040: 5767 a83e aaee 0d3d 8152 d73e 924f 493c
00000050: d77d abbd 937c 29bd 42de 073d ab9d 08be
00000060: 699f fabd 2f91 ccbd 37b3 0c3d a0f8 22be
00000070: c731 d6bc 5931 86bd 8f66 d53e 190e ac3e
00000080: 2da2 3b3d 20d4 003e 6fe2 14be 04d4 d8bd
00000090: 58a6 dc3d 4b62 a0bc 2726 22be 23d9 1a3e
000000a0: 8859 853c b9a9 06be b4fb 103e f6b3 a53e
000000b0: 7528 dfbd a052 733d de95 f3bd baa2 5dbe
000000c0: fe6d 4cbd 3878 c8bd 606b cabc db0d 04be
000000d0: 937b ab3e 9a2b bb3d c2cb 8bbc 99c8 393c
000000e0: 68e8 0a3e 0d82 a4bd 09c4 b4bd 3456 80bd
000000f0: e491 0cbe 8113 e7bd dc0a 723f 4249 67bd
-0.026487896 -0.39849404 0.032112394 0.0844489 0.06740312 0.07597338 -0.034171958 0.12968765
0.24036846 -0.10122429 -0.11067024 -0.11906856 -0.15816633 -0.025265481 0.018162081 1.0756922
0.32891342 0.034651436 0.42055133 0.012287037 -0.083736114 -0.04137857 0.033170946 -0.13341396
-0.12237436 -0.09988629 0.0343506 -0.15915155 -0.026146783 -0.06552381 0.41679808 0.33604506
0.04580896 0.1258092 -0.14539503 -0.10587314 0.10773915 -0.01957812 -0.15834866 0.15121894
0.016278043 -0.13150682 0.14158517 0.32363862 -0.108963884 0.05940497 -0.11893819 -0.21644107
-0.049909584 -0.09788555 -0.024709404 -0.1289591 0.33492717 0.09139176 -0.017064933 0.01133933
0.13565218 -0.08032618 -0.08826453 -0.06266442 -0.13727528 -0.11283017 0.9454782 -0.05646635

fc3.weight f4 [4, 64]
00000000: 376d 14bf 988a 8fbf bef7 fd3e 33ac b5be
00000010: 2c6f 3ebe b880 e0be 8876 5b3d c139 fabe
00000020: 9837 2f40 4c0a 1d3d f2b1 25bf 1636 93bd
00000030: afbd febc 7df1 6cbf 2ed0 143f 54a8 b13f
00000040: 471e 9e3f 0a2b 41bf 069a 1240 92ca c6be
00000050: 71a7 89be 02c5 6b3d 79f2 64be e38a 4dbd
00000060: f521 f5be bc57 9e3f 9fb9 3f3f 7dbb 92bf
00000070: f7f4 f3be 6e8e 15bf 004d cf3f 6e4b 953f
00000080: ddaa 8bbf 438d 5bbf 5259 cbbe 6840 dcbd
00000090: 8537 60be c459 bfbe 853e 60bc 38ea 49bf
000000a0: e816 d9be abb6 91bf 04ec b9be 524f 543f
000000b0: d9b2 243d 5617 bc3a 91a6 6a3d 826f a2bf
000000c0: bec3 06bf 8f68 cdbe f330 c3be 25aa fcbe
000000d0: 870a 5ebe b6fb bcbe 0c08 a1be 18fc e43e
000000e0: 6f6c 51bf 6ea8 56bf 016b 1fbf b88a 77be
000000f0: 2212 1cbf 7306 bbbe 2a20 bb3f 5c98 02bf
00000100: e560 4bbe b508 c5bf 1d60 923f ecac e2be
00000110: 7dd8 acbe ddb1 dcbe cac4 fabc 8f08 7dbf
00000120: 764a 3140 3ed9 a3bd 6a9c 1cbf fc9b 35bd
00000130: e147 22bf fd71 e7be fa3c 9b3f 27e6 b63f
00000140: 2ae2 723f ec45 01bf e678 0140 2748 ecbe
00000150: 7d49 91be c8f7 f73d a5fb b8be 45e5 f2bc
00000160: e805 fbbe 15f2 e33f bcc7 e13e fe39 44bf
00000170: bfb7 0abf d13a f6be a0fc 8e3f 1885 a83f
00000180: 798b 8bbf 1089 9fbf 253f f8be cc87 ff3d
00000190: f6c1 06bf 67db 18bf 2c70 813d 029d 17bd
000001a0: 542a 18bf 8124 97bf 1c6e 2ebf fd0e a33f
000001b0: 791a 17bd e532 703c 35d4 b43d 82f1 76bf
000001c0: 4b85 dabe ceb7 22bf 2596 d8be 91b8 5bbe
000001d0: 325b 92be da3f 9bbe da1e dabe d441 663e
000001e0: 715d 08bf 09b7 2abf c626 0bbf a480 f5be
000001f0: 8d07 06bf f72a e2be d62d ae3f cc57 e1be
00000200: 7ab3 1cbf c490 f2be ddca 5ebf fb50 57be
00000210: 52d2 8d3e 63b4 b2be 1f07 493d e805 7abf
00000220: c9e3 1740 aadd 983d 5033 03bf 2d7a f13c
00000230: e389 153f c187 49bf 01d2 dabd b046 b03f
00000240: 56fc b03f be91 88be d85f 5e3f 01c9 15bf
00000250: 1ff2 2f3e f856 973d e9bb 1cbf 2f2e c6ba
00000260: 5825 e0be e081 8e3f 331b 8dbf f44b 93bf
00000270: 751a 10bf 227c c7be 0ab5 b13f 2799 b93f
00000280: 0434 3abf ab5e 4fbf 3ecb c7be 9032 4fbd
00000290: e0d9 2cbe ba87 febe 2933 163d 0108 71bf
000002a0: 7677 13bf e427 a3bf 9d22 9dbe 179b 793f
000002b0: cdd1 b03c 23db d8bc 5820 38bd 435b 0ebf
000002c0: b6a4 ecbe b1fc 18bf 281a 2ebf c1a1 1ebf
000002d0: 9018 71bf 9965 27bf 01ac d2be 72e4 f03f
000002e0: 0abf 14be dba6 1bbf c3ea 14bf 24e2 4abb
000002f0: 1af9 f0be 18e5 59be 3868 b13f 77de 02bf
00000300: 00f2 f7be e28e 813d ee87 dc3d bec4 0fbf
00000310: 833b a8be 10e3 fbbe 551d aa3b d8d9 79bf
00000320: dc61 3a40 4d96 e5bc f2ba 07bf 8012 23bb
00000330: ffb7 77be 41c8 3bbf f997 b63f 14bf e63f
00000340: f21e da3f c6c3 8abe 0ebf 1f40 1837 09bf
00000350: 21aa bcbe 2eb4 91bd 8e99 ebbe 35b6 e33c
00000360: 87cb ffbe 2204 d03e 53b9 083e 2a6a 3bbf
00000370: cb9a 0dbf 2a8e 29bf c5d1 1040 d1ba 093f
00000380: 5590 16bf 9d12 d8be 4742 21bf a461 9bbd
00000390: b848 b6be 2148 08bf 7e98 67bd d81a 29bf
000003a0: 0e2b eebe e696 e5be f66d a6be 9c6c 163e
000003b0: 8736 103e 7754 d3bd 5697 5a3d b0ee d1be
000003c0: 311b ecbe 880a acbe d96e 29bf 39f2 e9be
000003d0: 5409 1abc 666c 98be 8540 35bf 6c97 613f
000003e0: b014 82be 3fb2 0abf e61f 7cbf 311b ecbe
000003f0: 86cb 06bf 680c 21bf e300 a13f 6a48 ecbe
-0.5797915 -1.121417 0.49603075 -0.3548294 -0.18597096 -0.43848205 0.053579837 -0.48872188
2.7377682 0.038339898 -0.6472465 -0.071880504 -0.031096308 -0.9255598 0.58130157 1.3879495
1.235299 -0.754563 2.2906508 -0.38826424 -0.2688556 0.05756093 -0.22358121 -0.05018128
-0.4787747 1.2370524 0.7489261 -1.1463467 -0.4764783 -0.58420455 1.6195374 1.1663644
-1.0911518 -0.85762423 -0.39716583 -0.10754472 -0.21896179 -0.37373173 -0.013686781 -0.78873014
-0.4240029 -1.1383871 -0.36312878 0.82933533 0.040209625 0.0014350216 0.057287756 -1.269028
-0.5264243 -0.40118834 -0.38123283 -0.4934856 -0.21683703 -0.3691079 -0.31451452 0.44723582
-0.8180608 -0.83850753 -0.6227265 -0.24174011 -0.6096517 -0.36528358 1.4619191 -0.5101373
-0.19861181 -1.5393282 1.1435581 -0.44272554 -0.33758917 -0.4310445 -0.030611414 -0.98841184
2.7701697 -0.0800042 -0.6117617 -0.04433821 -0.6339093 -0.45204154 1.2127984 1.4288987
0.9487635 -0.5049732 2.023004 -0.46148798 -0.2837638 0.121078074 -0.3612949 -0.02965034
-0.49027944 1.7808253 0.44097698 -0.7665099 -0.54186624 -0.48091748 1.1170845 1.3165617
-1.0901939 -1.2463703 -0.48485675 0.12477073 -0.5263971 -0.5970978 0.06320223 -0.03701497
-0.5943959 -1.1808015 -0.68136764 1.2738949 -0.03689048 0.014660572 0.08829538 -0.9646226
-0.4267982 -0.63561714 -0.4230205 -0.21457125 -0.28585202 -0.30322152 -0.42601663 0.22486049
-0.5326758 -0.6668554 -0.5435604 -0.47949708 -0.5235527 -0.44173405 1.3607738 -0.44012296
-0.6121136 -0.47376072 -0.87028295 -0.21026985 0.27699524 -0.3490325 0.049079057 -0.9766526
2.373278 0.07464154 -0.5125017 0.029477203 0.58413523 -0.7872277 -0.10684586 1.3771572
1.3827007 -0.26673692 0.86864996 -0.5850983 0.17182206 0.07389635 -0.6122423 -0.0015119965
-0.4377849 1.1133385 -1.1023926 -1.1507554 -0.5629037 -0.38961893 1.3883374 1.4499863
-0.7273562 -0.81003827 -0.3902225 -0.05058533 -0.16879988 -0.49712926 0.036669884 -0.9415284
-0.5760416 -1.2746549 -0.3069047 0.97502273 0.021584416 -0.02647168 -0.04495272 -0.55608004
-0.46219414 -0.59760576 -0.6800866 -0.61965567 -0.94178104 -0.653894 -0.41146854 1.8819716
-0.14526 -0.60801476 -0.5817072 -0.0030957544 -0.4706505 -0.21278799 1.385993 -0.51120704
-0.4842682 0.06326081 0.10768114 -0.5615958 -0.32857904 -0.49196672 0.005191485 -0.9759803
2.9122229 -0.02802577 -0.5301963 -0.0024882853 -0.24191283 -0.7335244 1.4265128 1.8027062
1.7040694 -0.27102488 2.496036 -0.5359969 -0.36848548 -0.07114445 -0.4601559 0.027796844
-0.49959967 0.40628153 0.13351946 -0.7320887 -0.5531432 -0.6623255 2.2628033 0.53800684
-0.58813983 -0.422017 -0.62991756 -0.07586983 -0.35602355 -0.5323506 -0.056541912 -0.66056585
-0.46517223 -0.4484169 -0.3250577 0.14689869 0.140833 -0.10318845 0.05336698 -0.41002417
-0.46114495 -0.33601785 -0.66184765 -0.45692614 -0.009401638 -0.297702 -0.70801574 0.88121676
-0.25406408 -0.5417823 -0.98486173 -0.46114495 -0.526543 -0.62909555 1.2578396 -0.46148998

fc3.bias f4 [4]
00000000: 1b9a 943e 7eb9 a3bd 8a0b 933e 7583 a93c
0.29023823 -0.07994364 0.2871974 0.020692566
